sensor_case/outputs/experiment2/resnet_model.pth (torch, 148679 bytes, 92 tensors)

layer1.0.fc1.weight f4 [16, 5]
-0.23526555 -0.17723535 -0.052573375 0.060215525 -0.31316736 0.04127669 0.3990315 0.18749322
-0.29944834 0.47386342 -0.27835763 -0.5263885 0.02482827 0.04585804 -0.13139531 0.08270871
-0.27146384 0.112333395 0.17265604 0.12328081 0.08918608 -0.09620554 0.29322538 -0.42226645
0.17746527 -0.36371785 0.30179724 0.2017033 0.30744854 0.020207431 -0.09283877 -0.11261781
0.14003831 0.22389565 -0.4511101 0.36499476 -0.070828415 -0.4941876 0.19000806 -0.19570404
0.079854056 0.017507322 0.24305288 -0.25098544 0.20202777 -0.17831345 0.40760958 -0.14793961
0.023248048 0.015935814 0.221792 -0.11727789 0.48069546 -0.040559504 0.23853286 0.17866893
0.46739647 -0.28842714 -0.04333728 -0.41649133 -0.24337514 -0.4377188 -0.05842069 0.17489247
0.15327927 0.22895707 0.039793648 -0.5565755 0.3061384 0.049884617 -0.24594945 -0.15083091
-0.14332812 0.41686368 0.09647855 -0.11425095 0.47447875 0.10880131 0.27081332 -0.19540998
00000000: 74e9 70be 2f7d 35be 2e57 57bd 8ea4 763d
00000010: 7957 a0be bf11 293d db4d cc3e 39fe 3f3e
00000020: 4b51 99be 3a9e f23e e484 8ebe 66c1 06bf
00000030: a864 cb3c a4d5 3b3d 7e8c 06be 2f63 a93d
00000040: 4ffd 8abe 0d0f e63d bfcc 303e a67a fc3d
00000050: 31a7 b63d 6907 c5bd a321 963e 4f33 d8be
00000060: 75b9 353e 3a39 babe 2b85 9a3e 4f8b 4e3e
00000070: e569 9d3e 0e8a a53c 4122 bebd 2ba4 e6bd
00000080: 3466 0f3e e744 653e e7f7 e6be 98e0 ba3e
00000090: 7d0e 91bd 2806 fdbe 7991 423e a466 48be
000000a0: 868a a33d 846b 8f3c dbe2 783e 2a81 80be
000000b0: 5ee0 4e3e cd97 36be 34b2 d03e 7b7d 17be
000000c0: b172 be3c d38b 823c 711d 633e 642f f0bd
000000d0: b71d f63e b921 26bd f541 743e fdf4 363e
000000e0: 974e ef3e b9ac 93be 6f82 31bd 5a3e d5be
000000f0: 5537 79be ae1c e0be 894a 6fbd 0317 333e
00000100: 3ef5 1c3e b973 6a3e aafe 223d bb7b 0ebf
00000110: 2cbe 9c3e d053 4c3d 2cda 7bbe 6b73 1abe
00000120: 9bc4 12be 286f d53e 8c96 c53d 67fc e9bd
00000130: e1ee f23e 39d3 de3d 0ba8 8a3e 8e19 48be

layer1.0.fc1.bias f4 [16]
-0.22597007 -0.15893145 0.2826549 0.35860637 -0.3244317 -0.4513866 -0.46468508 0.35535148
-0.4102767 -0.14503542 0.1614826 -0.31579152 -0.45959234 -0.19180137 0.039454233 -0.27495947
00000000: b364 67be edbe 22be 25b8 903e 419b b73e
00000010: e91b a6be 251c e7be 34eb edbe a1f0 b53e
00000020: ca0f d2be 2a84 14be b25b 253e 6daf a1be
00000030: b04f ebbe 9467 44be c39a 213d 7dc7 8cbe

layer1.0.bn1.weight f4 [16]
0.9575753 1.1235714 0.9862888 1.0855896 0.99047804 0.8372105 1.0633382 1.1531496
0.8948843 1.0324816 0.9602818 1.1457678 1.0309603 1.0436594 0.7793366 0.78671324
00000000: a823 753f 30d1 8f3f 6c7d 7c3f 9af4 8a3f
00000010: f88f 7d3f 6d53 563f 771b 883f 689a 933f
00000020: 2317 653f 5b28 843f 07d5 753f 85a8 923f
00000030: 82f6 833f a296 853f 9a82 473f 0a66 493f

layer1.0.bn1.bias f4 [16]
-0.0016749708 0.0036866078 0.009605942 -0.017687524 -0.054523934 -0.25042108 0.02179935 0.20219299
-0.06317432 -0.14620389 0.20172414 0.12655567 -0.046518236 -0.20965305 -0.04805829 -0.20373704
00000000: b28a dbba 049b 713b 3e62 1d3c 6de5 90bc
00000010: 7d54 5fbd 3137 80be 8d94 b23c ae0b 4f3e
00000020: 8a61 81bd 79b6 15be c690 4e3e cf97 013e
00000030: e889 3ebd 4aaf 56be c5d8 44bd 71a0 50be

layer1.0.bn1.running_mean f4 [16]
-0.47073406 -0.10652754 -0.0058908793 0.43679073 -0.24267808 -0.8231875 -0.5812113 0.73668414
-0.3344056 -0.3122379 0.36674374 -0.13255003 -0.6995391 0.06504369 -0.19945417 -0.3982131
00000000: 0e04 f1be 1c2b dabd 4708 c1bb 09a3 df3e
00000010: 9a80 78be 6abc 52bf 44ca 14bf 5597 3c3f
00000020: 3637 abbe a5dd 9fbe d6c5 bb3e 32bb 07be
00000030: ff14 33bf a035 853d b73d 4cbe 96e2 cbbe

layer1.0.bn1.running_var f4 [16]
0.12949555 0.47902614 0.29653382 0.13246799 0.29474816 0.22954091 0.27369615 0.30072647
0.15286133 0.19165307 0.2901744 0.47240442 0.245522 0.3892082 0.22397858 0.3480611
00000000: 7b9a 043e ea42 f53e 48d3 973e b0a5 073e
00000010: 3be9 963e c60c 6b3e e721 8c3e d2f8 993e
00000020: ae87 1c3e b440 443e bd91 943e fede f13e
00000030: 1f6a 7b3e 4c46 c73e a45a 653e 1135 b23e

layer1.0.fc2.weight f4 [16, 16]
0.20763622 0.03582327 0.16565529 -0.075925395 -0.11781657 0.122170106 0.22790155 0.42089915
-0.13307633 -0.04987519 -0.10743546 -0.13577844 -0.16127531 0.23790017 0.16107298 0.094577536
0.12619552 -0.16026405 0.19761111 0.105595484 0.01557267 -0.030562146 -0.2498309 -0.22602965
-0.27924374 0.2009746 0.17329334 0.18596004 0.34010288 -0.17982848 0.14782211 -0.06308837
-0.2691161 0.27103263 -0.071404286 0.18057173 -0.14403664 0.18205638 -0.3227322 -0.09309407
-0.04733075 0.38347623 -0.09362136 -0.10915478 0.16556719 0.0918265 0.12535955 0.15055013
-0.19152063 0.09443768 0.08657885 0.06926548 -0.054966643 0.0021900893 0.046364278 -0.2744407
-0.042810205 0.39057377 -0.35739636 0.27762163 0.23793165 -0.11265888 0.12845284 0.2607303
0.16332415 -0.27190104 0.2067196 0.28614748 0.13571145 0.08431826 0.17149775 0.034524795
-0.30466628 0.20445074 -0.18192893 -0.10943537 0.049254302 -0.11880765 0.12213338 0.09138109
0.26235628 0.19214295 -0.037035443 0.039277002 0.25848112 0.024013564 0.061822154 0.38807726
0.14035708 -0.12653503 -0.04864919 -0.37139133 0.015827222 0.3484269 0.11832525 -0.24094534
-0.25003123 -0.26767626 0.09835362 0.012768701 -0.16695894 -0.014727876 -0.52743334 -0.013526466
-0.14923564 -0.08876021 -0.08397714 -0.31492323 0.0882122 -0.18509199 0.009032426 0.1006632
0.068278305 0.30123395 0.059281774 -0.02649501 -0.18900631 0.18944791 -0.13441248 -0.32102808
-0.032978233 0.23310673 -0.31401762 0.2953305 0.19459401 -0.2762933 0.054375853 -0.13496928
-0.12755573 0.15576896 -0.31401303 -0.2841359 0.023840986 0.102763385 -0.11480598 0.08359776
-0.020511419 -0.13027486 0.05185677 -0.30466706 0.030415611 0.0125831375 0.30280522 0.12880564
-0.016508922 -0.18015094 0.0010549404 0.16260359 0.23141654 -0.20443644 -0.2471597 -0.1891608
0.055467382 -0.25008094 0.07846103 -0.2526206 0.15263468 0.09251107 -0.06780091 -0.39920184
-0.10148797 0.6299398 0.00076163013 0.100864716 0.08927235 0.0926121 -0.15028855 -0.032533154
0.2691711 -0.04253928 -0.021538686 -0.12132451 0.021558532 0.15952182 0.061327666 -0.08422855
0.104235 0.17050748 0.068061545 0.24076512 0.18048897 0.21680321 0.0024435427 0.28395268
0.022983631 -0.011559299 0.017428646 -0.36329836 0.3659282 -0.09177341 0.25173324 -0.15704207
-0.1544064 -0.14582421 0.029492635 0.39619747 -0.08431493 0.07481461 -0.09842237 -0.34623703
-0.12220704 0.013640805 0.20945573 -0.07152243 0.1509283 -0.12005552 0.110119574 0.12730971
0.12228025 0.3394466 -0.045562778 -0.23797497 -0.034199342 -0.11322732 -0.2763571 -0.04644345
-0.0020124966 0.3445288 0.07564647 0.101578295 -0.07261764 0.25332072 -0.14816226 -0.13986193
0.007911711 -0.13722514 0.09361804 0.30351928 -0.38467264 -0.24517894 0.26355636 0.020169402
-0.028376361 -0.008042057 0.24118441 0.2176289 0.06881966 -0.099061385 -0.050222445 -0.16401741
-0.08761106 0.15546006 0.22760645 0.1792926 -0.32427505 -0.21009189 0.020003572 0.37204394
-0.09637478 0.21529642 -0.04639743 0.022470884 0.38145146 -0.036197092 0.18763325 0.11529691
00000000: 979e 543e 6cbb 123d 8aa1 293e c67e 9bbd
00000010: d049 f1bd 5234 fa3d 065f 693e 1880 d73e
00000020: 2945 08be ed49 4cbd 1f07 dcbd 8109 0bbe
00000030: 5b25 25be 1a9c 733e 51f0 243e deb1 c13d
00000040: 6639 013e 421c 24be 915a 4a3e 7242 d83d
00000050: 8324 7f3c 775d fabc acd3 7fbe 5174 67be
00000060: 09f9 8ebe 49cc 4d3e cf73 313e 4f6c 3e3e
00000070: f721 ae3e f524 38be ae5e 173e 7a34 81bd
00000080: 96c9 89be cac4 8a3e 693c 92bd cce7 383e
00000090: 577e 13be fd6c 3a3e 283d a5be 1ba8 bebd
000000a0: e3dd 41bd ff56 c43e 8ebc bfbd 8b8c dfbd
000000b0: 728a 293e 880f bc3d 415e 003e d029 1a3e
000000c0: fc1d 44be 8b68 c13d 4150 b13d 0fdb 8d3d
000000d0: b424 61bd 9a87 0f3b 78e8 3d3d 7e83 8cbe
000000e0: c159 2fbd 49f9 c73e a8fc b6be 6c24 8e3e
000000f0: 5ba4 733e b3b9 e6bd 2489 033e 717e 853e
00000100: 723e 273e 9d36 8bbe 4eae 533e ec81 923e
00000110: f1f7 0a3e 0daf ac3d 1b9d 2f3e df69 0d3d
00000120: 38fd 9bbe 895b 513e 944b 3abe a71f e0bd
00000130: e1be 493d 6d51 f3bd 1121 fa3d 0226 bb3d
00000140: 9053 863e 1fc1 443e 7ab2 17bd ece0 203d
00000150: a357 843e 18b8 c43c 3a39 7d3d 10b2 c63e
00000160: c4b9 0f3e 6692 01be 6044 47bd 0127 bebe
00000170: 17a8 813c 0365 b23e 8254 f23d 60ba 76be
00000180: 1804 80be dd0c 89be 9f6d c93d d033 513c
00000190: 49f7 2abe 304d 71bc df05 07bf 1c9e 5dbc
000001a0: 3ad1 18be eac7 b5bd 35fc abbd 9e3d a1be
000001b0: 99a8 b43d c188 3dbe befc 133c 8228 ce3d
000001c0: 7fd5 8b3d 563b 9a3e 72d1 723d 100c d9bc
000001d0: df8a 41be a2fe 413e 6da3 09be cb5d a4be
000001e0: 2f14 07bd 88b3 6e3e ebc6 a0be 8f35 973e
000001f0: a743 473e 5176 8dbe 37b9 5e3d 6335 0abe
00000200: f89d 02be e681 1f3e 51c6 a0be 437a 91be
00000210: 2c4e c33c 9c75 d23d 661f ebbd 4d35 ab3d
00000220: 9007 a8bc c666 05be c467 543d 52fd 9bbe
00000230: 292a f93c 8129 4e3c 4909 9b3e a0e5 033e
00000240: b83d 87bc 7d79 38be ed45 8a3a 8e81 263e
00000250: 75f8 6c3e c957 51be 6f17 7dbe 5eb3 41be
00000260: c431 633d 9c0a 80be 2db0 a03d 7d57 81be
00000270: 444c 1c3e 7276 bd3d 34db 8abd 2f64 ccbe
00000280: edd8 cfbd bc43 213f 22a8 473a 2992 ce3d
00000290: 6cd4 b63d 6aab bd3d 3ee5 19be 7c41 05bd
000002a0: cbd0 893e ab3d 2ebd e671 b0bc fc78 f8bd
000002b0: 859b b03c b059 233e b832 7b3d 0580 acbd
000002c0: 2979 d53d 8399 2e3e da63 8b3d 228b 763e
000002d0: 1ad2 383e a901 5e3e d823 203b 3f62 913e
000002e0: 2b48 bc3c 3763 3dbc 85c6 8e3c 3e02 babe
000002f0: f15a bb3e b3f3 bbbd 2ee3 803e a3cf 20be
00000300: b61c 1ebe f152 15be 8a9a f13c 65da ca3e
00000310: 4ead acbd 6738 993d ab91 c9bd fb45 b1be
00000320: af47 fabd af7d 5f3c 907b 563e 5a7a 92bd
00000330: f38c 1a3e abdf f5bd 5f86 e13d 7a5d 023e
00000340: 116e fa3d f2cb ad3e 09a0 3abd b6af 73be
00000350: 9c14 0cbd bae3 e7bd ae7e 8dbe 7d3b 3ebd
00000360: 17e4 03bb 1466 b03e 89ec 9a3d 4808 d03d
00000370: 8fb8 94bd 41b3 813e d9b7 17be f737 0fbe
00000380: 1fa0 013c bf84 0cbe d1ba bf3d e166 9b3e
00000390: d0f3 c4be 3010 7bbe dcf0 863e 4d3a a53c
000003a0: 8b75 e8bc d5c2 03bc 0cf9 763e 1cda 5e3e
000003b0: 52f1 8c3d b2e0 cabd 0db6 4dbd 2ef4 27be
000003c0: 6d6d b3bd ec30 1f3e aa11 693e 7b98 373e
000003d0: 6107 a6be 5422 57be 88de a33c 8b7c be3e
000003e0: 2460 c5bd aa76 5c3e 3b0b 3ebd dc14 b83c
000003f0: 9b4d c33e 6743 14bd ee22 403e c920 ec3d

layer1.0.fc2.bias f4 [16]
-0.21729122 0.14966935 0.016243814 -0.1322334 0.13874397 -0.177829 -0.0989277 -0.21100703
-0.11885304 0.15578675 -0.05440195 0.2346927 -0.12333317 -0.29844895 0.21597573 -0.21863781
00000000: 9781 5ebe ec42 193e bf11 853c 3168 07be
00000010: e612 0e3e ce18 36be 9b9a cabd 3a12 58be
00000020: 3969 f3bd 9086 1f3e 94d4 5ebd 4853 703e
00000030: 1a96 fcbd 4dce 98be be28 5d3e 97e2 5fbe

layer1.0.bn2.weight f4 [16]
1.1846209 1.1221017 0.89321977 1.1318741 0.9443346 1.1673329 1.0594405 1.1121199
1.1629025 0.92007643 0.92543375 1.3014915 1.1408414 1.1582651 1.2379733 1.0686854
00000000: a8a1 973f 07a1 8f3f 0daa 643f 40e1 903f
00000010: eabf 713f 2a6b 953f bf9b 873f f259 8e3f
00000020: fdd9 943f 218a 6b3f 3ae9 6c3f 4697 a63f
00000030: 1707 923f 0842 943f e975 9e3f afca 883f

layer1.0.bn2.bias f4 [16]
-0.046247963 -0.22809842 -0.34434742 -0.26323938 -0.28522533 0.013344331 0.074885346 -0.13374916
0.0045627686 -0.18200245 -0.039898314 0.06080027 0.028380342 0.09976422 0.2606589 0.014582356
00000000: 816e 3dbd a292 69be 4e4e b0be 50c7 86be
00000010: 0e09 92be 2ea2 5a3c 7d5d 993d 8af5 08be
00000020: 4783 953b da5e 3abe 6a6c 23bd b409 793d
00000030: e47d e83c 2f51 cc3d 1575 853e d6ea 6e3c

layer1.0.bn2.running_mean f4 [16]
0.13025044 0.27456146 0.054991327 -0.011835422 0.30686432 0.24188353 -0.85807824 -0.26265094
-0.36834392 -0.21754225 0.26096442 0.7308002 -0.21172279 -0.21561946 0.41720673 0.28681478
00000000: 5f60 053e 5293 8c3e 963e 613d 5ce9 41bc
00000010: 521d 9d3e 51b0 773e 04ab 5bbf 2f7a 86be
00000020: 9397 bcbe 65c3 5ebe 219d 853e b915 3b3f
00000030: dccd 58be 59cb 5cbe 1f9c d53e 63d9 923e

layer1.0.bn2.running_var f4 [16]
0.438276 0.1578304 0.35061118 0.23725125 0.31294417 0.29938337 0.24965817 0.19614783
0.16059728 0.5114803 0.39464238 0.40285122 0.33769754 0.31978157 0.21377762 0.37412202
00000000: b665 e03e 4b9e 213e 4f83 b33e fef1 723e
00000010: 383a a03e c748 993e 64a6 7f3e fada 483e
00000020: 9d73 243e 5ff0 023f 910e ca3e 8442 ce3e
00000030: b1e6 ac3e 69ba a33e 85e8 5a3e ec8c bf3e

layer1.0.shortcut.0.weight f4 [16, 5]
-0.31076777 -0.35352257 -0.08617915 -0.16120084 -0.34369332 0.268729 -0.35659653 -0.18294328
-0.25998288 0.20491233 0.3701827 0.3898913 0.07916419 -0.38776797 -0.3733444 -0.07589547
-0.23537783 0.38325876 -0.17818299 0.003092351 0.29865575 -0.07393961 -0.17647189 -0.025954982
0.37624854 -0.25879326 0.12936312 0.28783372 -0.18842722 0.51150095 0.054512657 -0.4259598
-0.25367627 0.059969943 0.21174048 0.33460808 0.11634037 0.32262516 -0.07989889 -0.28985405
0.26191512 -0.17219973 0.27190617 0.073330924 -0.2463599 -0.21844608 0.49962488 0.14083219
0.12727278 -0.030720027 0.50928307 0.50458616 -0.19447252 -0.13996516 -0.023145081 -0.09824543
0.30488214 0.43469784 -0.30286276 -0.17282291 -0.099218205 -0.5568564 0.26415238 -0.07243707
0.10456379 0.20886667 0.28308266 0.03442989 0.051408537 0.19338836 -0.512604 -0.06365824
-0.40605468 -0.34655327 -0.14464726 0.27951142 0.41122022 -0.020178812 0.035402566 -0.17226866
00000000: f41c 9fbe e900 b5be b27e b0bd d511 25be
00000010: 92f8 afbe d996 893e d293 b6be 7c55 3bbe
00000020: 7a1c 85be 8ad4 513e 9688 bd3e d59f c73e
00000030: d620 a23d 8689 c6be ff26 bfbe 166f 9bbd
00000040: e306 71be 7e3a c43e 9a75 36be 0aa9 4a3b
00000050: 68e9 983e a66d 97bd 0cb5 34be 8b9f d4bc
00000060: a6a3 c03e 8d80 84be c477 043e f15e 933e
00000070: 11f3 40be baf1 023f aa48 5f3d 6717 dabe
00000080: dbe1 81be 0ba3 753d 7fd2 583e c051 ab3e
00000090: dc43 ee3d 202f a53e 07a2 a3bd c067 94be
000000a0: bd19 863e 2055 30be 4937 8b3e 862e 963d
000000b0: c545 7cbe 54b0 5fbe d5ce ff3e 5036 103e
000000c0: cc53 023e 91a8 fbbc 6060 023f 8f2c 013f
000000d0: ce23 47be 0753 0fbe c19a bdbc e634 c9bd
000000e0: 8319 9c3e b790 de3e d410 9bbe 7df8 30be
000000f0: ea32 cbbd 248e 0ebf fb3e 873e e359 94bd
00000100: 8a25 d63d 25e1 553e 36f0 903e 5b06 0d3d
00000110: c291 523d 9907 463e 043a 03bf 405f 82bd
00000120: 66e6 cfbe 6e6f b1be 691e 14be 1f1c 8f3e
00000130: 758b d23e 094e a5bc 4802 113d 3267 30be

layer1.0.shortcut.0.bias f4 [16]
-0.22350322 -0.35038376 -0.070237696 -0.1288151 -0.5302753 0.19404194 -0.03820113 0.37517706
0.268448 0.5114475 0.73263717 -0.071938895 -0.31878564 -0.08615963 0.3143242 -0.12184719
00000000: 07de 64be 8065 b3be c8d8 8fbd 1be8 03be
00000010: 1fc0 07bf eeb2 463e ca78 1cbd 3517 c03e
00000020: 0472 893e 39ee 023f 1c8e 3b3f b354 93bd
00000030: df37 a3be 7674 b0bd 1aef a03e 058b f9bd

layer1.0.shortcut.1.weight f4 [16]
0.8987017 0.9854102 0.9401331 0.74051684 0.81910366 0.9872085 1.0894171 1.0351262
0.6731822 0.947953 0.94070125 0.67175287 1.1347923 0.90265304 0.78152317 0.87820774
00000000: 5111 663f d843 7c3f 90ac 703f 8392 3d3f
00000010: c7b0 513f b2b9 7c3f 0572 8b3f 047f 843f
00000020: ab55 2c3f 0cad 723f ccd1 703f fff7 2b3f
00000030: e040 913f 4514 673f e711 483f 39d2 603f

layer1.0.shortcut.1.bias f4 [16]
-0.046247963 -0.22809842 -0.34434742 -0.26323938 -0.28522533 0.013344331 0.074885346 -0.13374916
0.0045627686 -0.18200245 -0.039898314 0.06080027 0.028380342 0.09976422 0.2606589 0.014582356
00000000: 816e 3dbd a292 69be 4e4e b0be 50c7 86be
00000010: 0e09 92be 2ea2 5a3c 7d5d 993d 8af5 08be
00000020: 4783 953b da5e 3abe 6a6c 23bd b409 793d
00000030: e47d e83c 2f51 cc3d 1575 853e d6ea 6e3c

layer1.0.shortcut.1.running_mean f4 [16]
-0.54360497 -0.06775799 0.2888188 -0.22458251 -0.21108127 -0.060084265 0.03186389 0.68576014
0.5071299 0.2887136 1.255586 -0.19325136 -0.43188247 0.12953675 -0.18208465 0.15628715
00000000: b229 0bbf b3c4 8abd 0fe0 933e f5f8 65be
00000010: b025 58be eb1a 76bd b683 023d fa8d 2f3f
00000020: 44d3 013f 45d2 933e 0bb7 a03f afe3 45be
00000030: b31f ddbe 48a5 043e 6674 3abe bd09 203e

layer1.0.shortcut.1.running_var f4 [16]
0.27597225 0.26730347 0.44420868 0.23097578 0.1712256 0.3695123 0.28318617 0.19850318
0.16665258 0.28532213 0.31559408 0.38187188 0.40067238 0.12060419 0.31093693 0.19987255
00000000: 3c4c 8d3e 00dc 883e 526f e33e ea84 6c3e
00000010: c455 2f3e b730 bd3e c7fd 903e 6b44 4b3e
00000020: f9a6 2a3e be15 923e 8c95 a13e b684 c33e
00000030: ee24 cd3e 54ff f63d 2033 9f3e 64ab 4c3e

layer1.1.fc1.weight f4 [16, 16]
-0.27983436 0.0064911298 -0.06973062 -0.28206256 -0.09803451 -0.34968734 0.11636635 -0.18401119
-0.07309334 0.1066545 -0.03374883 -0.20854767 -0.22579445 -0.104891464 -0.32092133 -0.10916123
0.05417754 -0.11602371 0.14385661 0.32262266 -0.049231157 -0.23131438 0.033158418 0.40344295
-0.05224503 -0.140593 0.18606365 -0.110953584 0.13780731 -0.053393096 -0.26599866 0.29548648
-0.37045297 0.28534833 -0.14287892 -0.017572835 -0.0053709904 -0.32191128 0.16689597 0.04452276
-0.044807345 -0.044994324 -0.17418773 -0.2997446 0.02490548 -0.12074425 0.18474676 0.026804749
-0.0015609688 -0.26219103 -0.11180995 -0.055405878 0.07214027 -0.12298748 0.13026 -0.012954367
0.111003175 0.21342264 -0.036781 0.02882703 0.51243937 0.25580108 -0.21806464 -0.29287118
0.17755683 0.37741306 -0.0359201 0.30983746 0.10773914 0.16298255 0.08362631 0.2756423
-0.13541067 0.087127686 0.14346436 0.111262076 0.083559714 0.2944685 0.18049718 -0.03224729
-0.019215614 0.0013509672 0.082580216 -0.11723467 -0.30103233 0.105495 -0.12761652 0.044704925
0.23553692 0.22659187 -0.17504151 -0.08285628 -0.43638083 -0.12926498 -0.45056108 -0.036008682
-0.15749858 -0.12696187 0.22766943 -0.16043074 -0.32726163 0.19448158 -0.2985546 0.01471191
-0.013330682 0.12929767 0.25541067 0.23874311 -0.15563506 -0.11853724 0.2205157 0.08730874
-0.1675714 -0.17886579 -0.045164887 -0.18059812 -0.2663065 -0.3185472 -0.060236305 0.21073969
-0.0762134 -0.035273124 0.05000409 -0.20178778 -0.10935565 -0.25139672 -0.17439777 0.026222983
-0.19337955 0.08918186 0.18501784 0.22110584 0.3710197 -0.17059855 0.311294 0.20946124
0.029806953 0.04489657 0.055030156 0.10865017 0.20826007 -0.08082842 0.36355263 -0.098260075
-0.3006903 0.38092837 0.18234181 -0.08235631 -0.010430179 0.041384157 0.2325261 -0.031231027
0.2611344 0.27879158 0.15345213 0.1992345 0.04277919 -0.05977438 0.119348735 -0.34962314
0.20262854 0.17892197 0.21427113 0.25095034 0.27654254 -0.06062697 0.11479601 0.13620543
-0.020339679 -0.10301081 0.24055983 -0.09135278 0.14031997 0.17931136 0.11465588 0.22184579
-0.40539992 -0.0048681838 -0.10730091 -0.044968117 -0.009828031 -0.2574067 -0.038427133 -0.35900122
0.08946792 -0.4287506 -0.299258 -0.09025506 0.27151355 -0.28920376 -0.02258445 0.085063234
0.108146615 0.08733763 -0.3420796 -0.30501255 0.15508676 0.090201624 0.29248056 -0.22014552
-0.04176805 0.08981739 0.101460874 -0.013166522 0.38017115 -0.10873057 -0.10822596 0.23129527
0.19798191 0.020262633 0.3443025 0.23472999 -0.1111945 -0.0015078337 -0.09219385 0.42756376
-0.15412447 -0.042840157 0.17107056 -0.2085 -0.13850659 0.045523815 -0.006775064 -0.06401609
0.029379442 0.26234886 -0.16209555 0.08988122 -0.112922885 -0.16326119 0.3863245 0.23835832
-0.22196029 -0.073363885 0.02714642 -0.003550415 0.32206535 0.11345436 -0.055696797 0.061134126
-0.3948748 0.2859533 0.0039229384 0.13507849 -0.12624761 -0.17078444 0.28751644 0.35220164
-0.38799873 -0.24714203 0.05558712 -0.19943824 0.11184027 0.2946141 -0.102026455 0.14346604
00000000: 7346 8fbe 8bb3 d43b edce 8ebd 816a 90be
00000010: 51c6 c8bd 380a b3be 7b51 ee3d 6e6d 3cbe
00000020: f6b1 95bd ad6d da3d 373c 0abd 858d 55be
00000030: a936 67be 56d1 d6bd cd4f a4be ec8f dfbd
00000040: 45e9 5d3d d79d edbd 264f 133e cc2e a53e
00000050: 9ca6 49bd addd 6cbe 1fd1 073d 1390 ce3e
00000060: e2fe 55bd 9df7 0fbe 7887 3e3e a23b e3bd
00000070: 5c1d 0d3e b8b2 5abd fa30 88be 014a 973e
00000080: 03ac bdbe 2d19 923e da4e 12be e8f4 8fbc
00000090: 22ff afbb 8ed1 a4be c7e6 2a3e 7f5d 363d
000000a0: e887 37bd f84b 38bd 455e 32be 2078 99be
000000b0: 9406 cc3c c348 f7bd 412e 3d3e a295 db3c
000000c0: 6c99 ccba e73d 86be 9dfc e4bd 46f1 62bd
000000d0: 47be 933d dce0 fbbd e162 053e 8e3e 54bc
000000e0: a255 e33d 778b 5a3e ada7 16bd aa26 ec3c
000000f0: 3a2f 033f 5cf8 823e 564c 5fbe 36f3 95be
00000100: 75d1 353e 493c c13e f420 13bd 04a3 9e3e
00000110: 57a6 dc3d e6e4 263e 4544 ab3d fd20 8d3e
00000120: 18a9 0abe 0070 b23d 52e8 123e 5fdd e33d
00000130: 5b21 ab3d 93c4 963e 41d4 383e bc15 04bd
00000140: 106a 9dbc f012 b13a d11f a93d bb18 f0bd
00000150: e920 9abe c30d d83d e8ad 02be 831c 373d
00000160: 9730 713e b307 683e 153e 33be 8eb0 a9bd
00000170: 4f6d dfbe 0a5e 04be f1af e6be d77d 13bd
00000180: 4f47 21be 4b02 02be 2d22 693e f547 24be
00000190: d68e a7be 2e26 473e 26dc 98be 390a 713c
000001a0: ef68 5abc 9c66 043e 30c5 823e 1379 743e
000001b0: cc5e 1fbe a7c3 f2bd dece 613e edce b23d
000001c0: d697 2bbe 9828 37be d1fe 38bd b7ee 38be
000001d0: 5359 88be 9e18 a3be 58ba 76bd 25cc 573e
000001e0: c515 9cbd 8d7a 10bd 17d1 4c3d 75a1 4ebe
000001f0: dbf5 dfbd 12b7 80be 5495 32be 95d1 d63c
00000200: 4a05 46be fba4 b63d 5175 3d3e 9269 623e
00000210: 4bf6 bd3e 63b1 2ebe ed61 9f3e 027d 563e
00000220: b62d f43c 77e5 373d 4d67 613d fb83 de3d
00000230: 2142 553e 5f89 a5bd 9223 ba3e 943c c9bd
00000240: 14f4 99be 0b09 c33e d0b7 3a3e 6daa a8bd
00000250: 57e3 2abc 6f82 293d 521b 6e3e 36d8 ffbc
00000260: 68b3 853e c5bd 8e3e 8e22 1d3e 2104 4c3e
00000270: 3b39 2f3d fbd5 74bd 1c6d f43d ce01 b3be
00000280: db7d 4f3e 5237 373e e469 5b3e 907c 803e
00000290: fc96 8d3e fc53 78bd 2c1a eb3d 7079 0b3e
000002a0: 669f a6bc 55f7 d2bd 5155 763e 2b17 bbbd
000002b0: 0ab0 0f3e 669d 373e b4d0 ea3d 8b2b 633e
000002c0: 9490 cfbe 4985 9fbb 94c0 dbbd 7d30 38bd
000002d0: c005 21bc d0ca 83be c565 1dbd 02cf b7be
000002e0: f53a b73d 3385 dbbe 5838 99be a5d7 b8bd
000002f0: d303 8b3e 8412 94be 0603 b9bc a235 ae3d
00000300: f97b dd3d 12de b23d 0f25 afbe 9b2a 9cbe
00000310: 10cf 1e3e a1bb b83d 03c0 953e d46d 61be
00000320: fa14 2bbd 2ef2 b73d b8ca cf3d 65b8 57bc
00000330: cba5 c23e 22ae debd 92a5 ddbd abd8 6c3e
00000340: c5bb 4a3e d2fd a53c 6b48 b03e 0f5d 703e
00000350: f1b9 e3bd 81a2 c5ba 21d0 bcbd a3e9 da3e
00000360: ced2 1dbe 2979 2fbd 1f2d 2f3e 0681 55be
00000370: acd4 0dbe 2e77 3a3d 5b01 debb de1a 83bd
00000380: 28ad f03c 9752 863e 60fc 25be a513 b83d
00000390: 1d44 e7bd f12d 27be 53cc c53e 3414 743e
000003a0: 8f49 63be ce3f 96bd 2b62 de3c 14ae 68bb
000003b0: c0e5 a43e c25a e83d 5322 64bd c767 7a3d
000003c0: 082d cabe 7968 923e fe8b 803b 0452 0a3e
000003d0: 0e47 01be 1ee2 2ebe 5b35 933e c653 b43e
000003e0: c5a7 c6be cd12 7dbe 52af 633d 8a39 4cbe
000003f0: 830c e53d a9d7 963e 3ff3 d0bd c3e8 123e

layer1.1.fc1.bias f4 [16]
-0.6064301 -0.057115443 -0.07446432 0.15534347 -0.17034495 0.14158584 0.043142766 -0.01445519
0.32865533 0.16274074 -0.102846436 0.17534569 0.079860255 -0.12063031 -0.019009158 -0.053055953
00000000: 013f 1bbf e2f1 69bd c080 98bd 5c12 1f3e
00000010: e86e 2ebe e1fb 103e 78b6 303d 76d5 6cbc
00000020: 8345 a83e 82a5 263e 27a1 d2bd d28d 333e
00000030: c68d a33d 060d f7bd 18b9 9bbc 3351 59bd

layer1.1.bn1.weight f4 [16]
1.1857585 1.0892802 1.0186348 1.0129229 1.025303 0.7753931 0.75256956 1.01029
0.9510432 0.98580056 0.95266205 0.98556316 0.87032986 1.079776 1.211045 1.25527
00000000: efc6 973f 896d 8b3f a062 823f 75a7 813f
00000010: 213d 833f 2a80 463f 66a8 403f 2f51 813f
00000020: 9177 733f 6d5d 7c3f a9e1 733f de4d 7c3f
00000030: f0cd 5e3f 1a36 8a3f 8603 9b3f b0ac a03f

layer1.1.bn1.bias f4 [16]
-0.039723087 -0.057208356 0.06647684 -0.10033572 -0.1185002 0.16070813 -0.22050565 0.045577124
-0.18828544 0.011081133 -0.366418 -0.043057885 0.06362792 -0.044442914 -0.12207448 -0.048011407
00000000: adb4 22bd 4f53 6abd 0225 883d d07c cdbd
00000010: 3cb0 f2bd ac90 243e 3ccc 61be 14af 3a3d
00000020: e6cd 40be a48d 353c 249b bbbe 775d 30bd
00000030: 5b4f 823d c609 36bd 2f02 fabd 9ca7 44bd

layer1.1.bn1.running_mean f4 [16]
-1.7995191 0.09914593 -0.4037834 0.42580092 1.0345162 -0.8464515 -0.036377516 -0.9771971
1.1405611 0.60792685 0.9315085 -0.68869615 0.5752256 0.046118643 0.70008975 0.22257313
00000000: a456 e6bf 050d cb3d b3bc cebe 9402 da3e
00000010: 076b 843f 0cb1 58bf 9700 15bd 9729 7abf
00000020: e8fd 913f 18a1 1b3f 5777 6e3f 644e 30bf
00000030: fc41 133f e7e6 3c3d 1539 333f 36ea 633e

layer1.1.bn1.running_var f4 [16]
0.66654456 0.6828517 0.6600187 0.47127506 0.79929405 0.9897326 0.48228368 0.6447025
0.86809415 0.8908094 0.6412068 1.0953968 1.1879661 0.9613268 0.75543505 1.0624864
00000000: aaa2 2a3f 5ecf 2e3f fcf6 283f f74a f13e
00000010: 899e 4c3f 1e5f 7d3f e3ed f63e 390b 253f
00000020: 6b3b 5e3f 160c 643f 2126 243f f635 8c3f
00000030: 460f 983f 8319 763f 3164 413f 8eff 873f

layer1.1.fc2.weight f4 [16, 16]
-0.15744294 0.27818772 -0.2489973 0.024774993 -0.23400266 -0.033993263 -0.14769582 0.14938885
-0.13574004 -0.28752854 -0.26386806 0.009114992 -0.013200698 0.0075223395 0.24506034 -0.11129146
0.040493924 -0.1539169 0.009985399 -0.039207134 -0.03764577 0.21929534 -0.3944448 0.22408849
0.23933323 -0.26819867 0.032820947 0.066505186 0.2376969 -0.19609262 -0.05184862 -0.16970287
0.63089365 0.16608134 0.0969131 -0.19980165 0.0056394893 -0.05306723 0.041705757 0.027684003
0.1747807 -0.14187182 0.19597879 0.13972175 -0.17052238 0.092851065 0.17876615 0.2564123
0.30014473 -0.08076724 0.10828337 -0.045962118 -0.009924147 0.05815851 -0.07161403 0.068909794
-0.006338333 0.068342976 0.0514777 0.19843826 0.118624255 0.18279703 0.2863883 0.38846952
-0.13020055 0.044270627 -0.0147507535 -0.15583882 0.19427083 0.113272734 -0.15767308 0.18844771
0.28017083 0.30262184 0.22385909 0.23990592 -0.034128387 0.14210899 0.28218615 0.15112221
-0.10223285 -0.37827802 -0.09254061 0.07109491 -0.113157004 0.17305362 -0.04130372 -0.19384146
-0.04852998 0.30971214 -0.014944763 -0.119322546 0.21882284 -0.065832876 -0.090841904 -0.21203631
0.12245375 0.09639689 0.31262833 -0.44736534 0.029494178 0.32101494 -0.20031856 0.12251215
0.11962603 -0.09421501 0.19938955 0.14688103 -0.15550591 -0.16217083 -0.26193628 0.014911008
0.14831312 0.099892266 0.26771516 -0.01064072 0.10330454 -0.07308704 0.03818813 0.30081555
0.18289675 0.090008415 0.062997244 0.34017974 -0.089721136 0.28373304 0.2936189 0.2318171
0.40010828 -0.09861078 -0.057169672 -0.2550266 0.017141134 -0.06007172 0.1330903 0.30566064
0.20504864 0.125155 0.0027025547 0.14163753 -0.10250757 -0.10520151 -0.27545542 -0.026407328
0.15811479 0.13698597 0.20046005 0.17679514 -0.22072847 0.1826087 0.059835907 0.116416916
0.39683384 0.10614803 -0.057931613 0.48633358 0.21586224 -0.027448129 0.13497776 0.22379224
-0.25980726 0.057160195 0.08312737 -0.1021257 -0.045050286 0.10055294 0.20282869 -0.36392066
-0.111205414 0.23824821 -0.2853125 0.22893876 -0.12125196 -0.005454841 -0.28794575 -0.40702915
-0.0019022687 0.22042274 -0.0016470973 -0.038841482 0.29384845 0.044410314 0.24641588 -0.18088382
0.16518699 -0.10530586 0.1632931 -0.24204405 0.10935363 0.120924085 0.26883236 0.056423422
0.13710345 -0.35809553 0.12565309 0.43309686 0.17036887 -0.22869411 -0.07900682 -0.003508805
0.008485168 0.1353017 0.1565275 0.010251636 -0.053551633 0.056263734 0.30187473 -0.1045199
-0.2657478 -0.1405289 -0.24356073 -0.08305961 -0.2504758 0.12471449 0.079850286 0.025339762
-0.23500445 0.11514545 -0.22248754 0.15046322 0.07081146 -0.14906602 -0.34944913 -0.34162986
-0.17264867 0.06684724 0.260028 0.115910076 -0.25605953 0.14262427 -0.17636514 0.30423883
0.013280588 -0.007812147 0.113816686 -0.006482097 0.1935526 -0.13899133 0.23809874 0.37409455
-0.16053168 0.21483618 -0.24356724 -0.109728016 -0.15872012 0.061997306 -0.19469772 -0.07595755
-0.30203143 -0.3265458 -0.043377824 -0.19504483 -0.12915456 0.30619496 -0.05470945 -0.26672652
00000000: b938 21be 9f6e 8e3e 26f9 7ebe edf4 ca3c
00000010: 659e 6fbe 853c 0bbd 933d 17be 64f9 183e
00000020: 70ff 0abe f136 93be b719 87be 0c57 153c
00000030: be47 58bc f57d f63b 19f1 7a3e c7ec e3bd
00000040: f5dc 253d 649c 1dbe cd99 233c a997 20bd
00000050: 7332 1abd f58e 603e abf4 c9be 7477 653e
00000060: c513 753e 5651 89be 426f 063d df33 883d
00000070: d166 733e 81cc 48be 385f 54bd 97c6 2dbe
00000080: 3f82 213f 3a11 2a3e 607a c63d ce98 4cbe
00000090: 77cb b83b 065d 59bd a8d3 2a3d 90c9 e23c
000000a0: b6f9 323e d946 11be aaae 483e 3813 0f3e
000000b0: 6b9d 2ebe b328 be3d 790e 373e 7948 833e
000000c0: 92ac 993e 4b69 a5bd acc3 dd3d c642 3cbd
000000d0: e498 22bc 9e37 6e3d 60aa 92bd 9420 8d3d
000000e0: cab1 cfbb 67f7 8b3d 48da 523d 6633 4b3e
000000f0: 46f1 f23d 252f 3b3e 7da1 923e 7ae5 c63e
00000100: 4b53 05be 1e55 353d 25ad 71bc 3694 1fbe
00000110: efee 463e 89fb e73d 0d75 21be 70f8 403e
00000120: 8d72 8f3e 40f1 9a3e 513b 653e e6a9 753e
00000130: 35ca 0bbd 0585 113e b47a 903e c8bf 1a3e
00000140: 755f d1bd a8ad c1be ee85 bdbd 359a 913d
00000150: dcbe e7bd f834 313e 172e 29bd 607e 46be
00000160: 5fc7 46bd 9792 9e3e e1da 74bc 615f f4bd
00000170: 1813 603e 63d3 86bd 520b babd 0c20 59be
00000180: 08c9 fa3d bc6b c53d d210 a03e 120d e5be
00000190: c69d f13c 125c a43e 4f20 4dbe a6e7 fa3d
000001a0: 7efe f43d cdf3 c0bd c62c 4c3e fb67 163e
000001b0: f13c 1fbe 1c10 26be 831c 86be 4d4d 743c
000001c0: 65df 173e 5194 cc3d f611 893e 6a56 2ebc
000001d0: 5591 d33d a8ae 95bd 286b 1c3d 7f04 9a3e
000001e0: 4949 3b3e 5556 b83d b304 813d 0a2c ae3e
000001f0: b7bf b7bd 7545 913e 3755 963e 7661 6d3e
00000200: feda cc3e 73f4 c9bd bf2a 6abd d992 82be
00000210: 906b 8c3c c40d 76bd d348 083e 8d7f 9c3e
00000220: 45f8 513e a228 003e 581d 313b 6e09 113e
00000230: 7def d1bd e473 d7bd 7e08 8dbe 2e54 d8bc
00000240: d8e8 213e 0d46 0c3e 6645 4d3e c909 353e
00000250: a506 62be c6fd 3a3e 7f16 753d fe6b ee3d
00000260: ce2d cb3e 2364 d93d b349 6dbd b700 f93e
00000270: fe0a 5d3e e6da e0bc 9c37 0a3e cb29 653e
00000280: 7505 85be cf20 6a3d af3e aa3d 4727 d1bd
00000290: a686 38bd b3ee cd3d 53b2 4f3e cf53 babe
000002a0: aabf e3bd 57f7 733e 7b14 92be ec6e 6a3e
000002b0: f352 f8bd 86be b2bb a06d 93be 2066 d0be
000002c0: 8c55 f9ba 80b6 613e 6ae3 d7ba 3f18 1fbd
000002d0: 4e73 963e 97e7 353d 7254 7c3e 9c39 39be
000002e0: c726 293e 99aa d7bd 4e36 273e 65da 77be
000002f0: ccf4 df3d 0ca7 f73d 65a4 893e 3f1c 673d
00000300: d964 0c3e 4c58 b7be 34ab 003e dfbe dd3e
00000310: 2d75 2e3e ca2e 6abe 54ce a1bd fbf3 65bb
00000320: 6005 0b3c 878c 0a3e bf48 203e 7af6 273c
00000330: f558 5bbd cd74 663d 538f 9a3e 880e d6bd
00000340: 1810 88be cfe6 0fbe fc67 79be 281b aabd
00000350: 5d3e 80be 4f6a ff3d 8c88 a33d 5595 cf3c
00000360: 02a5 70be 61d1 eb3d c6d3 63be 0813 1a3e
00000370: 9905 913d c3a4 18be ffea b2be 1cea aebe
00000380: d0ca 30be 35e7 883d 6422 853e 4362 ed3d
00000390: 3c1a 83be 190c 123e 1099 34be 31c5 9b3e
000003a0: d396 593c 0afd ffbb b918 e93d c567 d4bb
000003b0: a732 463e be53 0ebe 28d0 733e 5289 bf3e
000003c0: 6b62 24be 04fe 5b3e b169 79be 15b9 e0bd
000003d0: 8787 22be e3f0 7d3d d75e 47be a28f 9bbd
000003e0: dda3 9abe 0331 a7be f2ac 31bd d5b9 47be
000003f0: 1841 04be 96c5 9c3e 0417 60bd 6190 88be

layer1.1.fc2.bias f4 [16]
0.0019867306 0.1376393 0.24843109 -0.010143901 -0.12305967 0.08240122 -0.23664677 -0.20551473
0.011712451 -0.01668323 0.103783324 0.21006614 0.20605841 0.41845047 -0.25716764 -0.07762472
00000000: cf33 023b 51f1 0c3e b864 7e3e 9b32 26bc
00000010: b506 fcbd f9c1 a83d 8853 72be 7472 52be
00000020: 95e5 3f3c 45ab 88bc 5a8c d43d 941b 573e
00000030: fa00 533e 243f d63e 7aab 83be b6f9 9ebd

layer1.1.bn2.weight f4 [16]
0.9094408 0.67928356 1.0395367 0.96303856 1.2061657 0.88566095 1.0953794 1.1174792
1.2370678 1.1006336 0.90857303 0.97571856 0.9659932 0.9563481 1.0202513 0.993603
00000000: 1dd1 683f 87e5 2d3f 8a0f 853f b289 763f
00000010: a363 9a3f adba 623f 6435 8c3f 8f09 8f3f
00000020: 3d58 9e3f 90e1 8c3f 3e98 683f b1c8 793f
00000030: 554b 773f 3bd3 743f 9897 823f c45c 7e3f

layer1.1.bn2.bias f4 [16]
0.06889505 -0.20143788 -0.20474713 -0.40839705 -0.25087753 -0.12534325 0.080161564 -0.32472712
-0.075848214 -0.20597379 -0.06907079 -0.028243745 -0.08469143 -0.016318059 0.25605965 0.03225444
00000000: d918 8d3d bb45 4ebe 3ba9 51be 6b19 d1be
00000010: 0573 80be fb59 00be bf2b a43d a242 a6be
00000020: 4f56 9bbd cbea 52be fd74 8dbd 6d5f e7bc
00000030: b372 adbd 73ad 85bc 401a 833e 3b1d 043d

layer1.1.bn2.running_mean f4 [16]
-0.28972554 0.10376004 0.8109555 0.67060196 0.49241948 -0.1836582 -0.14346357 0.6586008
0.13403408 0.833388 -0.36364245 0.53328 0.48018378 -0.24127622 0.20828913 -0.67892987
00000000: e856 94be 2580 d43d c89a 4f3f 92ac 2b3f
00000010: 681e fc3e e510 3cbe 1de8 12be 109a 283f
00000020: 3b40 093e ea58 553f 582f babe 0a85 083f
00000030: a6da f53e 1d11 77be bf49 553e 59ce 2dbf

layer1.1.bn2.running_var f4 [16]
0.19674447 0.27332595 0.3976294 0.4016087 0.7973718 0.44475675 0.22461231 0.75128317
0.18231937 0.620906 0.34070164 0.5954958 0.54006886 0.9607057 0.29241812 0.88225913
00000000: 6277 493e 61f1 8b3e 1596 cb3e a89f cd3e
00000010: 8f20 4c3f 28b7 e33e c500 663e 1854 403f
00000020: eeb1 3a3e b2f3 1e3f 7270 ae3e 6a72 183f
00000030: f441 0a3f cff0 753f d4b7 953e bcdb 613f

layer2.0.fc1.weight f4 [32, 16]
0.19386125 0.30793086 -0.1743156 0.21010932 0.22243293 -0.11874449 0.20414321 -0.0044972333
0.037936203 0.06589188 0.29819715 0.053828195 0.17608592 -0.039774697 0.36942485 -0.11508939
-0.0066389046 -0.17310067 0.25153032 0.326207 0.25158393 -0.26252925 -0.010914261 0.1783577
-0.15126975 0.10045433 -0.024679458 0.10924902 -0.07119116 0.28413376 0.09805335 0.32949212
-0.43553638 0.15450136 0.21078013 0.1288816 0.023874018 -0.026670769 0.104166955 -0.3096006
0.32567155 0.10326265 -0.047355674 -0.10877759 -0.12611432 -0.34709144 -0.18507448 0.024437416
0.1351671 -0.06368355 0.2871654 0.10366605 0.05365327 -0.20021254 0.07466043 0.31948352
0.053249307 0.24837007 -0.08667068 -0.06852636 0.17429303 -0.09886632 0.08681689 -0.2906034
-0.006064931 0.0030827785 -0.19164507 0.15451267 0.20824029 0.21382655 -0.19590469 -0.16935325
0.3027827 0.09957666 0.3755761 0.23610696 0.04416018 0.08177769 -0.04459 -0.30033267
0.23554534 0.24087572 0.22585368 0.11168297 0.20589413 0.10717587 -0.15847518 0.014095779
-0.21647601 0.24549529 0.06517229 0.240284 0.28584182 -0.030680621 0.046622127 -0.051847268
0.097349085 0.17789544 -0.22991675 0.22236313 0.2814247 0.014568429 0.19674067 -0.1705141
0.0059226006 0.1538444 -5.0252038e-05 0.251391 0.12304393 0.089805655 0.100591734 0.12365353
-0.09622896 -0.09472097 0.065178394 0.10855667 -0.19997652 -0.27953017 -0.025774356 -0.08984805
0.41408974 -0.27943504 0.19207664 0.02107105 -0.18281788 -0.15941803 0.11395838 -0.33431938
-0.16968825 0.10984163 -0.113471456 0.20610128 0.12286711 -0.1610716 -0.026156042 0.3710853
0.056200124 0.2798866 0.1705482 -0.14955233 0.1861539 -0.09578785 0.28813186 0.17554754
-0.09580123 -0.09510655 -0.041688826 -0.052101415 0.34589535 -0.10891923 0.011015013 -0.21969068
-0.32940966 -0.013986508 -0.043028902 -0.24954413 -0.05571257 0.28421822 0.20996279 0.10344779
-0.040822648 0.0519622 0.40537712 0.30699685 -0.11237026 -0.20557989 -0.22800303 0.36461958
0.3220008 0.14194302 0.113988884 0.2032248 -0.11009342 0.052716088 0.030566562 -0.053753506
-0.025177244 -0.02453479 -0.007913731 0.21567051 0.17854951 -0.26320866 0.1312554 -0.14914718
0.44599572 -0.09843484 -0.23322731 -0.11179838 -0.16833597 -0.095792055 -0.33501822 -0.07214548
-0.0035279337 0.04233532 0.158798 0.33395883 0.21977264 -0.21691357 -0.00035567113 0.20907106
0.36651048 0.25927967 -0.22213645 0.20535956 -0.05954188 -0.022454156 -0.030698542 -0.035253536
-0.40614247 -0.03691182 0.019181527 -0.15414578 0.059065614 -0.25645643 0.31203246 0.08130934
0.13364014 0.2171241 -0.23833017 0.19743872 -0.04954026 -0.25895017 -0.19894738 -0.22102605
-0.19319439 0.20081238 -0.15631324 0.18478501 0.012161411 0.049163677 0.16076946 -0.080550484
-0.24611394 0.42195725 0.1574462 0.10287907 0.2870576 0.008512413 0.20380034 -0.102134846
-0.14826368 -0.09970368 -0.104267426 0.118615426 0.21108066 0.2999974 -0.004223661 0.19232984
0.39569387 0.1166227 0.29447505 0.12150144 0.11384878 0.33760682 0.041064013 0.14886267
00000000: 9083 463e 1da9 9d3e ca7f 32be e626 573e
00000010: 75c5 633e 5030 f3bd eb0a 513e 875d 93bb
00000020: fe62 1b3d 52f2 863d 4cad 983e f47a 5c3d
00000030: de4f 343e cbea 22bd 4125 bd3e fcb3 ebbd
00000040: 2b8b d9bb 4d41 31be 95c8 803e 9b04 a73e
00000050: 9ccf 803e 3c6a 86be bbd1 32bc 67a3 363e
00000060: 75e6 1abe 00bb cd3d 932c cabc f3bd df3d
00000070: accc 91bd fb79 913e 32d0 c83d 31b3 a83e
00000080: a0fe debe 9b35 1e3e bfd6 573e 8af9 033e
00000090: 7293 c33c a87c dabc 7c55 d53d f883 9ebe
000000a0: 6cbe a63e 5e7b d33d 06f8 41bd c9c6 debd
000000b0: 1d24 01be f8b5 b1be 2a84 3dbe fa30 c83c
000000c0: 3f69 0a3e 856c 82bd 5807 933e de4e d43d
000000d0: 88c3 5b3d 8404 4dbe 91e7 983d 5893 a33e
000000e0: f21b 5a3d b954 7e3e 6680 b1bd 8c57 8cbd
000000f0: df79 323e 6d7a cabd 0ecd b13d f8c9 94be
00000100: 54bc c6bb 7108 4a3b 9b3e 44be 9238 1e3e
00000110: f13c 553e 59f5 5a3e 3d9b 48be f06a 2dbe
00000120: 5606 9b3e d9ee cb3d 834b c03e 06c6 713e
00000130: 4ee1 343d 107b a73d 01a4 36bd 34c5 99be
00000140: cc32 713e 20a8 763e 3046 673e 0aba e43d
00000150: e9d5 523e 067f db3d 5147 22be fbf1 663c
00000160: e3ab 5dbe 1e63 7b3e 0d79 853d 020d 763e
00000170: dc59 923e ed55 fbbc d8f6 3e3d cd5d 54bd
00000180: f55e c73d 392a 363e 4c6f 6bbe 29b3 633e
00000190: e616 903e 6cb0 6e3c 6376 493e 409b 2ebe
000001a0: 6012 c23b 6389 1d3e b7c5 52b8 52b6 803e
000001b0: 75fe fb3d 07ec b73d 0a03 ce3d 103e fd3d
000001c0: b013 c5bd 11fd c1bd 407c 853d f652 de3d
000001d0: a5c6 4cbe 941e 8fbe be24 d3bc 4102 b8bd
000001e0: 9203 d43e 1c12 8fbe bdaf 443e 329d ac3c
000001f0: 9c34 3bbe 7b3e 23be 0363 e93d e92b abbe
00000200: c2c2 2dbe a6f4 e03d b963 e8bd 370c 533e
00000210: c0a1 fb3d f4ef 24be 3245 d6bc e4fe bd3e
00000220: 1a32 663d 4c4d 8f3e 30a4 2e3e 3f24 19be
00000230: 219f 3e3e 6c2c c4bd 0586 933e bcc2 333e
00000240: 6f33 c4bd 39c7 c2bd e7c1 2abd 4b68 55bd
00000250: 3219 b13e 0c11 dfbd 5078 343c 98f6 60be
00000260: 62a8 a8be ab27 65bc 133f 30bd 7f88 7fbe
00000270: dd32 64bd 0d85 913e 7c00 573e 6fdc d33d
00000280: a635 27bd 51d6 543d 978d cf3e b12e 9d3e
00000290: 6122 e6bd 8983 52be a079 69be 6baf ba3e
000002a0: 4add a43e 8359 113e 0173 e93d 291a 503e
000002b0: a978 e1bd d3ec 573d ba66 fa3c a32c 5cbd
000002c0: 8240 cebc 2ffd c8bc 98a8 01bc bbd8 5c3e
000002d0: afd5 363e 49c3 86be d167 063e 0aba 18be
000002e0: 8d59 e43e 3598 c9bd 24d3 6ebe 8df6 e4bd
000002f0: 4460 2cbe a02e c4bd 8287 abbe 02c1 93bd
00000300: e834 67bb cd67 2d3d f19b 223e a7fc aa3e
00000310: 140c 613e 971e 5ebe 5f79 bab9 b916 563e
00000320: 43a7 bb3e 4ec0 843e bd77 63be c749 523e
00000330: 30e2 73bd c7f1 b7bc 827b fbbc 0366 10bd
00000340: e8f1 cfbe d930 17bd 9422 9d3c 64d8 1dbe
00000350: c9ee 713d 424e 83be b8c2 9f3e 8385 a63d
00000360: f6d8 083e c855 5e3e d30c 74be 602d 4a3e
00000370: baea 4abd 1e95 84be ddb8 4bbe a754 62be
00000380: c0d4 45be c3a1 4d3e 9410 20be 4838 3d3e
00000390: a840 473c da5f 493d c0a0 243e a7f7 a4bd
000003a0: 4b05 7cbe c80a d83e 9439 213e 43b2 d23d
000003b0: 37f9 923e a677 0b3c 09b1 503e 132c d1bd
000003c0: 6fd2 17be 7131 ccbd 298a d5bd a5ec f23d
000003d0: 8725 583e 4299 993e a366 8abb 1df2 443e
000003e0: 6398 ca3e e2d7 ee3d 6fc5 963e bfd5 f83d
000003f0: 8d29 e93d cdda ac3e bd32 283d 756f 183e

layer2.0.fc1.bias f4 [32]
-0.027244413 -0.14004543 -0.054854024 -0.20169906 0.43329018 0.2659624 -0.22936994 0.37247038
-0.011761611 0.06199831 0.11405497 0.16768119 -0.15266769 -0.30063042 0.10896455 0.25491184
0.27924877 0.0024910974 -0.07434465 0.044310994 -0.12114128 0.001058244 0.06748311 -0.07106911
0.30609435 -0.108278364 -0.14532027 0.21455744 0.13623276 0.37548292 -0.06944214 -0.33981964
00000000: ad2f dfbc 1268 0fbe 9dae 60bd 338a 4ebe
00000010: 36d8 dd3e 392c 883e f4df 6abe 70b4 be3e
00000020: c6b3 40bc f1f1 7d3d a795 e93d 9eb4 2b3e
00000030: eb54 1cbe 3bec 99be ce28 df3d ce83 823e
00000040: b2f9 8e3e ae41 233b 0242 98bd 727f 353d
00000050: eb18 f8bd c7b4 8a3a 9634 8a3d ae8c 91bd
00000060: 66b8 9c3e 0cc1 ddbd d6ce 14be f2b4 5b3e
00000070: 9a80 0b3e 4c3f c03e ae37 8ebd d7fc adbe

layer2.0.bn1.weight f4 [32]
1.0113438 0.85983384 1.1649717 0.98720455 1.0569099 0.9767086 0.9508369 0.9345853
0.8845677 1.1147349 1.1971781 1.1472604 1.0105549 1.0960653 0.88683754 1.0580207
1.1387824 0.7634963 1.175515 1.107945 0.8335657 1.1884371 1.0616014 0.96882945
0.88849014 1.1136026 0.75043595 0.8415846 0.8362581 1.0596235 1.0402944 1.1552159
00000000: b773 813f 121e 5c3f cb1d 953f 70b9 7c3f
00000010: d348 873f 9309 7a3f 0c6a 733f fb40 6f3f
00000020: 0773 623f a2af 8e3f 223d 993f 6ed9 923f
00000030: dd59 813f de4b 8c3f c907 633f 396d 873f
00000040: 9fc3 913f 7e74 433f 4777 963f 24d1 8d3f
00000050: 9064 553f b51e 983f 8ee2 873f 3505 783f
00000060: 1774 633f 888a 8e3f 921c 403f 1772 573f
00000070: 0315 563f bea1 873f 5e28 853f 1dde 933f

layer2.0.bn1.bias f4 [32]
-0.11553809 -0.35911438 0.03340643 -0.35740212 -0.073966995 -0.028500251 -0.3949078 -0.22834876
-0.09938988 -0.17624389 -0.3805712 0.060655173 -0.3660549 0.012163518 -0.3021675 -0.11057859
-0.23113112 -0.18351033 -0.0068182005 0.021717595 -0.14694293 -0.07531555 -0.032204684 -0.011472563
-0.016624985 -0.054078117 -0.19301768 0.018503323 -0.12129243 -0.45917636 -0.14068326 -0.0017158791
00000000: 3c9f ecbd d7dd b7be 2ed5 083d 69fd b6be
00000010: 027c 97bd 5c79 e9bc 5b31 cabe 42d4 69be
00000020: ec8c cbbd 4779 34be 3ada c2be 8f71 783d
00000030: 8c6b bbbe 7e49 473c b3b5 9abe 0777 e2bd
00000040: a3ad 6cbe 22ea 3bbe 366b dfbb 19e9 b13c
00000050: 3578 16be 0a3f 9abd 0fe9 03bd 6bf7 3bbc
00000060: 1f31 88bc 0481 5dbd 6da6 45be 4894 973c
00000070: 2a68 f8bd 2a19 ebbe 460f 10be 59e7 e0ba

layer2.0.bn1.running_mean f4 [32]
1.3537362 0.635917 -0.8421074 0.23757978 0.8303298 1.2283704 0.87724686 -0.24266636
0.83066434 -0.061392106 0.6565455 -0.5238621 0.39383644 -1.0710139 0.8331078 1.7697829
1.1943399 -0.26556942 1.1724985 -0.5200337 0.16730282 -0.6492833 -0.8606617 0.71087354
1.4958959 0.5118703 -0.13215153 -0.8543768 0.97628254 0.95617074 0.37654215 -0.8644739
00000000: 3a47 ad3f 75cb 223f 5a94 57bf 1d48 733e
00000010: 7e90 543f 3e3b 9d3f 4093 603f 887d 78be
00000020: 6ba6 543f 4a76 7bbd 5e13 283f d41b 06bf
00000030: eea4 c93e fc16 89bf 8e46 553f 3f88 e23f
00000040: 21e0 983f b7f8 87be 6e14 963f ee20 05bf
00000050: 6e51 2b3e 6e37 26bf 5354 5cbf cffb 353f
00000060: 8479 bf3f ef09 033f bb52 07be 70b8 5abf
00000070: a7ed 793f 9bc7 743f 22ca c03e 294e 5dbf

layer2.0.bn1.running_var f4 [32]
2.262435 2.0389695 0.9075724 1.4987006 1.0869963 2.8242524 1.4149148 0.9394917
2.0728552 0.28219882 1.7750287 1.2872208 1.7548747 1.1959928 2.7605317 1.1408023
2.1374834 1.3656747 1.2507622 1.0882815 1.441877 1.2473153 1.2941108 1.2980822
1.1115406 0.7364512 0.91282153 2.799932 1.3739703 1.7256889 0.8821887 1.1727947
00000000: bccb 1040 7a7e 0240 aa56 683f 6cd5 bf3f
00000010: b222 8b3f 8dc0 3440 ee1b b53f 8782 703f
00000020: a9a9 0440 5d7c 903e 2434 e33f a7c3 a43f
00000030: bc9f e03f 4b16 993f 8dac 3040 cf05 923f
00000040: 87cc 0840 6ece ae3f fa18 a03f cf4c 8b3f
00000050: 6d8f b83f 07a8 9f3f 6ca5 a53f 8f27 a63f
00000060: f646 8e3f 1188 3c3f acae 693f 1632 3340
00000070: 42de af3f 60e3 dc3f 1ed7 613f 231e 963f

layer2.0.fc2.weight f4 [32, 32]
-0.07347679 0.16698411 0.1270563 0.35891053 -0.11136715 0.026639925 -0.101472616 0.15745501
0.15487348 0.1332453 0.30193692 0.09107403 0.34586963 0.09307813 -0.03466687 0.07935752
0.13249043 0.091261774 0.057278372 0.08942675 0.117566094 0.19781074 -0.036836088 0.10544135
-0.01938646 0.005762798 0.11709164 0.1727026 0.0762714 0.35609627 0.35894728 0.044934634
0.03820114 0.14137408 0.17606288 0.32029387 -0.26714846 0.14202511 -0.025934648 0.039811652
0.18807603 -0.09603285 0.09505558 -0.049890533 0.16557819 0.116289444 -0.038512323 -0.08742016
0.12528376 0.123135835 0.23758645 0.027379977 -0.12793562 0.0873911 0.20006372 0.105134115
0.13327894 -0.12867182 0.017798683 0.14145742 -0.19725649 -0.0033271043 0.041982464 0.21645454
0.111153595 -0.012515905 -0.019100575 0.106743865 0.20562868 0.056676097 -0.010831463 -0.103038855
0.23681301 0.2729968 0.34086242 0.121116586 0.3104672 0.14527892 0.048985876 0.09660245
0.28419536 -0.06839109 0.2041219 0.17689386 0.036594395 -0.08531024 -0.058843035 -0.06890508
-0.0446407 0.03045241 -0.01662859 0.17816 0.15278363 0.328373 0.17826767 -0.06965716
0.023996929 -0.045917425 0.2670435 -0.12036458 -0.0891009 0.038335714 -0.2478393 0.35404032
-0.035094514 -0.049371835 0.0038050332 0.17097253 -0.051974703 0.20813458 0.13625151 -0.057428356
-0.009617137 -0.055935238 -0.16920704 0.26983917 0.18804654 0.33294675 0.16757166 0.05776825
-0.13121347 -0.060382154 0.12325886 -0.031805873 -0.09274302 0.059946615 -0.14192113 0.119224794
-0.027461477 0.0026572482 -0.023792889 0.1011742 -0.12551527 -0.25449085 -0.067261204 -0.23047179
-0.07675688 0.37205818 -0.0016340893 -0.17730105 0.070169374 0.051523507 0.07210152 -0.09296631
0.1560429 0.12768218 -0.31189173 -0.1607465 -0.03206049 -0.15108411 -0.18762264 -0.21985495
-0.13089086 -0.06776204 -0.055614814 0.32450035 0.015524341 0.12132289 0.001085139 -0.121564396
-0.12747867 0.1794594 0.20945162 0.2881639 -0.07379247 -0.036937963 0.108971246 0.12518033
0.21013583 0.3331081 0.33042768 0.033712916 0.26387233 -0.062484123 0.035816506 0.17419964
0.3709919 -0.05843169 0.06010063 -0.08954217 0.0453207 0.08885733 0.2471659 0.015983993
0.007732917 0.19149636 0.12859 -0.076536864 -0.06221212 0.3581191 0.113814555 0.0733022
0.028669493 -0.045858413 -0.22897877 0.12702586 0.15836653 0.15242933 0.26915905 -0.013641821
0.31539023 0.07541535 0.037845973 -0.16203615 0.039084285 0.008555524 -0.011511571 0.22442418
0.111783415 -0.011705267 0.2870343 -0.0987816 0.30390185 -0.18146834 -0.15213703 -0.041989934
0.0559966 0.07341629 0.3331876 -0.17162913 -0.032974977 0.14186916 -0.018990327 -0.27104878
-0.23651429 0.2077888 0.28726494 0.24469145 -0.09332162 0.034438092 -0.048601422 0.013081521
0.04248329 -0.13706505 0.21338293 0.03157519 0.08461467 0.11662424 -0.19471373 -0.101816274
0.009295114 0.092185974 0.098069094 0.12825651 0.18858626 0.2944151 0.35463953 -0.0948719
-0.06183329 -0.23238008 0.11639205 0.13417752 0.27300677 0.2568621 -0.041008867 0.18193577
00000000: 007b 96bd e2fd 2a3e 0c1b 023e 1fc3 b73e
00000010: 7614 e4bd f93b da3c e0d0 cfbd e33b 213e
00000020: 2797 1e3e 7571 083e 7a97 9a3e 0585 ba3d
00000030: d315 b13e bf9f be3d d9fe 0dbd 3286 a23d
00000040: 92ab 073e 74e7 ba3d ba9c 6a3d 5f25 b73d
00000050: 7ec6 f03d e68e 4a3e 70e1 16bd a2f1 d73d
00000060: 5ad0 9ebc dad5 bc3b becd ef3d f3d8 303e
00000070: 2e34 9c3d 4052 b63e f0c7 b73e 610d 383d
00000080: cc78 1c3d 5ec4 103e d449 343e 8ffd a33e
00000090: afc7 88be 086f 113e e674 d4bc 8b11 233d
000000a0: 0197 403e dfac c4bd 80ac c23d 045a 4cbd
000000b0: 548d 293e 2929 ee3d 19bf 1dbd 5709 b3bd
000000c0: 634a 003e a42e fc3d dd49 733e f94b e03c
000000d0: 8e01 03be 1bfa b23d 81dd 4c3e 8e50 d73d
000000e0: 467a 083e 8cc2 03be 8bce 913c 37da 103e
000000f0: 9bfd 49be 8c0b 5abb cef5 2b3d 42a6 5d3e
00000100: 7fa4 e33d 830f 4dbc cf78 9cbc 879c da3d
00000110: 5390 523e 3225 683d 7376 31bc 0906 d3bd
00000120: 1c7f 723e 3dc6 8b3e 8585 ae3e f90b f83d
00000130: 8ff5 9e3e ffc3 143e 6aa5 483d 81d7 c53d
00000140: 0e82 913e a110 8cbd 5505 513e aa23 353e
00000150: 01e4 153d 23b7 aebd 6505 71bd 1b1e 8dbd
00000160: 2bd9 36bd 5577 f93c ae38 88bc 936f 363e
00000170: 5073 1c3e 8120 a83e cd8b 363e 6aa8 8ebd
00000180: 3595 c43c e913 3cbd edb9 883e b481 f6bd
00000190: 887a b6bd e905 1d3d 96c9 7dbe c644 b53e
000001a0: 44bf 0fbd 1f3a 4abd dd5d 793b 6c13 2f3e
000001b0: 6de3 54bd 3b21 553e 8485 0b3e ff39 6bbd
000001c0: 3291 1dbc 591c 65bd 9c44 2dbe 5c28 8a3e
000001d0: 468f 403e ff77 aa3e e897 2b3e 679e 6c3d
000001e0: d35c 06be 4753 77bd 246f fc3d e046 02bd
000001f0: 0df0 bdbd 958a 753d c653 11be 212c f43d
00000200: e4f6 e0bc 3a25 2e3b 4ee9 c2bc 6b34 cf3d
00000210: 1387 00be a04c 82be 3ec0 89bd cc00 6cbe
00000220: b632 9dbd 697e be3e f02e d6ba 688e 35be
00000230: f6b4 8f3d 500a 533d f6a9 933d 1f65 bebd
00000240: b6c9 1f3e 1ebf 023e 46b0 9fbe bb9a 24be
00000250: dc51 03bd cbb5 1abe 2620 40be a821 61be
00000260: 4108 06be d3c6 8abd 5ccc 63bd e924 a63e
00000270: ce59 7e3c 2378 f83d 393b 8e3a c1f6 f8bd
00000280: c589 02be 34c4 373e 7c7a 563e 388a 933e
00000290: 8220 97bd 434c 17bd 512c df3d 462f 003e
000002a0: d92d 573e 258d aa3e d12d a93e 8e16 0a3d
000002b0: 461a 873e 5aef 7fbd 54b4 123d 6461 323e
000002c0: a6f2 bd3e 1156 6fbd 142c 763d e361 b7bd
000002d0: 33a2 393d d5fa b53d 0f19 7d3e ddf0 823c
000002e0: 6964 fd3b 9f17 443e 19ad 033e 5cbf 9cbd
000002f0: 23d2 7ebd 635b b73e 9b17 e93d 771f 963d
00000300: 49dc ea3c 08d6 3bbd 6979 6abe 1113 023e
00000310: d62a 223e 6f16 1c3e 37cf 893e f281 5fbc
00000320: d47a a13e 5d73 9a3d 6104 1b3d ceec 25be
00000330: d816 203d 782c 0c3c 079b 3cbc 74cf 653e
00000340: b4ee e43d 73c7 3fbc 29f6 923e 024e cabd
00000350: 0699 9b3e d6d2 39be cfc9 1bbe a3fd 2bbd
00000360: b15c 653d 485b 963d 9197 aa3e 8cbf 2fbe
00000370: c510 07bd 2646 113e 9a91 9bbc e8c6 8abe
00000380: cd30 72be 96c6 543e 6414 933e 6590 7a3e
00000390: 681f bfbd f50e 0d3d 4912 47bd e053 563c
000003a0: f502 2e3d c85a 0cbe 0e81 5a3e fd54 013d
000003b0: 754a ad3d b1d8 ee3d 0963 47be 0d85 d0bd
000003c0: 894a 183c 00cc bc3d 73d8 c83d ad55 033e
000003d0: c21c 413e 93bd 963e 5093 b53e 334c c2bd
000003e0: e744 7dbd 0bf5 6dbe f55e ee3d d565 093e
000003f0: 8bc7 8b3e 6e83 833e eaf8 27bd 5f4d 3a3e

layer2.0.fc2.bias f4 [32]
-0.04696086 -0.038449023 0.11956356 -0.07946766 0.13499752 0.012545071 0.07252657 -0.017131694
0.06844806 7.101854e-05 0.10032737 0.06927555 -0.2731407 0.13011421 0.090289906 0.064074904
-0.0033294018 0.0045204917 0.22908752 -0.077727154 -0.13452302 0.20147732 -0.019451728 -0.13409896
-0.04870129 0.020312944 0.091525376 -0.07795112 -0.2906501 0.111652605 0.16801377 0.44764695
00000000: 085a 40bd b97c 1dbd bddd f43d f1bf a2bd
00000010: ca3c 0a3e d789 4d3c cf88 943d c457 8cbc
00000020: 7f2e 8c3d caef 9438 7078 cd3d 57e0 8d3d
00000030: 19d9 8bbe a93c 053e eae9 b83d b439 833d
00000040: 1832 5abb a220 943b eb95 6a3e 6a2f 9fbd
00000050: 67c0 09be 1250 4e3e 3b59 9fbc 3d51 09be
00000060: 017b 47bd 5567 a63c a871 bb3d d6a4 9fbd
00000070: 17d0 94be 1faa e43d cd0b 2c3e fb31 e53e

layer2.0.bn2.weight f4 [32]
1.2966436 0.9242875 0.9740806 1.1430553 1.148921 1.3973731 0.9295599 0.8980131
0.8674339 0.7183548 0.8714329 1.1450702 0.7810762 0.8551204 0.887276 1.1145734
0.91055655 1.077142 0.83976245 0.9407446 1.0622126 0.8221797 1.0083919 1.0726738
0.7102864 0.9473473 1.0628176 1.0623512 1.0672716 1.0159264 0.8490328 1.2818699
00000000: 6bf8 a53f 1b9e 6c3f 595d 793f a34f 923f
00000010: d80f 933f 1fdd b23f a3f7 6d3f 30e4 653f
00000020: 2610 5e3f 1ae6 373f 3a16 5f3f a991 923f
00000030: 9cf4 473f 2ce9 5a3f 8524 633f 57aa 8e3f
00000040: 3c1a 693f cadf 893f acfa 563f a3d4 703f
00000050: 95f6 873f 5e7a 523f fc12 813f 604d 893f
00000060: 54d5 353f 5a85 723f 680a 883f 20fb 873f
00000070: 5b9c 883f e009 823f 375a 593f 5014 a43f
