textbooks/toy-model2/model_pretrain.pth (torch, 3273 bytes, 4 tensors)

NN.hidden.weight f4 [32, 1]
0	0x3f25f8b2	0.64832604
1	0x3efcd717	0.4938285
2	0xbd9fbb0a	-0.07799347
3	0x3f44c8eb	0.76869076
4	0xbddd7880	-0.10813999
5	0xbf7421cb	-0.95364064
6	0xbe80c725	-0.25151935
7	0xbf0fd0d9	-0.5617805
8	0xbdc50d90	-0.096217275
9	0x3f25058f	0.64461607
10	0xbf4abc36	-0.7919344
11	0x3f3d7b23	0.74016017
12	0x3f3ac754	0.729604
13	0x3f0c5feb	0.5483386
14	0xbf555ff7	-0.83349556
15	0xbe2855c2	-0.16438964
16	0x3f602075	0.87549525
17	0x3e8fc0d4	0.28076804
18	0x3eb4a66f	0.3528323
19	0x3f515e4a	0.817845
20	0x3ee80ce0	0.45322323
21	0xbf3c0a55	-0.73453265
22	0x3f555eb4	0.8334763
23	0x3f3a85b0	0.7286024
24	0x3ed1f841	0.41009715
25	0xbe76df28	-0.24108565
26	0xbe2ec5ec	-0.17067689
27	0xbf35eadb	-0.71061486
28	0x3e8bd81c	0.27313316
29	0xbf642a85	-0.8912738
30	0xbe16d4a0	-0.14729548
31	0x3f81d839	1.0144111

NN.hidden.bias f4 [32]
0	0xbf6c3964	-0.9227507
1	0xbf03cd56	-0.5148519
2	0x3f205000	0.6262207
3	0x3f0f9969	0.5609346
4	0xbe98012c	-0.29688394
5	0xbdccee8e	-0.10006438
6	0x3e7e862f	0.24855874
7	0x3f0f3a28	0.55948114
8	0x3dcd7915	0.1003286
9	0x3e0ead82	0.13933375
10	0xbee2da37	-0.4430711
11	0x3f33fa87	0.7030415
12	0xbf61afa2	-0.8815862
13	0xbf0e7f5b	-0.5566308
14	0xbe84ddc6	-0.2595045
15	0x3cab9d03	0.020948892
16	0x3f0ff439	0.5623203
17	0xbedd4140	-0.43213844
18	0xbe718206	-0.23584756
19	0x3ea6f530	0.32608938
20	0xbf78b23a	-0.9714695
21	0xbe23c8c2	-0.15994552
22	0xbf6966b4	-0.9117234
23	0xbf5e472c	-0.8682735
24	0x3ebc4e6d	0.36778584
25	0xbef5f2cc	-0.48036802
26	0x3d38482c	0.044990703
27	0x3e9b5703	0.30339822
28	0xbf0226ae	-0.5084027
29	0x3bd6a9eb	0.0065510175
30	0xbf18081c	-0.59387374
31	0x3ee39e11	0.44456533

NN.output.weight f4 [10, 32]
0	0xbc3a90bb	-0.0113870455
1	0x3e08123e	0.13288209
2	0x3ddafbfb	0.10692593
3	0x3d3a3cc1	0.045468096
4	0xbd49567e	-0.04915475
5	0xbd9c468d	-0.07630644
6	0xbd5f5683	-0.054525863
7	0xbd2f5594	-0.042806223
8	0xbdb6453d	-0.08899925
9	0x3e669cb4	0.22520715
10	0xbf87eeea	-1.0619786
11	0x3cdef50c	0.027216457
12	0x3da2cb64	0.0794895
13	0x3ccfe859	0.025379347
14	0x3e51f5d0	0.20503926
15	0x3ce7eabe	0.028310176
16	0xbe7d6a7a	-0.24747649
17	0x3d33ef3c	0.043929324
18	0x3ec7ddfa	0.39036542
19	0x3e4408da	0.19144002
20	0x3d5aecc6	0.05344846
21	0x3e52dea9	0.2059275
22	0xbe1e8a9d	-0.15482564
23	0x3d82cab0	0.06386316
24	0xbd272de7	-0.04081526
25	0xbe10f55e	-0.141561
26	0xbd2f1a63	-0.042749774
27	0xbc3ed9d5	-0.011648615
28	0xbe14d2e1	-0.14533569
29	0xbe82ac54	-0.255221
30	0x3b25d273	0.002530244
31	0xbba5357e	-0.005041777
32	0x3c8f6156	0.017502468
33	0x3d96810d	0.07348833
34	0x3da583aa	0.080817536
35	0xbec620b9	-0.3869684
36	0xbe33fc48	-0.17576706
37	0xbe2ab390	-0.1667006
38	0x3d53ad1c	0.05167876
39	0x3d855daa	0.065120056
40	0xbdf155d6	-0.1178395
41	0xbd7fea65	-0.062479395
42	0xbea12b88	-0.31478524
43	0x3d5a2fb1	0.05326814
44	0xbe12da4c	-0.14341086
45	0x3d361292	0.044451304
46	0x3ea652e7	0.32485124
47	0xbd7d1b37	-0.061793532
48	0xbe764726	-0.24050578
49	0x3c1f210a	0.009712467
50	0xbdf4a8d5	-0.11946265
51	0xbcdf7586	-0.02727772
52	0xbcc4f067	-0.024040414
53	0xbd14324f	-0.03618079
54	0xbdb0d4aa	-0.086343125
55	0xbd5141d0	-0.051088154
56	0x3d8eae6c	0.06966862
57	0x3defc2e1	0.11707092
58	0xbd9a635c	-0.075384825
59	0x3c649369	0.013951161
60	0x3e0199fe	0.126564
61	0x3d1defc9	0.038558755
62	0x3cc8c9b6	0.024510246
63	0x3e77ce94	0.24199897
64	0xbe1d34d2	-0.1535218
65	0x3dddf6b5	0.10838071
66	0xbc98f2b6	-0.018670421
67	0x3c80507a	0.015663374
68	0x3dc89528	0.09794074
69	0xbd7330f3	-0.059372853
70	0x3d678c68	0.056530386
71	0xbe10b012	-0.14129665
72	0x3dcf49c2	0.1012149
73	0x3e735024	0.2376104
74	0xbe94da80	-0.29072952
75	0xbdc80a5c	-0.09767601
76	0xbd729b11	-0.059229914
77	0xbd20df78	-0.039275616
78	0x3e7ff322	0.24995092
79	0x3dd3d95c	0.103441924
80	0x3e577c12	0.21043423
81	0x3df242c7	0.11829143
82	0xbe327987	-0.17429172
83	0xbf2c51e6	-0.6731247
84	0x3c6722b2	0.014107393
85	0x3e14ec7d	0.14543338
86	0x3d363260	0.044481635
87	0x3dc69152	0.096956864
88	0x3c94ec34	0.018179037
89	0xbe112c7a	-0.14177123
90	0xbda77399	-0.081763454
91	0x3da80517	0.08204096
92	0xbe1ab728	-0.15108931
93	0x3d6aed17	0.057355013
94	0xbd5820be	-0.0527656
95	0xbf3f94f9	-0.7483669
96	0xbd802438	-0.06256908
97	0xbd8ca99e	-0.068682894
98	0xbdad5537	-0.08463519
99	0x3e97c475	0.29642072
100	0x3da5f554	0.08103433
101	0xbeb39617	-0.35075447
102	0x3e31f747	0.17379485
103	0x3e70fa42	0.23532966
104	0x3b5ed3a3	0.0034000657
105	0xbdb821e4	-0.08990839
106	0x3d22373d	0.03960346
107	0xbdbedca2	-0.09319426
108	0xbd0b1777	-0.033957925
109	0xbdcd888f	-0.10035812
110	0x3ebfdcec	0.37473238
111	0x3d0c830c	0.034304664
112	0x3e41a774	0.18911535
113	0xbdbc0771	-0.09181107
114	0x3e106145	0.14099605
115	0xbc520c99	-0.012820386
116	0xbc945cd3	-0.018110668
117	0x3e2d990d	0.16952915
118	0x3e1615ff	0.14656828
119	0x3e332b1e	0.17496917
120	0xbe2a9f57	-0.16662346
121	0x3dba9e99	0.09112281
122	0x3c84c393	0.016206538
123	0xbd8061f9	-0.06268687
124	0x3e2de66e	0.16982433
125	0xbd8943fd	-0.06702421
126	0x3e2dfd53	0.16991167
127	0x3e11776a	0.14205709
128	0xbcd5da6a	-0.026105125
129	0xbc999ae4	-0.018750615
130	0x3df76193	0.12079158
131	0xbe374f40	-0.17901325
132	0xbccee24c	-0.025254391
133	0x3cdf882b	0.02728661
134	0xbdeefb3f	-0.11669015
135	0xbd869054	-0.06570497
136	0xbe0cbfa0	-0.13744974
137	0x3e836f22	0.25670725
138	0x3f188c1b	0.59588784
139	0x3ed72d56	0.42026776
140	0x3db4d344	0.08829358
141	0x3ce9c86f	0.028537957
142	0xbdc2e467	-0.095162205
143	0xbcbcb729	-0.023036556
144	0xbdd0d8b6	-0.10197584
145	0xbe0b747c	-0.13618654
146	0x3ea2bb28	0.31783414
147	0x3d26dda2	0.04073871
148	0xbdb4e0c1	-0.08831931
149	0x3dc6ef5d	0.09713624
150	0x3b9df4f6	0.0048204614
151	0xbca89d60	-0.020582855
152	0x3e6551cc	0.22394484
153	0xbe22c38f	-0.15894912
154	0xbc9b0011	-0.01892093
155	0xbe053e1f	-0.13011979
156	0xbe2e8d0f	-0.17045997
157	0xbe227f2b	-0.15868823
158	0xbda6c4eb	-0.08143028
159	0xbe682c7a	-0.22673216
160	0xbb4442c4	-0.0029947022
161	0xbc1c93a5	-0.009556686
162	0x3d689018	0.056778044
163	0x3e363f1f	0.17797516
164	0xbdee24f8	-0.11628145
165	0x3eb82894	0.3596846
166	0x3e54c21e	0.20777175
167	0x3e6b8d3f	0.230031
168	0x3dec85b4	0.11548939
169	0xbdad14ae	-0.0845121
170	0xbd89e2f0	-0.06732738
171	0xbdd17a43	-0.10228398
172	0xbd698f78	-0.057021588
173	0xbe3eb161	-0.18622352
174	0xbcaabac2	-0.020841006
175	0xbe9d1c12	-0.30685478
176	0xbe951bc3	-0.29122743
177	0xbda4a330	-0.08038938
178	0xbe111e1a	-0.14171639
179	0xbdb9ad88	-0.090663016
180	0x3d689149	0.05677918
181	0xbdaebf2a	-0.085325554
182	0x3e1fddee	0.15612003
183	0x3de62480	0.112374306
184	0xbd3c0d5e	-0.045911185
185	0x3dbeea72	0.09322061
186	0xbedd9024	-0.43274033
187	0xbe23d524	-0.15999275
188	0xbe111338	-0.14167488
189	0x3dd2d327	0.1029418
190	0x3e34d479	0.17659177
191	0xbeaad65e	-0.33366674
192	0x3db5844b	0.088631235
193	0x3e150165	0.14551313
194	0x3d81e96f	0.06343352
195	0x3df1f3b0	0.11814058
196	0x3ce592ea	0.028024156
197	0x3db011b1	0.08597124
198	0x3e2e857a	0.17043105
199	0x3d8bfa5d	0.068348624
200	0xbd905613	-0.07047667
201	0x3cba7418	0.022760436
202	0x3e1f508a	0.15558067
203	0xbe1533cc	-0.1457054
204	0xbd63c03f	-0.055603262
205	0x3bb15383	0.0054115667
206	0xbeca3b2c	-0.3949827
207	0xbe27b588	-0.16377842
208	0xbeccc7b2	-0.39996105
209	0xbe18092c	-0.14847249
210	0xbda176a3	-0.07883956
211	0xbea86df1	-0.3289638
212	0xbda900d0	-0.08252108
213	0x3eb9941d	0.36245814
214	0xbe2166f5	-0.15761931
215	0xbe2d099d	-0.16898198
216	0xbc67cce5	-0.014147972
217	0xbd4c3e59	-0.049864147
218	0xbdd78c8a	-0.105248526
219	0x3d862a3f	0.065510266
220	0x3d83165c	0.06400749
221	0xbd49b45b	-0.049244266
222	0x3d301340	0.04298711
223	0x3dbed3aa	0.093177155
224	0xbd278d90	-0.04090649
225	0xbdf04077	-0.11731046
226	0xbd42e91c	-0.04758559
227	0xbed14186	-0.40870303
228	0xbd897fe8	-0.06713849
229	0x3d9e29e3	0.07722833
230	0xbc02b2b0	-0.007977173
231	0x3d054464	0.032535926
232	0xbc976659	-0.01848142
233	0xbc965c6a	-0.018354613
234	0xbe7c1d47	-0.24620543
235	0xbe0a6866	-0.13516387
236	0xbdc328ce	-0.09529267
237	0xbe18b71f	-0.14913605
238	0xbd488a13	-0.048959803
239	0x3d84cd6f	0.06484496
240	0x3f24e4f0	0.6441183
241	0x3dcb7272	0.09933938
242	0xbdcc7109	-0.09982497
243	0x3e4c5ef7	0.19958101
244	0xbe10c9ea	-0.14139524
245	0xbc658781	-0.014009357
246	0xbdbad91f	-0.09123444
247	0xbd4fe4b9	-0.050755236
248	0xbe2a5f50	-0.16637921
249	0xbc64bf39	-0.013961607
250	0x3d841ba9	0.06450588
251	0xbdfa7edd	-0.122312285
252	0x3d3500d1	0.04419023
253	0xbd67773d	-0.0565102
254	0x3cf7b9cc	0.030239962
255	0x3cc1a249	0.023636954

NN.output.bias f4 [10]
0	0x3d47855a	0.04871116
1	0x3dca5536	0.09879534
2	0x3e0bd3ed	0.13655062
3	0xbe0ce493	-0.13759069
4	0xba00067e	-0.000488378
5	0xbc4be034	-0.012443591
6	0x3d091a9b	0.03347264
7	0x3da7d4eb	0.08194908
8	0x3da1974b	0.07890185
9	0xbcfb6211	-0.03068641
