sensor_case/outputs/experiment5/resnet_model.pth (torch, 148679 bytes, 92 tensors)

layer1.0.fc1.weight f4 [16, 5]
0.373596 0.16440779 0.06751542 -0.5283962 -0.5237168 0.17152774 0.1665617 -0.2807168
-0.10111164 0.18121994 0.5245206 0.034360703 0.60779804 0.25895816 0.095644906 -0.13318321
-0.3883516 0.18585812 -0.7173047 0.0203533 0.4873104 0.21590786 -0.27844492 0.016740723
0.22629216 -0.46514964 0.09111374 0.41632152 0.42173666 0.19644433 0.040749457 0.44940996
0.486321 -0.04446335 -0.10931576 -0.24186389 0.071351 -0.22713163 -0.06654566 -0.3667008
-0.26117572 -0.3645085 0.23848069 0.37040323 0.57682115 0.28619578 0.039832514 -0.28301698
0.074551366 0.47704646 0.01695386 0.6560711 -0.003951234 0.2605537 -0.23788023 0.5378183
0.4011769 -0.28132418 -0.22562778 0.076569624 0.06612294 -0.6066085 -0.25224498 0.24574795
-0.29726768 -0.16484371 0.13996686 -0.41391966 -0.32375202 -0.027731227 -0.1932733 0.40871733
-0.09851551 -0.19856524 -0.02261754 -0.44617757 0.13553172 0.17197393 -0.38049203 -0.30834195
00000000: fa47 bf3e 845a 283e 8645 8a3d f944 07bf
00000010: 4e12 06bf f8a4 2f3e 268f 2a3e 1dba 8fbe
00000020: 9f13 cfbd b891 393e fb46 063f cfbd 0c3d
00000030: a798 1b3f 2a96 843e 7ae1 c33d 2e61 08be
00000040: 05d6 c6be 9751 3e3e 48a1 37bf f7bb a63c
00000050: c080 f93e f316 5d3e 5590 8ebe d723 893c
00000060: 22b9 673e 1828 eebe d799 ba3d 1828 d53e
00000070: deed d73e b428 493e e7e8 263d 1019 e63e
00000080: 11ff f83e 341f 36bd f1e0 dfbd 2bab 77be
00000090: 7920 923d 3295 68be 1749 88bd 35c0 bbbe
000000a0: d3b8 85be dca0 babe 4834 743e 7ea5 bd3e
000000b0: 8daa 133f 4188 923e 6b27 233d 9ae7 90be
000000c0: 63ae 983d 6f3f f43e d2e2 8a3c 47f4 273f
000000d0: 5a79 81bb 4b67 853e e096 73be 76ae 093f
000000e0: 0f67 cd3e b909 90be f80a 67be 89d0 9c3d
000000f0: 776b 873d b24a 1bbf 4126 81be 5aa5 7b3e
00000100: 7833 98be cacc 28be 7953 0f3e 47ed d3be
00000110: d3c2 a5be 992c e3bc 70e9 45be 6643 d13e
00000120: 80c2 c9bd b054 4bbe 6b48 b9bc 6371 e4be
00000130: d4c8 0a3e ef19 303e dacf c2be ffde 9dbe

layer1.0.fc1.bias f4 [16]
-0.22848082 -0.37863126 -0.46485865 -0.3856684 -0.3939703 0.08790828 -0.3555789 0.3116097
0.32192847 0.13746187 -0.095002525 -0.5299398 -0.49710006 -0.26444268 0.05841641 0.29702157
00000000: e0f6 69be f5db c1be f401 eebe 5476 c5be
00000010: 7ab6 c9be 4209 b43d 700e b6be 4e8b 9f3e
00000020: cfd3 a43e cec2 0c3e af90 c2bd 22aa 07bf
00000030: e683 febe 0865 87be 0c46 6f3d 3613 983e

layer1.0.bn1.weight f4 [16]
0.90414804 1.3189551 1.2218468 0.96909857 0.8731251 1.067832 0.95948714 1.1417577
1.0403326 0.89424443 0.9768942 0.9754277 0.9092542 1.0234101 0.9715648 0.9877225
00000000: 3f76 673f 85d3 a83f 7a65 9c3f d816 783f
00000010: 2085 5f3f b8ae 883f f3a0 753f 1e25 923f
00000020: 9e29 853f 34ed 643f bd15 7a3f a1b5 793f
00000030: e2c4 683f 1aff 823f 79b8 783f 62db 7c3f

layer1.0.bn1.bias f4 [16]
-0.03586293 0.00527133 0.0015261562 0.1436365 -0.09865046 -0.018622486 -0.12699264 0.11221219
-0.21951264 0.04116729 -0.0050074956 0.29203224 -0.20213039 0.0038280413 0.2740991 -0.027900659
00000000: 02e5 12bd 1fbb ac3b 4e09 c83a 7215 133e
00000010: 4109 cabd 2f8e 98bc 5c0a 02be 81cf e53d
00000020: ecc7 60be 089f 283d eb15 a4bb 4085 953e
00000030: 45fb 4ebe e0df 7a3b b856 8c3e ec8f e4bc

layer1.0.bn1.running_mean f4 [16]
0.15172789 -0.20590454 0.044179212 -0.5182699 0.09303379 -0.39115041 -0.3281743 0.08043674
0.04890725 0.42084214 -0.08108038 0.008560697 -0.4140541 -0.42098987 -0.13648501 -0.14845939
00000000: 8e5e 1b3e a4d8 52be 43f5 343d 56ad 04bf
00000010: 8088 be3d de44 c8be 7606 a8be 04bc a43d
00000020: f852 483d 9f78 d73e 780d a6bd 2a42 0c3c
00000030: e6fe d3be fc8b d7be bac2 0bbe bd05 18be

layer1.0.bn1.running_var f4 [16]
0.59727544 0.14848852 0.44208902 0.7052014 0.17562577 0.40350825 0.44861352 0.19758202
0.6838584 0.30648172 0.57389086 0.3100142 0.598179 0.29963604 0.23051901 0.29005483
00000000: 0be7 183f 600d 183e 7e59 e23e 1488 343f
00000010: 3ed7 333e a298 ce3e acb0 e53e f152 4a3e
00000020: 5811 2f3f 2ceb 9c3e 83ea 123f 2eba 9e3e
00000030: 4222 193f e569 993e 2d0d 6c3e 1182 943e

layer1.0.fc2.weight f4 [16, 16]
0.21258207 0.16969652 0.002469894 -0.084974185 0.27061316 -0.057852853 0.36382547 0.16700341
0.3345441 0.05970319 0.1016297 0.029396512 0.19881469 0.3146738 0.26536623 0.12571949
0.04179528 -0.308364 -0.40819868 0.26004902 0.03007803 -0.008971026 -0.25615597 0.5120536
0.039366577 -0.17247754 0.13320991 0.124489404 -0.11055927 0.38667136 0.14815752 0.08589077
0.0052905427 0.4460031 0.19617787 0.30403847 0.28115112 0.13622446 -0.20517051 -0.07937226
0.12536965 0.24912739 -0.14227474 0.17495239 -0.12370569 0.22418359 0.09229375 -0.1762559
0.022153122 0.27275917 0.33088082 0.11958748 0.15542041 0.074317485 0.016975656 -0.20019352
-0.06333011 0.24266498 -0.19846354 0.18952326 0.13061255 0.1686345 0.21403791 -0.28131965
-0.03167337 -0.22727004 0.41808817 0.075690925 -0.06325913 0.4191204 -0.082774505 -0.010922243
0.4400872 0.11423565 -0.0671925 0.012640977 -0.11375899 0.19730859 0.01415197 -0.05158054
-0.008139111 0.5428452 -0.2973209 -0.14429483 0.18041714 -0.23852293 0.14710957 0.12728229
0.09774998 -0.049430896 -0.14958288 0.42001715 -0.24621442 0.02633073 0.3365424 0.09545994
-0.1970145 -0.30058953 0.20226666 0.2738461 -0.3159809 0.0705758 0.21038699 0.026478333
0.05185438 -0.33757582 -0.043759942 -0.24055856 -0.2150761 -0.41081113 0.18021272 0.054126915
-0.21367183 0.16083977 0.06350574 -0.26195565 -0.27064964 -0.0572606 -0.26375642 -0.36530918
-0.14877723 -0.16168204 -0.22162071 0.25957945 -0.1555825 0.12796424 -0.20721823 -0.03563485
0.19165996 0.029563976 0.17088555 0.22854018 0.14203082 0.041351616 -0.058078445 0.32188445
0.1406319 -0.08508692 0.030047487 0.37405208 0.01831846 0.31671426 0.086103864 0.17089365
0.019985301 -0.068361536 -0.14349478 -0.07222841 -0.3879296 -0.21141894 -0.3198821 -0.008835064
-0.26378366 -0.25913438 -0.116338104 0.15975624 -0.46395746 0.33471313 0.15823235 -0.06239804
-0.01710551 0.0010641217 0.15867355 0.33036 -0.071320064 0.113131784 0.18772873 -0.19739103
0.45798877 0.2841819 -0.18292898 -0.09534778 0.23489855 0.097782716 -0.16915396 -0.21394387
-0.34419468 -0.065851696 -0.206392 -0.12843312 0.21034656 -0.09509331 -0.027589452 -0.24963848
-0.45972028 0.11260162 0.0602018 0.09864109 -0.05140226 -0.08507746 0.19396041 -0.2836561
-0.18780765 -0.034172397 0.23012477 -0.010805631 0.20256253 0.1711855 0.092943296 -0.18953967
0.259648 -0.008865574 0.48427564 0.0007757839 -0.25272366 0.100195594 0.061332885 -0.0658757
0.03684732 -0.17025064 0.6219524 -0.16517726 -0.22570403 0.53741777 0.14393206 0.058371864
0.3190141 0.015997859 0.06959695 -0.023417424 -0.07942667 0.15090545 -0.25359294 -0.11060867
0.060468823 0.579291 -0.08131749 -0.36709204 0.10653271 -0.2101912 0.07414014 0.051500022
-0.078642726 0.10711586 -0.20839408 0.18224211 -0.119667985 0.0002968709 0.15501569 -0.14205377
-0.1356952 0.0705694 -0.336314 -0.30199796 -0.05761072 -0.21920565 -0.21492957 -0.17457029
-0.35071915 0.04862225 -0.21769777 0.09166172 -0.17507331 -0.10956386 -0.11238352 -0.41473725
00000000: 1daf 593e edc4 2d3e f2dd 213b f206 aebd
00000010: cf8d 8a3e 1df7 6cbd 5547 ba3e f102 2b3e
00000020: 5d49 ab3e 558b 743d 3b23 d03d f4d0 f03c
00000030: 1496 4b3e ed1c a13e 15de 873e 9cbc 003e
00000040: 8731 2b3d e3e1 9dbe 6bff d0be 2525 853e
00000050: 3366 f63c 36fb 12bc e026 83be f215 033f
00000060: d93e 213d f49d 30be 2e68 083e 4df4 fe3d
00000070: e66c e2bd caf9 c53e 9bb6 173e 80e7 af3d
00000080: 4a5c ad3b 855a e43e dae2 483e eeaa 9b3e
00000090: 0af3 8f3e 6d7e 0b3e 3818 52be ec8d a2bd
000000a0: e760 003e 401b 7f3e 78b0 11be b826 333e
000000b0: 6959 fdbd 6290 653e 8104 bd3d 6d7c 34be
000000c0: 777a b53c 17a7 8b3e 3669 a93e 48ea f43d
000000d0: 8726 1f3e c433 983d 8810 8b3c 88ff 4cbe
000000e0: 37b3 81bd 2b7d 783e 073a 4bbe 6312 423e
000000f0: 4cbf 053e 86ae 2c3e c12c 5b3e 2109 90be
00000100: f0bb 01bd 7ab9 68be a70f d63e d803 9b3d
00000110: 018e 81bd f396 d63e ae85 a9bd 35f3 32bc
00000120: 1c53 e13e 61f4 e93d 399c 89bd 1a1c 4f3c
00000130: 79fa e8bd 430b 4a3e aadd 673c 1e46 53bd
00000140: e859 05bc e7f7 0a3f 723a 98be 06c2 13be
00000150: 45bf 383e 5b3f 74be e4a3 163e 4a56 023e
00000160: 2431 c83d 0d78 4abd 412c 19be 7d0c d73e
00000170: a21f 7cbe 8bb3 d73c 494f ac3e 8080 c33d
00000180: 2bbe 49be dfe6 99be fe1e 4f3e 8e35 8c3e
00000190: 40c8 a1be 0c8a 903d b06f 573e 17e9 d83c
000001a0: 4265 543d bdd6 acbe a03d 33bd fc54 76be
000001b0: e93c 5cbe d655 d2be af89 383e 2fb4 5d3d
000001c0: cacc 5abe 2eb3 243e 4c0f 823d 0d1f 86be
000001d0: 9792 8abe 178a 6abd 150b 87be ce09 bbbe
000001e0: 0f59 18be fa8f 25be 8af0 62be 99e7 843e
000001f0: 0551 1fbe 0f09 033e 0431 54be d9f5 11bd
00000200: 8242 443e 2730 f23c 9ffc 2e3e 7006 6a3e
00000210: 8770 113e 5060 293d aae3 6dbd 0ace a43e
00000220: cf01 103e 0d42 aebd 2626 f63c c183 bf3e
00000230: 9810 963c 5f28 a23e 3957 b03d bffe 2e3e
00000240: 37b8 a33c 2201 8cbd 4cf0 12be 7dec 93bd
00000250: b59e c6be 357e 58be 96c7 a3be f2c0 10bc
00000260: a70e 87be 43ad 84be ac42 eebd 2497 233e
00000270: d58b edbe 855f ab3e a907 223e 1695 7fbd
00000280: db20 8cbc 007a 8b3a 527b 223e f224 a93e
00000290: 4110 92bd a3b1 e73d f63b 403e e020 4abe
000002a0: 817d ea3e 4a80 913e bc51 3bbe b245 c3bd
000002b0: 3f89 703e 4e42 c83d b236 2dbe 1a14 5bbe
000002c0: 493a b0be 41dd 86bd 6d58 53be f983 03be
000002d0: 1765 573e 48c0 c2bd 4603 e2bc 3ba1 7fbe
000002e0: 7560 ebbe ae9b e63d 2a96 763d 5704 ca3d
000002f0: 2d8b 52bd 173d aebd 8f9d 463e 5f3b 91be
00000300: a650 40be 5bf8 0bbd d4a5 6b3e 1a0a 31bc
00000310: 8d6c 4f3e 404b 2f3e 0e59 be3d b016 42be
00000320: 95f0 843e ea40 11bc faf2 f73e fa5d 4b3a
00000330: ff64 81be 5933 cd3d 3138 7b3d d7e9 86bd
00000340: 37ed 163d 2f56 2ebe 4638 1f3f 3a24 29be
00000350: f51e 67be 3694 093f ed62 133e 5617 6f3d
00000360: d155 a33e f10d 833c d988 8e3d e6d5 bfbc
00000370: 73aa a2bd f586 1a3e efd6 81be cc86 e2bd
00000380: 28ae 773d 6a4c 143f c989 a6bd 7df3 bbbe
00000390: d22d da3d 5d3c 57be c9d6 973d b0f1 523d
000003a0: 700f a1bd 8f5f db3d 4265 55be ad9d 3a3e
000003b0: 7d14 f5bd 56a5 9b39 6fbc 1e3e 8b76 11be
000003c0: aff3 0abe b186 903d 5931 acbe 7a9f 9abe
000003d0: 38f9 6bbd 7277 60be 7f16 5cbe 8ec2 32be
000003e0: 7691 b3be 2028 473d 2aec 5ebe 24b9 bb3d
000003f0: 6b46 33be 0463 e0bd 5529 e6bd 7158 d4be

layer1.0.fc2.bias f4 [16]
0.26601544 0.09845562 0.06315553 0.17857406 0.13451725 -0.20563136 0.23287228 -0.26067296
0.086529896 -0.13827176 0.037059173 0.16290425 -0.31006834 -0.06451729 0.014689906 0.13082913
00000000: 2d33 883e 1aa3 c93d b057 813d 1edc 363e
00000010: e4be 093e 0791 52be 1276 6e3e ed76 85be
00000020: 9636 b13d 1d97 0dbe 5ccb 173d 5fd0 263e
00000030: 47c1 9ebe a421 84bd eead 703c 12f8 053e

layer1.0.bn2.weight f4 [16]
1.035733 0.8635061 1.0663301 0.90411973 1.4130058 1.0280265 0.76432776 0.7125642
1.0572233 1.0883423 0.940647 1.0400491 1.0962514 1.2511829 0.80466413 1.1477596
00000000: e692 843f bc0e 5d3f 817d 883f 6474 673f
00000010: 60dd b43f 5f96 833f fcaa 433f 9b6a 363f
00000020: 1853 873f cd4e 8b3f 3ece 703f 5420 853f
00000030: f751 8c3f c326 a03f 78fe 4d3f c9e9 923f

layer1.0.bn2.bias f4 [16]
0.16522214 0.20658183 -0.0563524 -0.043298684 0.01963529 -0.08435111 -0.033985626 0.07856175
0.19541505 0.04635681 0.03590016 -0.13156365 0.009401298 -0.19966152 -0.13798548 0.22234675
00000000: fe2f 293e 308a 533e c6d1 66bd f659 31bd
00000010: 30da a03c 46c0 acbd 8334 0bbd fce4 a03d
00000020: e21a 483e a3e0 3d3d 0c0c 133d 9fb8 06be
00000030: e707 1a3c 1274 4cbe 114c 0dbe deae 633e

layer1.0.bn2.running_mean f4 [16]
1.2093695 0.36450425 0.7866151 0.73779833 0.56593186 0.2831388 -0.1230069 -0.88287175
1.0400273 -0.649152 0.30562314 -0.3419878 0.028072555 0.29973146 0.16014518 -0.8873569
00000000: 9fcc 9a3f 4da0 ba3e 9b5f 493f 5ae0 3c3f
00000010: e9e0 103f 92f7 903e 0beb fbbd e203 62bf
00000020: 9d1f 853f d32e 26bf a37a 9c3e 0619 afbe
00000030: 6af8 e53c 6776 993e 19fd 233e d229 63bf

layer1.0.bn2.running_var f4 [16]
0.4487117 0.70167345 0.61797285 0.3590383 0.5108025 1.2615304 0.816621 0.1672553
0.46307 0.35070008 0.48752528 0.3180039 0.3736007 1.0410829 0.6978147 0.42303163
00000000: 8abd e53e dfa0 333f 7833 1e3f ded3 b73e
00000010: f4c3 023f d479 a13f 130e 513f f944 2b3e
00000020: 8317 ed3e f68e b33e ea9c f93e 68d1 a23e
00000030: 9748 bf3e 3442 853f fca3 323f 9a97 d83e

layer1.0.shortcut.0.weight f4 [16, 5]
0.179853 -0.39620763 -0.3751636 0.37742606 -0.40303567 -0.18866964 -0.2231011 -0.2982397
-0.26934302 0.1475657 0.29997227 0.18500695 0.36714652 0.45067292 -0.05516811 -0.46077126
-0.33192158 -0.1622604 0.1989625 0.6015963 0.20851403 -0.31071374 -0.104271516 -0.07882383
-0.31491625 -0.085103504 0.08971414 -0.4339132 0.19841535 0.18795909 0.301403 0.3413173
0.052305814 0.021547444 0.3128055 0.31629103 -0.030030135 -0.67926925 -0.0845721 0.08329612
-0.5936466 -0.1992208 -0.194324 -0.40047875 -0.54137456 0.10455012 0.07323002 -0.6537937
-0.20458356 -0.2592707 -0.10308014 -0.59288 -0.14172484 0.2325894 0.46411517 -0.10105597
0.18851621 -0.33364728 -0.03832425 0.24855827 0.33443385 0.40973926 0.1267445 0.39223522
0.23583332 0.09102194 -0.6077329 0.13014236 -0.28715345 0.16639549 0.11105174 0.24220708
-0.41373408 -0.008886415 0.18620132 0.2960085 0.4143264 -0.029724143 -0.5286209 -0.19910607
00000000: 632b 383e badb cabe 7215 c0be fd3d c13e
00000010: b15a cebe 9d32 41be 9d74 64be e0b2 98be
00000020: 54e7 89be 761b 173e f795 993e 7672 3d3e
00000030: a1fa bb3e 9abe e63e f5f7 61bd 36ea ebbe
00000040: a0f1 a9be 9727 26be d3bc 4b3e 3702 1a3f
00000050: b484 553e df15 9fbe 4e8c d5bd 636e a1bd
00000060: b43c a1be bf4a aebd 0cbc b73d df29 debe
00000070: 652d 4b3e 5978 403e 7e51 9a3e 24c1 ae3e
00000080: 9f3e 563d 4484 b03c 0b28 a03e e6f0 a13e
00000090: c201 f6bc 97e4 2dbf 2334 adbd 2897 aa3d
000000a0: 39f9 17bf 8a00 4cbe dffc 46be 8d0b cdbe
000000b0: 8697 0abf 601e d63d 9ff9 953d 065f 27bf
000000c0: 5a7e 51be 21bf 84be ae1b d3bd fcc6 17bf
000000d0: 5120 11be ea2b 6e3e 81a0 ed3e 6ff6 cebd
000000e0: 650a 413e d1d3 aabe e4f9 1cbd 0f86 7e3e
000000f0: ea3a ab3e 58c9 d13e 4fc9 013e 0ed3 c83e
00000100: 4a7e 713e b669 ba3d 6294 1bbf 0a44 053e
00000110: c705 93be 9463 2a3e 186f e33d 2205 783e
00000120: f4d4 d3be 5398 11bc 8fab 3e3e 6d8e 973e
00000130: 9722 d43e 0c80 f3bc b353 07bf 76e2 4bbe

layer1.0.shortcut.0.bias f4 [16]
0.113772385 -0.2848451 -0.063170455 -0.3374326 -0.014651669 -0.28337464 -0.15167534 -0.36488312
0.27346602 -0.41017026 -0.33937344 0.43977502 -0.15984175 -0.18568884 0.3906874 -0.4422383
00000000: 7f01 e93d 38d7 91be 835f 81bd f7c3 acbe
00000010: 8e0d 70bc 7b16 91be c850 1bbe f6d1 babe
00000020: bd03 8c3e d601 d2be 5bc2 adbe 312a e13e
00000030: 8ead 23be 3725 3ebe 2e08 c83e 0f6d e2be

layer1.0.shortcut.1.weight f4 [16]
0.9616398 1.1494708 0.6973272 1.2280067 0.6730031 1.0873365 0.95711714 0.65750086
1.2181566 1.0454942 1.1731237 0.84164 1.140899 0.7173688 1.024132 0.8726465
00000000: 072e 763f dc21 933f 0984 323f 532f 9d3f
00000010: ee49 2c3f d82d 8b3f a105 753f fa51 283f
00000020: 8eec 9b3f c1d2 853f eb28 963f b875 573f
00000030: fa08 923f 7ba5 373f c216 833f c365 5f3f

layer1.0.shortcut.1.bias f4 [16]
0.16522214 0.20658183 -0.0563524 -0.043298684 0.01963529 -0.08435111 -0.033985626 0.07856175
0.19541505 0.04635681 0.03590016 -0.13156365 0.009401298 -0.19966152 -0.13798548 0.22234675
00000000: fe2f 293e 308a 533e c6d1 66bd f659 31bd
00000010: 30da a03c 46c0 acbd 8334 0bbd fce4 a03d
00000020: e21a 483e a3e0 3d3d 0c0c 133d 9fb8 06be
00000030: e707 1a3c 1274 4cbe 114c 0dbe deae 633e

layer1.0.shortcut.1.running_mean f4 [16]
0.3126722 -0.46698236 0.22735581 -0.80198044 0.20509149 -0.36359933 0.1393952 -0.034965195
-0.30384544 -0.28747016 -0.4414919 0.3395678 0.16286613 -0.09358934 0.5048097 -0.14592251
00000000: 9216 a03e 5018 efbe f6cf 683e 974e 4dbf
00000010: 8103 523e b129 babe 9ebd 0e3e aa37 0fbd
00000020: a191 9bbe 4a2f 93be 3a0b e2be d5db ad3e
00000030: 61c6 263e c5ab bfbd 353b 013f b66c 15be

layer1.0.shortcut.1.running_var f4 [16]
0.6010679 0.22831398 0.37246045 0.53903 0.21958241 0.26353148 0.22496481 0.4604166
0.54483443 0.54205394 0.65958303 0.20748009 0.40726322 0.5150014 0.26337016 0.51303047
00000000: 96df 193f 24cb 693e 23b3 be3e dffd 093f
00000010: 36da 603e 99ed 863e 2d5d 663e b9bb eb3e
00000020: 457a 0b3f 0cc4 0a3f 6fda 283f a975 543e
00000030: ce84 d03e 22d7 033f 74d8 863e f755 033f

layer1.1.fc1.weight f4 [16, 16]
0.11393136 0.35825986 0.08390158 -0.1923494 0.13846222 -0.013926136 -0.11995489 -0.07122366
0.03578973 0.567403 -0.026660752 0.053296905 0.38954276 0.09142778 -0.08845567 -0.08924568
0.22240236 0.22225022 -0.20459802 -0.07607827 -0.35038158 -0.18634668 -0.16755891 -0.0062778834
0.047321647 0.043766897 -0.04185194 -0.6711049 -0.47711852 0.18622386 -0.20557438 0.054503165
-0.22889788 -0.101252824 -0.032590628 -0.13071534 -0.42517543 0.12796147 -0.035881266 0.06270172
-0.040014606 -0.4067878 -0.2330624 0.38373572 -0.072241716 -0.2612762 0.15414818 0.16297232
-0.22495271 0.07876848 -0.06615097 0.2528166 0.20276946 -0.2254595 -0.043035887 -0.1433927
-0.08685405 -0.21721986 0.14504488 -0.15173094 0.38217196 -0.044171248 -0.21166974 -0.14834559
0.24170129 -0.15341637 0.46326572 0.031228816 0.09320808 0.107082196 0.16729787 0.14553292
-0.03397857 0.0043649515 0.13181646 0.22632825 0.2830388 -0.04124506 0.34317538 0.084113315
0.13373414 -0.039392993 0.0031037526 0.10632052 -0.028640978 0.3431791 -0.12211584 0.09824045
0.18309475 0.1422381 0.26662552 0.3116293 -0.1974782 0.23776032 0.3728731 0.15644173
-0.2565863 0.13363397 -0.28297007 -0.16623513 -0.46071336 0.22051202 -0.15687717 0.054722294
0.008275245 0.12461404 -0.21114615 0.05478626 -0.29078314 -0.0020717068 0.12482695 0.29477453
0.20335983 0.16331041 0.18947205 0.15361631 -0.18451543 -0.021623837 0.25386512 -0.15654777
0.16654421 0.4676661 0.19536544 -0.11905359 -0.3080791 0.047546156 0.24026208 0.2649676
-0.037907634 -0.12678634 0.49454814 0.23250705 -0.033152428 0.36126724 0.083418116 -0.06448
-0.046410486 -0.15402128 -0.032411717 0.40325737 0.4433929 0.13658674 0.15822156 -0.01890834
-0.0586036 -0.13381296 0.07562838 0.31368065 0.23948509 -0.2921235 -0.27909112 -0.29641733
-0.15005523 0.17209432 0.30767852 0.06216529 0.15310897 0.27521157 -0.046466526 -0.051400743
-0.20999539 -0.34960675 0.28767094 -0.025828475 0.06922691 -0.022472553 0.3243315 -0.022445181
-0.19723749 -0.29435468 0.16730587 -0.19713958 0.54971284 -0.031212064 0.13980846 0.1338509
0.1880767 0.20617649 0.48275337 0.5133457 0.00991706 -0.029121889 -0.082808636 0.48620486
0.32237205 0.12657379 -0.07391184 0.15081051 0.050434258 0.061796743 0.15390545 0.013903326
-0.10935937 0.09928896 0.27407032 0.031206515 0.25620857 -0.064003035 0.20716496 0.22391841
0.6121532 0.2999218 0.07834153 -0.058469124 -0.13141885 0.30363226 -0.08702725 0.36666608
0.14949273 0.022290673 0.18261506 0.027634732 0.323386 0.06508591 -0.10529433 0.059067395
-0.3106697 0.05300011 0.08415116 0.017233733 0.3318962 0.1937797 -0.31520966 0.06715337
-0.08189455 -0.27585343 0.19397987 0.15986718 -0.18383066 0.40006384 0.11827289 -0.009537326
-0.07336949 0.13752936 -0.25607005 0.1187716 -0.089348346 0.10619781 0.62541634 0.22009705
0.2149372 0.1211006 0.29512852 0.34757903 -0.26007268 -0.038001988 0.035241574 0.21039072
-0.04717026 -0.3410417 0.45462424 0.21889964 0.1662786 -0.056138273 0.26797032 0.14152828
00000000: d854 e93d d66d b73e 97d4 ab3d 3ef7 44be
00000010: 0ac9 0d3e 732a 64bc e9aa f5bd b6dd 91bd
00000020: 4098 123d 5341 113f a667 dabc db4d 5a3d
00000030: 2672 c73e 7d3e bb3d 3f28 b5bd 70c6 b6bd
00000040: 72bd 633e 9095 633e 2582 51be edce 9bbd
00000050: 3765 b3be aad1 3ebe 9094 2bbe b4b6 cdbb
00000060: 58d4 413d eb44 333d f16c 2bbd 88cd 2bbf
00000070: e148 f4be 78b1 3e3e 1782 52be b63e 5f3d
00000080: 3564 6abe a45d cfbd c07d 05bd 3eda 05be
00000090: 98b0 d9be 5508 033e 3cf8 12bd c269 803d
000000a0: 5be6 23bd 7e46 d0be e9a7 6ebe 0279 c43e
000000b0: 77f3 93bd fec5 85be 05d9 1d3e 37e2 263e
000000c0: 015a 66be 5e51 a13d 297a 87bd 2d71 813e
000000d0: cca2 4f3e dbde 66be 6646 30bd 89d5 12be
000000e0: 89e0 b1bd e26e 5ebe a586 143e 5b5f 1bbe
000000f0: 0bac c33e e9ec 34bd f4bf 58be e8e7 17be
00000100: 8b80 773e 2e19 1dbe 2a31 ed3e 93d3 ff3c
00000110: e1e3 be3d e94d db3d 2250 2b3e 9506 153e
00000120: 1d2d 0bbd de07 8f3b e5fa 063e 98c2 673e
00000130: 76ea 903e 94f0 28bd afb4 af3e 9a43 ac3d
00000140: 9af1 083e 8c5a 21bd 5468 4b3b 93be d93d
00000150: 7ca0 eabc 2cb5 af3e df17 fabd 4a32 c93d
00000160: 317d 3b3e dda6 113e 2483 883e e08d 9f3e
00000170: ba37 4abe 7177 733e 39e9 be3e 4332 203e
00000180: 485f 83be 58d7 083e 74e1 90be 8b39 2abe
00000190: 9fe2 ebbe e7cd 613e 69a4 20be 7c24 603d
000001a0: e594 073c a535 ff3d b236 58be 8f67 603d
000001b0: 87e1 94be 79c5 07bb 46a5 ff3d b0ec 963e
000001c0: 8f3d 503e d83a 273e f604 423e 984d 1d3e
000001d0: 9df1 3cbe 7924 b1bc 9cfa 813e 0f4e 20be
000001e0: 918a 2a3e ee71 ef3e e10d 483e 5ed2 f3bd
000001f0: 8bbc 9dbe c2bf 423d 4307 763e d5a9 873e
00000200: 0945 1bbd 47d4 01be 6a35 fd3e 5416 6e3e
00000210: d7ca 07bd 05f8 b83e 1ed7 aa3d 170e 84bd
00000220: ec18 3ebd c1b7 1dbe 26c2 04bd c077 ce3e
00000230: 6504 e33e 65dd 0b3e d504 223e aae5 9abc
00000240: 540a 70bd 4406 09be 0de3 9a3d c09a a03e
00000250: 943b 753e 3691 95be 08e5 8ebe 03c4 97be
00000260: 14a8 19be 7e39 303e 0a88 9d3e 08a1 7e3d
00000270: 99c8 1c3e 88e8 8c3e af53 3ebd 9689 52bd
00000280: 0809 57be a8ff b2be 9b49 933e 3d96 d3bc
00000290: d7c6 8d3d 5c18 b8bc c70e a63e f5de b7bc
000002a0: a0f8 49be a8b5 96be 3b52 2b3e f5de 49be
000002b0: fbb9 0c3f 71b0 ffbc f329 0f3e 3610 093e
000002c0: 2e97 403e ee1f 533e 732b f73e a06a 033f
000002d0: 2a7b 223c 0791 eebc 9397 a9bd d8ef f83e
000002e0: f30d a53e 8f9c 013e 175f 97bd 126e 1a3e
000002f0: 2794 4e3d 951e 7d3d 6499 1d3e c7ca 633c
00000300: cef7 dfbd 0358 cb3d f252 8c3e cea4 ff3c
00000310: c52d 833e 0614 83bd 0d23 543e de4a 653e
00000320: 12b6 1c3f 5a8f 993e 8671 a03d 527d 6fbd
00000330: aa92 06be b075 9b3e 583b b2bd a8bb bb3e
00000340: 9f14 193e ee9a b63c 71ff 3a3e 3c62 e23c
00000350: da92 a53e c34b 853d 8ea4 d7bd a7f0 713d
00000360: 1910 9fbe a516 593d 7257 ac3d c22d 8d3c
00000370: 4cee a93e 306e 463e 2963 a1be b587 893d
00000380: 54b8 a7bd a93c 8dbe a9a2 463e 39b4 233e
00000390: 1b3e 3cbe 2bd5 cc3e 0f39 f23d 7242 1cbc
000003a0: be42 96bd 7fd4 0c3e 9d1b 83be 863e f33d
000003b0: 44fc b6bd 3d7e d93d 491b 203f 1f61 613e
000003c0: 7f18 5c3e 9703 f83d 161b 973e e1f5 b13e
000003d0: 3f28 85be f9a7 1bbd 7859 103d aa70 573e
000003e0: 9a35 41bd 059d aebe 82c4 e83e 3a27 603e
000003f0: f044 2a3e 3ff1 65bd 6833 893e caec 103e

layer1.1.fc1.bias f4 [16]
-0.36053088 0.25069857 0.03970051 0.1905994 0.13990001 0.47695744 0.026068157 -0.27909794
0.3298711 -0.092205614 0.37555283 0.08028457 -0.03654809 0.3194654 -0.21328942 0.00643925
00000000: 8197 b8be 905b 803e 019d 223d 7d2c 433e
00000010: f341 0f3e c433 f43e e38c d53c ede5 8ebe
00000020: dde4 a83e 4cd6 bcbd 7648 c03e 3d6c a43d
00000030: 73b3 15bd f890 a33e 8b68 5abe 5800 d33b

layer1.1.bn1.weight f4 [16]
1.0341433 0.8738882 1.0075898 0.86520815 1.3253005 0.93275255 1.117378 1.0275934
1.2851502 1.0338497 0.95968133 1.0816934 1.0898948 0.93299913 0.99330115 1.3743601
00000000: cf5e 843f 23b7 5f3f b4f8 803f 487e 5d3f
00000010: 72a3 a93f dfc8 6e3f 3e06 8f3f 2e88 833f
00000020: cd7f a43f 3055 843f adad 753f ee74 8a3f
00000030: ac81 8b3f 08d9 6e3f fc48 7e3f 08eb af3f

layer1.1.bn1.bias f4 [16]
0.29653165 -0.039246358 -0.04067965 -0.06505887 -0.06364854 -0.13797532 -0.012017635 -0.0027692267
0.05929884 -0.047172133 -0.13817409 0.20159516 -0.010260799 -0.20783155 0.05886447 0.20212024
00000000: ffd2 973e cac0 20bd b49f 26bd 963d 85bd
00000010: 2a5a 82bd 6749 0dbe 9de5 44bc ea7b 35bb
00000020: 57e3 723d 9137 41bd 827d 0dbe f66e 4e3e
00000030: e91c 28bc cbd1 54be df1b 713d 9cf8 4e3e

layer1.1.bn1.running_mean f4 [16]
0.6815591 -0.6541296 -0.72927535 -0.024609793 1.317112 1.7781438 -0.3532575 0.83395207
1.2955973 0.13318522 0.39414948 1.7227691 1.4974097 0.77893716 0.27732208 1.1316051
00000000: a87a 2e3f 0a75 27bf cab1 3abf 7a9a c9bc
00000010: 2097 a83f 379a e33f 2bde b4be e27d 553f
00000020: 22d6 a53f b561 083e f6cd c93e b383 dc3f
00000030: 1fab bf3f 6d68 473f 29fd 8d3e 70d8 903f

layer1.1.bn1.running_var f4 [16]
0.9718072 2.504919 1.4080938 1.7268345 1.6399046 1.9755683 1.9220277 1.5604417
2.7612069 1.3240513 2.951272 2.246103 1.3644587 1.0056754 2.383226 1.8069717
00000000: 5bc8 783f 9850 2040 6b3c b43f ea08 dd3f
00000010: 65e8 d13f 6cdf fc3f 0105 f63f 8ebc c73f
00000020: 9db7 3040 837a a93f a4e1 3c40 27c0 0f40
00000030: 95a6 ae3f f9b9 803f c686 1840 d94a e73f

layer1.1.fc2.weight f4 [16, 16]
0.38425374 0.16673821 0.013167874 -0.04476987 0.11462955 0.21509795 0.3568516 0.27343976
0.025812097 -0.16039042 0.01868607 0.13990374 0.23975083 -0.28527135 0.115202494 0.0077622426
-0.18284278 0.090696335 0.16923842 -0.11037099 0.2555711 0.5276172 0.22839883 0.17417386
0.116223484 -0.105331056 0.014373912 0.30906922 -0.14954735 -0.1339024 0.060042325 0.24348964
-0.08520883 -0.059634693 0.20426914 0.082033865 -0.23383994 -0.23511578 0.1069866 -0.23139118
-0.22486386 -0.021871822 0.043937866 -0.17152812 -0.43198502 0.09507066 0.22688974 -0.2567764
-0.44850045 -0.24262492 0.038501486 -0.19024599 0.14789975 0.19219178 -0.023388257 0.03388793
-0.11504673 -0.7043382 0.07184635 0.30436608 0.0927977 -0.19535154 0.06427174 0.20618111
-0.27164665 -0.21880242 0.19308311 0.32632932 -0.19459577 0.23212616 0.15523419 -0.0929862
0.27288494 0.10766959 0.17947367 0.099477544 -0.2531661 0.25952438 0.17265125 0.39715835
-0.012189077 -0.41607702 -0.08412769 0.24436557 -0.3568102 -0.080125935 0.23959602 -0.10427273
-0.208121 0.2917518 0.012022447 -0.2289891 -0.13003816 0.00022288586 0.08805559 -0.38606766
0.14714731 -0.058663636 -0.6430499 0.32778054 -0.26642162 -0.26221988 -0.115018845 0.032502495
0.18237925 -0.03847169 0.1346017 -0.2050357 -0.08905668 -0.066863365 -0.14558668 -0.24162968
-0.12233908 -0.09708886 0.23287858 -0.10001627 -0.3298392 -0.29892957 0.29208314 -0.074168034
-0.17537485 0.31151724 0.021632077 -0.15350215 -0.071056016 0.14837644 0.16798018 -0.21920241
0.116398335 0.21926343 -0.07076381 0.23511636 -0.23848277 0.084576756 0.11586354 0.58956957
-0.07885281 0.086739205 -0.34396234 -0.24809507 0.060370047 -0.14892438 0.046870086 0.17539212
-0.08366833 -0.1327775 0.20676568 0.05635002 0.00580414 0.01850739 0.22067055 -0.23379247
-0.14529505 0.21699388 -0.0087626325 -0.36167598 -0.47354522 0.029581644 0.06900408 -0.14661106
0.4112408 -0.11235687 0.09319038 0.08604292 0.20757782 -0.21542196 0.28753135 -0.2901065
-0.2507481 0.08043242 0.4417441 -0.13600469 0.10136751 0.2879024 0.016605582 0.11485258
0.19881372 0.11341159 0.14203246 -0.3245593 -0.20734629 -0.13911362 0.048749637 -0.10024305
-0.35473508 -0.2678019 -0.32382244 -0.25190592 0.18262562 0.36506638 -0.21843739 -0.23445135
-0.06924622 -0.009443956 0.35288042 -0.13884942 0.3102397 0.1698673 0.13652742 -0.188239
0.32296962 -0.023053883 0.20004483 0.0026016247 0.043994106 -0.11793579 0.37387413 0.40065852
0.23472711 -0.023167893 -0.21909866 0.05491634 0.25305742 0.062175818 0.39502975 0.2506425
0.3833953 0.34577373 -0.01201183 0.14084627 0.028212352 0.18737927 0.30322137 -0.013646789
-0.032685746 -0.16798571 -0.07107197 0.18186307 -0.4080758 0.09966094 -0.051993873 0.07087869
-0.6208933 0.22478904 -0.055293538 -0.044507116 0.03686111 0.18087693 -0.059322387 -0.45260814
-0.111772716 0.1724139 0.14097087 0.047485765 -0.41127267 -0.12011546 -0.16138005 0.1440972
-0.56672996 0.21620098 -0.29909018 -0.08144136 0.30239624 -0.17866763 -0.2848167 -0.123753004
00000000: e8bc c43e 6cbd 2a3e 11be 573c 9c60 37bd
00000010: e6c2 ea3d a342 5c3e 41b5 b63e 4c00 8c3e
00000020: e473 d33c 633d 24be 8713 993c ed42 0f3e
00000030: 3e81 753e 160f 92be 49ef eb3d 695a fe3b
00000040: 233b 3bbe 00bf b93d d64c 2d3e 300a e2bd
00000050: 37da 823e ec11 073f 62e1 693e a25a 323e
00000060: 9406 ee3d cfb7 d7bd 8e80 6b3c 523e 9e3e
00000070: f122 19be b61d 09be f1ee 753d 5955 793e
00000080: f881 aebd 8243 74bd ee2b 513e 5f01 a83d
00000090: bd73 6fbe 31c2 70be ca1b db3d cff1 6cbe
000000a0: b642 66be 892c b3bc 31f8 333d 11a5 2fbe
000000b0: 242d ddbe 68b4 c23d c955 683e 3278 83be
000000c0: daa1 e5be ab72 78be bcb3 1d3d d8cf 42be
000000d0: 0873 173e eccd 443e bb98 bfbc 12ce 0a3d
000000e0: 9f9d ebbd 824f 34bf 2e24 933d dfd5 9b3e
000000f0: b80c be3d 3c0a 48be e7a0 833d 2421 533e
00000100: 4515 8bbe be0d 60be 94b7 453e a314 a73e
00000110: 1d44 47be 7bb2 6d3e b6f5 1e3e 8c6f bebd
00000120: 93b7 8b3e e081 dc3d f2c7 373e e2ba cb3d
00000130: fd9e 81be 61e0 843e 7dcb 303e 5758 cb3e
00000140: b2b4 47bc 0c08 d5be 234b acbd f83a 7a3e
00000150: d4af b6be 1119 a4bd a958 753e f18c d5bd
00000160: ac1d 55be 7e60 953e ccf9 443c 1e7c 6abe
00000170: b928 05be 78b6 6939 7d56 b43d a9aa c5be
00000180: c9ad 163e 4849 70bd eb9e 24bf dad2 a73e
00000190: 6a68 88be af41 86be 008f ebbd 5621 053d
000001a0: a0c1 3a3e 7e94 1dbd 07d5 093e e1f4 51be
000001b0: 5963 b6bd a9ef 88bd ad14 15be c56d 77be
000001c0: e98c fabd 86d6 c6bd b977 6e3e 55d5 ccbd
000001d0: afe0 a8be 4c0d 99be ec8b 953e 69e5 97bd
000001e0: 7795 33be 307f 9f3e c135 b13c ab2f 1dbe
000001f0: d185 91bd feef 173e ff02 2c3e 9976 60be
00000200: 4062 ee3d 9886 603e 9eec 90bd 58c2 703e
00000210: d434 74be 9436 ad3d dd49 ed3d 08ee 163f
00000220: 957d a1bd 53a4 b13d d51b b0be a20c 7ebe
00000230: 9546 773d a27f 18be d9fa 3f3d fe99 333e
00000240: 4d5a abbd d3f6 07be 62ba 533e 47cf 663d
00000250: a830 be3b cf9c 973c 76f7 613e 4b67 6fbe
00000260: 3ac8 14be a533 5e3e 2591 0fbc 982d b9be
00000270: 8574 f2be 3455 f23c 0352 8d3d 3621 16be
00000280: 278e d23e 5c1b e6bd 99da be3d 4537 b03d
00000290: 488f 543e 9397 5cbe 4f37 933e d788 94be
000002a0: 0e62 80be c1b9 a43d 482c e23e d044 0bbe
000002b0: c599 cf3d f267 933e 6e08 883c d437 eb3d
000002c0: d395 4b3e 5644 e83d f570 113e a32c a6be
000002d0: 9652 54be cd73 0ebe b3ad 473d 3a4c cdbd
000002e0: d69f b5be 551d 89be 0ecc a5be d0f9 80be
000002f0: 3602 3b3e fbe9 ba3e 0dae 5fbe 0414 70be
00000300: f6d0 8dbd d3ba 1abc beac b43e 8b2e 0ebe
00000310: bdd7 9e3e b2f1 2d3e d8cd 0b3e b9c1 40be
00000320: 465c a53e 7fdb bcbc 8dd8 4c3e 0580 2a3b
00000330: 2a33 343d 5288 f1bd 6e6c bf3e 1d23 cd3e
00000340: 4e5c 703e 98ca bdbc 665b 60be f5ef 603d
00000350: be90 813e 12ac 7e3d 5741 ca3e 3754 803e
00000360: 644c c43e 4109 b13e 44cd 44bc 013a 103e
00000370: 971d e73c 5ae0 3f3e d53f 9b3e c896 5fbc
00000380: 7de1 05bd 7204 2cbe 2e8e 91bd 503a 3a3e
00000390: 50ef d0be 091b cc3d 87f7 54bd d928 913d
000003a0: ddf2 1ebf 192f 663e 7a7b 62bd 184d 36bd
000003b0: adfb 163d cd37 393e 08fc 72bd 41bc e7be
000003c0: 18e9 e4bd 458d 303e ab5a 103e 6f80 423d
000003d0: 5592 d2be 18ff f5bd d040 25be 378e 133e
000003e0: 3715 11bf ca63 5d3e 5922 99be baca a6bd
000003f0: aed3 9a3e a6f4 36be 7fd3 91be 3772 fdbd

layer1.1.fc2.bias f4 [16]
-0.05215308 0.18742305 0.0076484266 0.37258774 0.36560586 0.1510429 -0.050457563 -0.11908233
0.15022977 -0.2324301 0.038446117 -0.01607957 0.035949573 -0.25392985 -0.16262886 0.08062619
00000000: 789e 55bd d4eb 3f3e a79f fa3b d2c3 be3e
00000010: b130 bb3e fdaa 1a3e 97ac 4ebd 70e1 f3bd
00000020: d5d5 193e 2802 6ebe ad79 1d3d 4db9 83bc
00000030: dc3f 133d 1803 82be 2e88 26be 581f a53d

layer1.1.bn2.weight f4 [16]
1.0158168 0.91901076 1.3653464 0.9166864 1.00868 1.2536488 0.8695929 1.4123601
0.9651016 1.0608531 0.80635023 1.0825624 0.9885566 0.7729544 1.1616476 0.7915997
00000000: 4906 823f 4a44 6b3f acc3 ae3f f6ab 6a3f
00000010: 6d1c 813f 9077 a03f a49d 5e3f 37c8 b43f
00000020: e610 773f 09ca 873f f86c 4e3f 6891 8a3f
00000030: 0c12 7d3f 57e0 453f deb0 943f 47a6 4a3f

layer1.1.bn2.bias f4 [16]
0.1422603 0.13477127 -0.3357085 0.021166274 0.015539863 -0.018823085 -0.1899529 -0.32421482
0.22249773 -0.43457636 0.038752493 0.07080992 -0.107830696 -0.15287343 -0.35992378 -0.19059868
00000000: afac 113e 7b01 0a3e fce1 abbe e564 ad3c
00000010: e99a 7e3c df32 9abc 0383 42be 7cff a5be
00000020: 72d6 633e cb80 debe efba 1e3d cb04 913d
00000030: 57d6 dcbd da8a 1cbe ee47 b8be 4d2c 43be

layer1.1.bn2.running_mean f4 [16]
0.68453854 0.85165256 -0.61530423 0.13880952 0.8791253 -0.4608674 -0.6097791 -0.43044406
0.39695537 -0.6557716 0.4833011 -0.6407083 0.8678409 0.7715127 -0.89064515 -0.56170064
00000000: eb3d 2f3f e705 5a3f 9484 1dbf 1524 0e3e
00000010: 5b0e 613f d0f6 ebbe 7c1a 1cbf 2a63 dcbe
00000020: bc3d cb3e a6e0 27bf 3e73 f73e 7605 24bf
00000030: d22a 5e3f db81 453f 5201 64bf 9dcb 0fbf

layer1.1.bn2.running_var f4 [16]
1.3253801 1.5854161 0.9994912 0.9702175 1.2164003 1.1618496 0.974549 0.67023164
0.40280396 0.7754744 0.32661363 1.4718469 2.0371854 1.4137406 1.920728 1.977468
00000000: 0ea6 a93f eaee ca3f a8de 7f3f 2d60 783f
00000010: 01b3 9b3f 7db7 943f 0b7c 793f 4d94 2b3f
00000020: 523c ce3e 7e85 463f e739 a73e 7b65 bc3f
00000030: 3f61 0240 74f5 b43f 6ada f53f ac1d fd3f

layer2.0.fc1.weight f4 [32, 16]
0.15900116 0.23244838 -0.30101287 -0.25777245 0.08534683 -0.101404235 -0.037464213 0.36925897
0.54652005 0.20296757 -0.24072148 -0.022300625 0.035276044 0.065319836 0.0034612985 -0.017363945
-0.33847582 -0.12490144 0.04045912 0.08506716 -0.37324354 0.3409027 -0.29212087 0.2939021
0.19724685 0.19801198 -0.111404344 0.21799733 0.19222885 -0.10337317 0.2523074 0.27712336
0.042080283 0.121761195 -0.041599113 -0.12854579 0.2398701 0.20602974 -0.26938158 0.33949688
0.15211907 0.024026757 0.26329744 -0.024739876 0.12320611 0.12819721 0.23506103 -0.18545136
-0.1786896 -0.23400544 0.14008127 -0.52292305 0.14020906 0.31401232 0.060117047 0.20436376
0.1649975 0.026200788 -0.22995041 0.022255354 -0.34963518 0.24724476 -0.09242643 0.3125913
-0.15244561 -0.30291104 -0.06385707 0.014459985 -0.24837036 -0.087951764 0.1647858 -0.16307606
0.08941828 -0.2787951 -0.20987053 0.20831466 0.1788224 -0.12112276 -0.10174934 -0.36481714
-0.06615224 -0.2115099 0.19911683 0.056653477 0.052739725 0.011933509 -0.22732142 0.18682575
-0.2851816 0.13998461 -0.16717213 0.34895694 -0.31217936 0.10785338 0.23309575 0.13160338
0.017360369 0.46127164 -0.158058 0.180135 -0.024431594 0.017193547 -0.1674635 0.04100858
0.26597887 0.33980048 -0.026679255 0.10415422 -0.042484708 -0.18439712 0.37507784 -0.058376487
0.006757646 0.1391216 0.44862992 -0.36519697 -0.2369024 0.20183681 -0.22087143 -0.044297785
0.10191822 0.13971597 0.0873777 0.11060249 -0.030036395 -0.30196744 0.28402174 0.25947165
-0.0626922 0.0696425 -0.17654595 -0.22978593 -0.19617088 -0.16238922 -0.37778476 0.0127036385
-0.23536044 -0.020460667 0.09563062 0.11207936 0.12775481 0.04947635 -0.4388877 0.47783422
0.14799726 -0.11778271 0.091310196 -0.16536045 0.041219484 0.49565881 0.28587598 0.22579679
0.18449025 0.31600055 0.2578929 -0.20643088 0.26992252 0.19726972 -0.019088466 0.07953958
-0.09796565 -0.33458766 -0.16380304 -0.45784143 -0.21563828 0.14494088 -0.06516991 -0.1561334
0.25408137 -0.040715225 -0.04782684 0.025847122 -0.5200083 -0.1383484 0.13809593 -0.25149795
-0.5116224 -0.20094654 -0.07031245 0.18235292 -0.057710007 -0.22875336 -0.1300909 -0.009945864
-0.10580557 0.39231423 -0.04676502 0.27778855 0.062337544 0.19512083 0.11838335 0.25117797
0.20786305 0.006966931 0.14331947 -0.19778903 -0.106225125 -0.0061530694 -0.24736272 -0.15498711
0.35768473 0.36518547 -0.024379855 0.15610567 -0.26317358 0.011271695 0.3517795 -0.14565465
-0.07807633 -0.27097362 0.23006655 -0.3540263 0.04547616 0.35393405 0.01461519 0.27833125
-0.38601628 0.2561718 -0.022276387 -0.28468585 -0.19599593 0.08468064 0.11776 -0.01241935
-0.34215134 0.03722427 0.399501 -0.14062418 0.011984615 0.22518928 0.010733815 0.21742047
-0.1278252 0.0103914775 -0.1934882 0.18645313 -0.025340725 -0.02324721 -0.089734145 0.28957292
-0.1621665 -0.18682306 0.27986702 -0.16078325 -0.030154351 0.45116523 0.13948382 0.33852887
-0.30010927 0.24141695 0.051164567 -0.03580643 -0.21123596 -0.053175088 0.104128964 -0.048997212
00000000: 33d1 223e f306 6e3e 5c1e 9abe c0fa 83be
00000010: 52ca ae3d 06ad cfbd 1374 19bd 830f bd3e
00000020: bde8 0b3f bbd6 4f3e b17f 76be cdaf b6bc
00000030: 9d7d 103d 68c6 853d f4d6 623b d53e 8ebc
00000040: b44c adbe 54cc ffbd 76b8 253d b137 ae3d
00000050: c719 bfbe cc8a ae3e de90 95be 567a 963e
00000060: 14fb 493e a7c3 4a3e f627 e4bd b13a 5f3e
00000070: a4d7 443e 50b5 d3bd 6f2e 813e 1de3 8d3e
00000080: 605c 2c3d ef5d f93d d563 2abd 82a1 03be
00000090: 82a0 753e 76f9 523e 62ec 89be 89d2 ad3e
000000a0: 1ac5 1b3e c3d3 c43c ecce 863e 48ab cabc
000000b0: 7c53 fc3d 2146 033e d7b3 703e f6e6 3dbe
000000c0: 68fa 36be 1f9f 6fbe 7771 0f3e 49de 05bf
000000d0: f792 0f3e 39c6 a03e 4b3d 763d bc44 513e
000000e0: 1bf5 283e 09a3 d63c 1f78 6bbe dc50 b63c
000000f0: 6203 b3be bb2d 7d3e 114a bdbd f80b a03e
00000100: b41a 1cbe 2817 9bbe 7fc7 82bd 93e9 6c3c
00000110: cd54 7ebe 0e20 b4bd 9cbd 283e 69fd 26be
00000120: ee20 b73d 3bbe 8ebe 4de8 56be 7050 553e
00000130: 381d 373e 360f f8bd f561 d0bd 50c9 babe
00000140: d37a 87bd 0d96 58be 48e5 4b3e 7a0d 683d
00000150: 9c05 583d c484 433c f2c6 68be 404f 3f3e
00000160: 5303 92be 2058 0f3e 2c2f 2bbe 7caa b23e
00000170: f9d5 9fbe 3ce2 dc3d a7b0 6e3e 09c3 063e
00000180: 5537 8e3c cc2b ec3e f5d9 21be 4f75 383e
00000190: c424 c8bc 7bd9 8c3c 8d7b 2bbe 9df8 273d
000001a0: 622e 883e 54fa ad3e 748e dabc cf4e d53d
000001b0: 7204 2ebd 99d2 3cbe 340a c03e 2f1c 6fbd
000001c0: 3e6f dd3b e575 0e3e d2b2 e53e 19fb babe
000001d0: 8b96 72be 4fae 4e3e 1f2c 62be 9871 35bd
000001e0: 80ba d03d b411 0f3e 14f3 b23d 8f83 e23d
000001f0: e30e f6bc 7a9b 9abe 4c6b 913e 78d9 843e
00000200: c564 80bd baa0 8e3d 76c8 34be 014d 6bbe
00000210: 05e1 48be 5c49 26be 016d c1be ec22 503c
00000220: 5402 71be 219d a7bc fdd9 c33d dd89 e53d
00000230: 28d2 023e b7a7 4a3d e3b5 e0be b0a6 f43e
00000240: 988c 173e 1038 f1bd d700 bb3d 4054 29be
00000250: c3d5 283d fec6 fd3e 565e 923e 4637 673e
00000260: 03eb 3c3e d3ca a13e 8a0a 843e 9e62 53be
00000270: 4933 8a3e 1301 4a3e 6a5f 9cbc a6e5 a23d
00000280: 37a2 c8bd 134f abbe fcbb 27be 316a eabe
00000290: 48d0 5cbe 626b 143e cd77 85bd 6fe1 1fbe
000002a0: f416 823e 02c5 26bd 14e6 43bd 58bd d33c
000002b0: 441f 05bf 34ab 0dbe 0569 0d3e 57c4 80be
000002c0: b0f9 02bf eec4 4dbe f9ff 8fbd b9ba 3a3e
000002d0: 5461 6cbd 523e 6abe 8d36 05be faf3 22bc
000002e0: 97b0 d8bd 69dd c83e ad8c 3fbd 4d3a 8e3e
000002f0: a755 7f3d c1cd 473e f872 f23d 669a 803e
00000300: 0dda 543e da4a e43b 57c2 123e 3589 4abe
00000310: 8f8c d9bd b09f c9bb a74c 7dbe f1b4 1ebe
00000320: 7422 b73e 97f9 ba3e 43b8 c7bc 2ada 1f3e
00000330: b0be 86be eaac 383c 711c b43e 7e26 15be
00000340: 7ce6 9fbd 0ebd 8abe 9196 6b3e ef42 b5be
00000350: 3645 3a3d d836 b53e 8d74 6f3c 6f81 8e3e
00000360: eda3 c5be f328 833e f87c b6bc 58c2 91be
00000370: 28b3 48be 0b6d ad3d 282c f13d 887a 4bbc
00000380: 762e afbe 7a78 183d 658b cc3e c9ff 0fbe
00000390: 1e5b 443c 0598 663e e2dc 2f3c 79a3 5e3e
000003a0: 9ce4 02be 0441 2a3c c521 46be 92ed 3e3e
000003b0: 5a97 cfbc ef70 bebc 89c6 b7bd e742 943e
000003c0: fa0e 26be 8b4e 3fbe bb4a 8f3e 5da4 24be
000003d0: 4206 f7bc 21ff e63e d9d4 0e3e a853 ad3e
000003e0: eca7 99be 0136 773e f091 513d c3a9 12bd
000003f0: 3d4e 58be 1fce 59bd 9141 d53d 4db1 48bd

layer2.0.fc1.bias f4 [32]
0.03704389 0.1155113 -0.20676869 -0.030408705 -0.01290289 0.087904915 0.26702103 0.062375285
-0.17885259 -0.11682375 -0.15282772 0.018096855 0.084311604 -0.14626943 -0.005995196 0.39050934
0.08986714 0.14123112 -0.21174155 -0.2035332 0.034057453 0.2579631 0.24226142 -0.04386413
0.27951342 -0.16408512 0.07772996 -0.16692646 -0.029317249 0.10086647 -0.14676632 0.19448246
00000000: 56bb 173d 3091 ec3d 2cbb 53be ad1b f9bc
00000010: a566 53bc 7e07 b43d fbb6 883e 3a7d 7f3d
00000020: 2225 37be 4a41 efbd df7e 1cbe db3f 943c
00000030: 90ab ac3d a7c7 15be 5973 c4bb d7f0 c73e
00000040: 430c b83d e49e 103e c7d2 58be 026b 50be
00000050: d47f 0b3d bd13 843e 6113 783e e0aa 33bd
00000060: 621c 8f3e ee05 28be e330 9f3d c5ee 2abe
00000070: ba2a f0bc 1493 ce3d e949 16be 6926 473e

layer2.0.bn1.weight f4 [32]
1.2472034 1.0372401 1.0366095 1.136835 1.0725389 1.0158182 0.89130896 0.72827524
0.67510426 1.2042072 0.53052574 1.1000801 1.0399009 1.0302366 1.1916611 1.3358307
1.0996509 1.1562212 1.0739683 0.6680034 0.968798 0.9333973 1.0553718 0.562446
1.0996003 0.802712 0.7910493 0.96215695 0.95053816 1.141394 0.9757406 1.0162357
00000000: 5ca4 9f3f 49c4 843f 9faf 843f cf83 913f
00000010: f448 893f 5506 823f d32c 643f 3f70 3a3f
00000020: a2d3 2c3f 7623 9a3f 89d0 073f 6dcf 8c3f
00000030: 791b 853f cbde 833f 5a88 983f 80fc aa3f
00000040: 5cc1 8c3f 0eff 933f cb77 893f 4502 2b3f
00000050: 2503 783f 20f3 6e3f 6c16 873f 76fc 0f3f
00000060: b4bf 8c3f 897e 4d3f 3582 4a3f eb4f 763f
00000070: 7856 733f 3319 923f 23ca 793f 0314 823f

layer2.0.bn1.bias f4 [32]
0.21324928 -0.12946148 -0.04878719 0.12031709 0.11604622 -0.17380127 -0.039675016 -0.36438054
-0.20703846 -0.005444526 -0.13157637 0.13635163 -0.1701723 0.0074792486 -0.107471846 -0.054903008
0.09421144 -0.07993132 -0.0517282 -0.2157607 -0.13341793 -0.17335291 -0.17084356 -0.3757634
-0.10134431 -0.11917294 -0.13617776 0.01687535 -0.06404859 0.0013909806 -0.16555269 -0.16074346
00000000: 055e 5a3e 8d91 04be 14d5 47bd ce68 f63d
00000010: a4a9 ed3d f6f8 31be 4582 22bd 1690 babe
00000020: e401 54be ff67 b2bb f5bb 06be c39f 0b3e
00000030: a641 2ebe 7c14 f53b 331a dcbd fae1 60bd
00000040: edf1 c03d 08b3 a3bd f3e0 53bd 5ff0 5cbe
00000050: b69e 08be 6d83 31be 9df1 2ebe 0f64 c0be
00000060: 9b8d cfbd f110 f4bd 2f72 0bbe 2d3e 8a3c
00000070: e82b 83bd 9051 b63a a586 29be ef99 24be

layer2.0.bn1.running_mean f4 [32]
0.9859082 0.51675814 0.86051166 -0.38684586 -1.0670384 -0.38303936 1.3716058 0.3918459
-0.6893469 1.4246333 -1.755137 -0.27566963 0.41030055 -1.057753 -0.05153255 0.021590231
1.4180018 0.843769 -0.63191605 -1.966216 0.7847984 0.41704088 -0.080932975 0.9527323
0.045010448 0.21705265 0.23839119 -1.5413469 -0.2505317 2.022452 -0.5876932 0.13154434
00000000: 7b64 7c3f 434a 043f 7e4a 5c3f a910 c6be
00000010: b794 88bf bc1d c4be c790 af3f 07a0 c83e
00000020: 0a79 30bf 625a b63f 54a8 e0bf 9224 8dbe
00000030: ea12 d23e 7364 87bf cc13 53bd ffdd b03c
00000040: 1581 b53f 3f01 583f 40c5 21bf f7ac fbbf
00000050: 8ce8 483f 6286 d53e 30c0 a5bd 44e6 733f
00000060: e05c 383d 0d43 5e3e d21c 743e db4a c5bf
00000070: b145 80be db6f 0140 1073 16bf 8fb3 063e

layer2.0.bn1.running_var f4 [32]
2.9780936 1.2921523 0.8375764 2.618682 0.70991105 1.3261808 2.4472067 1.5037171
0.4757227 0.9979718 3.8015866 1.1674101 2.6637712 2.8323843 1.2224898 2.2914743
1.6779172 1.8849003 2.098791 0.9197857 1.0973483 2.2763476 1.9485343 1.6908426
1.1630249 0.8154651 1.8587822 1.7123699 2.7113943 1.0562592 2.238427 0.45578292
00000000: 1699 3e40 3f65 a53f 686b 563f 7c98 2740
00000010: bbbc 353f 4bc0 a93f 099f 1c40 cd79 c03f
00000020: ed91 f33e 147b 7f3f 324d 7340 b26d 953f
00000030: 3a7b 2a40 c945 3540 8c7a 9c3f 84a7 1240
00000040: fec5 d63f 6a44 f13f 9752 0640 1377 6b3f
00000050: e975 8c3f aeaf 1140 9269 f93f 886d d83f
00000060: 00de 943f 52c2 503f 93ec ed3f f02e db3f
00000070: 7c87 2d40 8033 873f 6342 0f40 615c e93e

layer2.0.fc2.weight f4 [32, 32]
-0.07070437 -0.17946005 -0.50606376 -0.082654625 0.17094195 -0.020406952 0.017285313 -0.3424864
-0.13204277 -0.24970528 0.12023214 0.0897404 0.25768828 -0.050277796 -0.069890015 -0.47037643
-0.2635876 -0.22404037 -0.143813 0.055342734 -0.15119341 0.030337438 -0.23652124 -0.06314143
-0.17168967 0.039957825 0.109962344 -0.048067417 0.05824409 -0.40104356 -0.113039814 0.06737283
-0.41301075 0.008086525 0.33211184 0.22660011 -0.08575889 0.30859426 -0.15689191 -0.09534571
0.02505897 0.010360158 -0.078679204 0.03184868 -0.34156144 0.22844021 0.056119516 0.18453902
-0.12852658 -0.023937125 0.053898606 0.0049979025 0.05352054 -0.04023853 -0.017074617 -0.1150338
0.025652492 0.086159445 0.04350351 0.18681273 -0.076842 -0.045679223 0.3481916 -0.1661278
0.08382304 0.09797916 0.056845363 -0.28656214 0.3929883 -0.09583168 -0.06467183 -0.31924587
-0.06518657 -0.24932708 0.34827855 -0.0106097665 0.049534343 0.22433451 -0.002087561 -0.2135492
-0.41196644 -0.20238596 -0.17650911 0.16755432 -0.25451148 -0.13891262 -0.13989055 -0.15938571
-0.02408363 0.18448356 0.06638286 -0.022699548 0.22472471 -0.08728482 -0.2513211 0.101922505
0.15628089 -0.12522806 -0.23914932 0.22046083 -0.069812074 -0.4498766 -0.28078553 -0.043115776
0.11362003 -0.09633942 0.006669956 -0.12961955 -0.31845582 -0.0067649484 -0.28414914 -0.13755852
0.2480741 0.0511985 -0.0972418 0.3426029 -0.24135756 -0.15231816 -0.17770648 0.2471055
0.15007222 -0.34885108 -0.29900354 -0.18989821 -0.07365516 0.037856884 -0.2190598 -0.020299934
-0.29754624 -0.13739944 -0.25204828 0.1660946 -0.20834126 -0.043788627 -0.24459465 -0.2283017
0.100350484 -0.060273446 0.17829765 -0.008948438 -0.1708137 0.4720827 0.31061873 0.30481228
-0.096903056 0.3477362 0.26361546 0.111673236 -0.23314013 -0.04706935 0.04947511 -0.22686478
0.013984211 -0.010827106 0.036883906 -0.028778687 -0.07660296 -0.2871422 0.18072772 -0.03801081
0.21507733 -0.07674813 0.0530408 0.13306864 0.08829609 -0.039963882 -0.051300842 -0.10245791
-0.0045532775 0.08267604 0.04466975 -0.18185405 0.086259164 0.102942474 -0.1910518 0.18064904
-0.014750766 0.13446093 -0.07932287 0.15930769 0.16280782 0.3130698 0.09169981 0.24665022
0.3821762 -0.36696863 0.04951907 -0.18042986 0.33613202 -0.119268425 0.01762843 -0.20348088
0.48911715 0.2977063 0.037421927 -0.046441037 -0.3060707 0.05398392 0.4291816 0.2692217
-0.035998236 -0.08718915 -0.103189655 -0.15668297 0.41153577 0.14678916 0.14824769 0.08571995
0.21222554 0.11332385 0.25916702 0.0053989454 0.3657241 -0.036337875 0.029008383 0.14667629
-0.24246787 -0.1197694 0.05019565 -0.15670247 0.20019935 -0.18331206 -0.25955123 0.17616947
-0.20814225 0.3876995 0.103764445 0.18559955 0.037042256 0.31178334 0.121775046 -0.21004745
0.047551144 -0.22315243 -0.072836354 0.12509029 0.18555069 -0.056570154 0.28152022 0.22847877
0.02031509 0.2573766 0.38497874 0.12786719 0.11985815 0.1434577 0.40275007 -0.03217734
0.10686126 -0.06531614 -0.06545905 -0.032042943 -0.11676899 -0.19395007 0.21745177 0.40667906
00000000: 74cd 90bd 60c4 37be 658d 01bf d446 a9bd
00000010: 680b 2f3e 7b2c a7bc ee99 8d3c 615a afbe
00000020: 3836 07be beb2 7fbe 453c f63d d1c9 b73d
00000030: b8ef 833e 17f0 4dbd 7f22 8fbd 2ed5 f0be
00000040: f4f4 86be d76a 65be b743 13be 10af 623d
00000050: 72d2 1abe 3886 f83c a032 72be 4b50 81bd
00000060: 6bcf 2fbe d1aa 233d f033 e13d 57e2 44bd
00000070: 5b91 6e3d 9555 cdbe 6b81 e7bd c4fa 893d
00000080: 2576 d3be 587d 043c 900a aa3e dc09 683e
00000090: 5ba2 afbd 1100 9e3e 46a8 20be 9d44 c3bd
000000a0: 7848 cd3c a7bd 293c 9022 a1bd c373 023d
000000b0: 24e1 aebe 3bec 693e 94dd 653d ccf7 3c3e
000000c0: 799c 03be ca17 c4bc c9c4 5c3d 72c5 a33b
000000d0: 5b38 5b3d 28d1 24bd 11e0 8bbc d796 ebbd
000000e0: 2d25 d23c 5d74 b03d bd30 323d d64b 3f3e
000000f0: 575f 9dbd 231a 3bbd 2b46 b23e 681d 2abe
00000100: 6aab ab3d 4ca9 c83d afd6 683d 46b8 92be
00000110: c335 c93e 6643 c4bd aa72 84bd 3274 a3be
00000120: 8980 85bd 994f 7fbe 9151 b23e 96d4 2dbc
00000130: 86e4 4a3d f2b7 653e 76cf 08bb a4ac 5abe
00000140: 44ed d2be 443e 4fbe cebe 34be 5c93 2b3e
00000150: 544f 82be 1c3f 0ebe 783f 0fbe 0236 23be
00000160: 084b c5bc 42e9 3c3e bdf3 873d 67f4 b9bc
00000170: 3c1e 663e 62c2 b2bd 29ad 80be bfbc d03d
00000180: 1908 203e c93b 00be 8fe3 74be 7cc0 613e
00000190: a2f9 8ebd 3a56 e6be 1fc3 8fbe 2b9a 30bd
000001a0: 9eb1 e83d 9a4d c5bd a58f da3b fdba 04be
000001b0: a40c a3be 80ac ddbb ff7b 91be 24dc 0cbe
000001c0: 2307 7e3e 85b5 513d b526 c7bd a669 af3e
000001d0: 7026 77be 4bf9 1bbe b0f8 35be 3909 7d3e
000001e0: 88ac 193e 9c9c b2be fe16 99be ad74 42be
000001f0: 84d8 96bd d20f 1b3d 3651 60be 0c4c a6bc
00000200: fb57 98be 70b2 0cbe 790c 81be b414 2a3e
00000210: 6957 55be b45b 33bd 0577 7abe ecc7 69be
00000220: 8e84 cd3d 4ae1 76bd a993 363e 789c 12bc
00000230: c9e9 2ebe d3b4 f13e 6b09 9f3e 5b10 9c3e
00000240: 1c75 c6bd 7b0a b23e 9bf8 863e f0b4 e43d
00000250: 49bc 6ebe cacb 40bd 6aa6 4a3d 3e4f 68be
00000260: 081e 653c 2d64 31bc 9413 173d 48c1 ebbc
00000270: 03e2 9cbd 4d04 93be b010 393e 39b1 1bbd
00000280: 3b3d 5c3e 202e 9dbd 4f41 593d 2543 083e
00000290: 95d4 b43d 2bb1 23bd d520 52bd 74d5 d1bd
000002a0: a933 95bb 0e52 a93d a1f7 363d f337 3abe
000002b0: a5a8 b03d 81d3 d23d 15a3 43be 10fc 383e
000002c0: 32ad 71bc 20b0 093e 0774 a2bd 8e21 233e
000002d0: 18b7 263e af4a a03e 1ccd bb3d e091 7c3e
000002e0: 99ac c33e 50e3 bbbe 82d4 4a3d 9bc2 38be
000002f0: 7f19 ac3e 0143 f4bd 7f69 903c 4b5d 50be
00000300: 906d fa3e f66c 983e bc47 193d f538 3ebd
00000310: 4cb5 9cbe 3e1e 5d3d b1bd db3e 6dd7 893e
00000320: e372 13bd 3a90 b2bd 1955 d3bd 8071 20be
00000330: d1b4 d23e e64f 163e 3ece 173e f18d af3d
00000340: a751 593e 5616 e83d 8ab1 843e a3e9 b03b
00000350: 3040 bb3e 06d7 14bd fda2 ed3c 4f32 163e
00000360: 7f49 78be a949 f5bd f499 4d3d 9d76 20be
00000370: 0f01 4d3e 28b6 3bbe e6e3 84be c565 343e
00000380: 3e23 55be 8d80 c63e 7482 d43d cf0d 3e3e
00000390: 9fb9 173d 11a2 9f3e 3265 f93d ae16 57be
000003a0: fdc4 423d 1282 64be 3a2b 95bd ab17 003e
000003b0: 0001 3e3e 1bb6 67bd 6b23 903e 57f6 693e
000003c0: d56b a63c dec6 833e ef1b c53e 9eef 023e
000003d0: 3178 f53d 93e6 123e 4235 ce3e 63cc 03bd
000003e0: 14da da3d 78c4 85bd 650f 86bd 763f 03bd
000003f0: 9524 efbd d99a 46be adab 5e3e 3d38 d03e

layer2.0.fc2.bias f4 [32]
-0.026506223 -0.08799435 0.14663377 -0.09708892 -0.30645356 0.104796715 0.24043989 -0.015025579
0.123935156 0.09060335 -0.25836033 -0.005771301 -0.1053679 0.31869033 -0.3049948 0.23709911
-0.015540687 -0.035164926 -0.30194616 -0.27030373 -0.033695888 0.22201212 0.052798357 -0.041051432
0.21841414 -0.08184836 -0.10380788 -0.04439896 -0.0048229396 0.027239656 -0.1190565 0.17713709
00000000: 9423 d9bc 6236 b4bd 2a27 163e 8ed6 c6bd
00000010: 7be7 9cbe a99f d63d e035 763e d92d 76bc
00000020: b7d1 fd3d 408e b93d ce47 84be 2f1d bdbb
00000030: 20cb d7bd 612b a33e 4728 9cbe 1cca 723e
00000040: 5e9e 7ebc 1909 10bd b098 9abe 4065 8abe
00000050: b304 0abd 2557 633e 1743 583d 8c25 28bd
00000060: f5a7 5f3e 1da0 a7bd 3a99 d4bd afdb 35bd
00000070: c009 9ebb b325 df3c e5d3 f3bd 6d63 353e

layer2.0.bn2.weight f4 [32]
0.95592797 1.0808227 0.78865254 0.8035169 1.0659928 1.0729482 1.0185996 1.3623767
0.91155946 1.0361832 0.7582301 1.0005727 0.94313276 0.963801 0.8997535 1.0783118
0.8610598 0.6309923 1.3711572 0.94090146 0.87241274 1.0052347 0.90833163 1.194697
1.2273868 1.1778374 0.89216685 1.1043526 1.130358 0.9542732 0.9391909 0.78698564
00000000: b2b7 743f 6658 8a3f 22e5 493f 49b3 4d3f
00000010: 7472 883f 5e56 893f 7961 823f 5c62 ae3f
00000020: f65b 693f a7a1 843f 5e1b 423f c412 803f
00000030: 2671 713f aabb 763f 3f56 663f 1f06 8a3f
00000040: 6a6e 5c3f b688 213f 1482 af3f ebde 703f
00000050: 7156 5f3f 88ab 803f 6c88 683f d5eb 983f
00000060: 031b 9d3f 60c3 963f 0c65 643f 6d5b 8d3f
00000070: 92af 903f 404b 743f d16e 703f e477 493f

layer2.0.bn2.bias f4 [32]
0.012917872 0.04339292 -0.22648995 -0.34849107 -0.153618 0.059750956 -0.13433184 -0.15441935
-0.08955105 -0.21799377 -0.22815078 0.0660434 -0.2137386 -0.019932378 -0.093897976 0.1084262
-0.116953164 -0.24522988 0.17557824 0.036742214 -0.15027846 0.122296825 -0.14257298 -0.08484684
-0.15990014 0.0925015 -0.03577188 -0.2467452 -0.31767368 0.029816156 -0.060000353 -0.03213582
00000000: 7ba5 533c c6bc 313d fbec 67be 6c6d b2be
00000010: 094e 1dbe 6bbd 743d 498e 09be 1b20 1ebe
00000020: 8a66 b7bd c239 5fbe 5ca0 69be c341 873d
00000030: 4bde 5abe 3a49 a3bc 954d c0bd 8e0e de3d
00000040: 2485 efbd 8b1d 7bbe c8ca 333e 017f 163d
00000050: 99e2 19be c276 fa3d a7fe 11be 2ec4 adbd
00000060: ddbc 23be 6d71 bd3d 8985 12bd c6aa 7cbe
00000070: 20a6 a2be 0341 f43c eec2 75bd d9a0 03bd
