sensor_case/outputs/experiment6/linear_model.pth (torch, 1461 bytes, 2 tensors)

A f4 [5, 5]
00000000: 0100 803f 27ae b33c f620 ec3b 9c4d fdbc
00000010: 9de6 c63c 0000 9032 c93c 803f cc58 b1bd
00000020: be32 903e 59a3 003f 0000 a0b2 ad28 ad3c
00000030: 11c5 583f e034 643d ef43 04bd 0000 e0b1
00000040: 3d29 043d a9d0 ad3c 0821 6f3f 3a34 a9be
00000050: 0000 6532 5f8b 883d 04ce c13d a468 883e
00000060: c0e5 7d3f
1.0000001 0.021933628 0.0072060777 -0.030920796 0.024279887 1.6763806e-08 1.001855 -0.08659515
0.28163713 0.5024925 -1.8626451e-08 0.02113756 0.846757 0.055714488 -0.03229135 -6.519258e-09
0.03226589 0.021217661 0.93409777 -0.33047658 1.3329554e-08 0.06667208 0.094631225 0.26642334
0.99178696

B f4 [2, 5]
00000000: 0000 90b4 1fc1 2bbf b5fe 8fbf 6762 41bf
00000010: ed31 fbbf 0000 6834 7e76 383f 1467 953f
00000020: a590 023f 7cc3 be3f
-2.682209e-07 -0.67091554 -1.1249605 -0.75540775 -1.9624611 2.1606684e-07 0.72055805 1.1672082
0.5100196 1.4903407
