sensor_case/outputs/experiment6/linear_model.pth (torch, 1461 bytes, 2 tensors)

A f4 [5, 5]
00000000: 0100 803f 47c1 343d 11c2 df3c cc4c e9bb
00000010: 0abf a03d 0000 2032 9ef9 793f 72dc 15be
00000020: 0883 833e 1af8 043f 0000 5933 0087 6b3a
00000030: 22b2 533f a79d 1b3c 08a7 33bd 0000 0fb3
00000040: 2659 183d 57d9 133d c6fe 703f 48d7 abbe
00000050: 0080 8db2 4448 933d e56b cd3d ba9e 8b3e
00000060: 069e 7e3f
1.0000001 0.044129636 0.027314218 -0.0071197506 0.07848938 9.313226e-09 0.9764651 -0.14634874
0.25685906 0.5194107 5.052425e-08 0.0008984655 0.82693684 0.0094980365 -0.043860465 -3.3294782e-08
0.037194394 0.036095943 0.94138753 -0.33562684 -1.6472768e-08 0.07191518 0.10030345 0.27269536
0.99459875

B f4 [2, 5]
00000000: 0000 c234 68a5 34bf ded9 83bf 521c 7fbf
00000010: 548a 0ac0 0000 dcb4 60f1 473f fce4 903f
00000020: f0df 4b3f 8086 d73f
3.6135316e-07 -0.7056489 -1.0300863 -0.9965259 -2.1646929 -4.0978193e-07 0.78102684 1.131988
0.79638577 1.6837921
