sensor_case/outputs/experiment6/rescale_pca_layer.pth (torch, 170162 bytes, 7 tensors)

std_layer_1.mean f4 [6957]
000000 db 3f 20 39 9c 64 a9 3a 28 d7 4c bb 20 02 86 bb
       0.00015282577 0.0012923661 -0.0031256173 -0.004089609
000010 b3 6f 41 3b f2 93 08 3a 99 e6 5c 3a 4a fa 54 bb
       0.002951604 0.0005210034 0.0008426696 -0.0032497817
000020 b5 48 72 3a 4b b9 a8 ba c2 f1 34 3b f2 f4 35 bb
       0.00092424016 -0.0012872604 0.002760992 -0.0027764407
000030 6d 6b 03 bb 6b 95 48 3b 18 fc b3 ba 1e 35 d9 3a
       -0.0020053044 0.0030606638 -0.0013731746 0.0016571616
000040 43 c8 3d bb 6b 49 12 3a 03 fb f5 b9 97 1d a5 3a
       -0.0028958477 0.0005580398 -0.0004691706 0.001259732
000050 c7 f2 35 3b 4d 75 84 b9 a0 fe 8c 3a 46 e3 62 3b
       0.0027763115 -0.00025264398 0.0010757037 0.0034620329
000060 23 5c 66 3b 37 91 6b 3a f6 d6 36 3b ec 0d 9f 3a
       0.0035150133 0.0008986177 0.0027899123 0.0012134886
000070 57 92 37 3b a5 7f fc 3a de a3 2e bb 63 ea 06 3b
       0.002801081 0.0019264115 -0.0026647965 0.0020586483
000080 e3 83 48 bb 8d 2e 28 3b b6 ff 29 bb cd c0 8c 3a
       -0.0030596189 0.0025662512 -0.002593977 0.0010738611
000090 ac a1 a5 3a 1f 36 9d b8 51 9e 55 bb 84 26 72 3b
       0.0012636683 -7.496424e-05 -0.0032595585 0.0036949227
0000a0 66 9c a5 bb 17 52 7f 3a 73 7c 16 bb 22 bb 49 bb
       -0.0050540445 0.00097397104 -0.002296236 -0.0030781706
0000b0 e9 f8 31 3b ef 33 35 bb 05 8c 35 3a b6 13 27 bb
       0.0027156419 -0.0027649363 0.00069254666 -0.0025493926
0000c0 87 ab 91 3a 01 06 56 bb 99 65 47 3b ce 62 a6 ba
       0.0011113741 -0.0032657387 0.0030425547 -0.0012694241
0000d0 5f 79 e9 3a 29 d9 b9 3b 06 ba 5c 3a 67 ac 8c 3b
       0.0017812661 0.0056716395 0.00084200536 0.004293013
0000e0 ef 5b 8f bb a6 f6 4d 3a 0d 53 77 bb 90 fa 86 3a
       -0.004374973 0.0007856883 -0.003773871 0.0010298062
0000f0 83 04 53 bb 7f 3f 48 bb 41 57 80 bb f6 5d 97 3b
       -0.0032198734 -0.0030555425 -0.0039166515 0.0046193553
000100 3e 0d 91 3a 99 46 40 bb 4c da 23 3b a0 e2 93 bd
       0.0011066569 -0.0029338954 0.0025001941 -0.0722096
000110 4a b5 90 3d 20 80 b0 ba 9e 65 56 3d 77 b4 72 bc
       0.07065828 -0.0013465919 0.052343003 -0.014813534
000120 50 1f 85 bd 05 ff e8 ba e4 29 38 bb 9c eb 69 3b
       -0.06500113 -0.0017776197 -0.002810114 0.0035693413
000130 3c ed 9a 39 d9 91 a7 3a c2 70 9c ba 0f 3b 8c 3b
       0.00029549922 0.0012784555 -0.001193546 0.0042795013
000140 be 82 f3 3a 96 26 91 3b 1b 58 4f bd 50 6f 92 39
       0.0018578393 0.0044296486 -0.050621133 0.00027930224
000150 c6 db f7 3a 3c 6c c0 ba 75 b9 50 3a d2 64 3d bb
       0.0018910102 -0.0014680694 0.00079622056 -0.0028899205
000160 4b f9 1a 3b 90 b8 34 3b 73 c7 fd 3a b7 7f 67 bb
       0.0023647125 0.0027575828 0.0019361809 -0.0035323927
000170 a6 94 44 3a c8 ae 05 3b 8a 9e fd b9 38 de 2c bb
       0.0007498957 0.0020398367 -0.0004837404 -0.002637757
000180 a0 de 31 3a 08 5d 04 3b 58 06 23 3b fa 5b 01 3b
       0.0006785188 0.0020197053 0.0024875607 0.001973866
000190 5a 0e 34 bb 73 4d dc ba d4 34 17 bb 10 00 2d 3b
       -0.0027474375 -0.001680775 -0.002307226 0.0026397742
0001a0 90 38 92 3b 60 43 37 3b 60 32 dc ba 46 0b 67 3b
       0.004462309 0.0027963743 -0.0016799681 0.0035254522
0001b0 08 e0 c4 3a 1b 50 94 bb 4b 1d 56 3b 01 63 84 3b
       0.001502038 -0.004526151 0.0032671269 0.0040401225
0001c0 03 82 a3 b9 af 70 fb ba cc 5f e2 3a de 31 2f 3a
       -0.0003118665 -0.0019183363 0.0017270981 0.0006683151
0001d0 be f1 20 3b 77 0a 30 3b 59 42 26 3a 3c f0 1f 3b
       0.0024558152 0.0026861706 0.0006342284 0.0024404665
0001e0 bb d7 4e bb e8 45 81 bb 26 96 99 bb 5d 8b 05 bb
       -0.003156169 -0.003945101 -0.0046870885 -0.0020377256
0001f0 b4 e7 4c 3b af b7 0b 3a 4e be 4d 3b 33 36 40 3a
       0.0031266036 0.00053298 0.0031393948 0.0007332295
000200 7a c9 be 3a 03 58 e7 3a 75 ec a5 3a 45 1c d3 ba
       0.0014555894 0.0017650131 0.0012658971 -0.0016106447
000210 ee e1 91 ba 3b 40 89 3b e5 44 72 3b 09 57 f7 ba
       -0.0011129954 0.004188565 0.0036967334 -0.0018870543
000220 8d 47 93 3b 2d 91 9a ba 7f 7c 60 3d c7 d1 49 3b
       0.0044946135 -0.0011792533 0.05480623 0.0030795203
000230 59 3b 20 3a ce 47 e6 3c da 72 72 bd 27 07 d5 bb
       0.0006112359 0.028110411 -0.059191562 -0.0065010968
000240 36 d8 72 bc d9 d6 4d 3d c5 60 55 bd 76 5e a3 bd
       -0.0148220565 0.050253723 -0.05209424 -0.07977001
000250 5b 47 ce 38 b2 48 38 b8 4d 95 95 3b 23 5d 39 bb
       9.8361365e-05 -4.393672e-05 0.004564917 -0.0028284274
000260 93 0e c3 b9 34 73 aa ba 5b d1 25 3b b6 b7 1b 3d
       -0.00037204157 -0.0013004304 0.0025301788 0.038016997
000270 62 6e 4a 3d 24 ae 9b 3c 66 01 4f 3d e9 d6 af 3d
       0.049421676 0.019003935 0.050538443 0.08585913
000280 c9 23 1e 3d 49 c8 6f 39 79 9b 0d 3b 6b a4 1d bb
       0.038608346 0.00022867428 0.0021607562 -0.00240543
000290 d4 8f 0d 3b 51 52 2d bb 3c b8 33 bb ef fb 26 bb
       0.002160062 -0.002644677 -0.0027423045 -0.0025479754
0002a0 e8 f7 4c bb ab 89 27 3b c4 f0 2b b9 31 64 25 bb
       -0.0031275693 0.0025564234 -0.00016397523 -0.002523672
0002b0 06 b5 83 3b ac 56 06 ba cf da 5a bb 47 a4 c0 b9
       0.0040193824 -0.00051246095 -0.003339458 -0.0003674349
0002c0 cc 3f 3c bb 3a 0d eb 38 5e 66 26 3b 38 c5 b5 39
       -0.002872455 0.00011208137 0.0025390605 0.0003466995
0002d0 90 c2 c0 ba de be 29 3b a5 78 63 3b b2 38 9c bb
       -0.0014706422 0.002590112 0.003470936 -0.004767501
0002e0 9c cd 6b 3b 10 c1 7f bb c7 84 50 3b 17 79 8b 3b
       0.0035980707 -0.0039024986 0.0031817423 0.0042563784
0002f0 17 31 4b bb 0d 6d a7 3b d9 74 05 3a a1 fb 25 39
       -0.0031004602 0.0051094354 0.0005090959 0.00015829365
000300 16 6c 30 ba c5 62 39 3b e2 bd 91 bd 26 27 85 bd
       -0.0006729973 0.002828763 -0.071162954 -0.065016076
000310 11 fd 58 39 ba db 59 3d d6 7d 6f 3d 72 f3 f6 ba
       0.0002069364 0.053188063 0.058469616 -0.0018840863
000320 53 89 d5 3a 22 e2 4d 3b b7 b0 c7 ba ab 13 d3 39
       0.0016291536 0.0031415303 -0.001523516 0.0004025971
000330 0d b1 40 3b ba 88 59 3a f5 73 f0 ba 7c e7 1f bb
       0.0029402405 0.0008298267 -0.0018345105 -0.002439945
000340 8c 2e 54 ba 8e 1f 9a ba fa 8d 7e 3b 5c ae 6f bb
       -0.0008094094 -0.0011758672 0.003884195 -0.0036572432
000350 d4 92 37 ba c7 e8 3b bb 97 a2 7f bb 98 c6 3a 3b
       -0.0007002775 -0.0028672682 -0.0039006823 0.0028499719
000360 ea cf 19 3b f7 71 06 bb 8c 9a 7c ba a0 32 80 b9
       0.0023469874 -0.0020514706 -0.00096360664 -0.0002445178
000370 0b 29 16 bb 08 21 25 3b e3 2a ae bc 93 85 41 3d
       -0.0022912647 0.002519669 -0.021260684 0.047246527
000380 87 90 2c bb 25 9c 84 3b 5d fa 5f bb 65 69 96 b9
       -0.0026331262 0.004046934 -0.0034176328 -0.00028688755
000390 c9 71 38 3b 1f 9c 1e 3b 67 19 bc 3b 28 f3 5c bb
       0.0028143993 0.0024201942 0.005740333 -0.0033714268
0003a0 b0 ec 6c bb 48 da 92 3b 4b 8b 5d 3b c3 2a e2 b9
       -0.003615182 0.0044815876 0.003380495 -0.0004313794
0003b0 dd d8 87 3b 6a 8b 64 bb 89 2c 65 ba ed f3 af 3a
       0.004145725 -0.0034873136 -0.0008742293 0.0013424136
0003c0 ff 77 34 bb 0c a0 1d b9 26 a4 1a bb 49 c6 4a 3b
       -0.0027537344 -0.00015032309 -0.0023596375 0.003094094
0003d0 05 33 57 bd 6e f4 49 3c 52 6e c6 3d ae 4d d2 bb
       -0.05253889 0.012326343 0.09689011 -0.0064179515
0003e0 e0 02 81 bd ff c5 98 3d 5b f3 98 bd 22 e1 8f bd
       -0.062993765 0.0745964 -0.07468291 -0.070253626
0003f0 d7 f3 97 3d 70 04 f1 3b 34 ff 8a bd 6d 2b a3 3b
       0.07419556 0.0073552653 -0.067869574 0.004979542

std_layer_1.std f4 [6957]
000000 ed 88 5d 3b dd 12 82 3d a4 e7 13 3e b2 75 41 3e
       0.0033803538 0.06351254 0.14443833 0.18892553
000010 1b 97 17 3e f7 4b a2 3c 50 f0 a2 3c 11 25 0f 3e
       0.14803736 0.019811613 0.01988998 0.13978983
000020 36 d8 2f 3c b3 69 b7 3d 4e 66 02 3e 61 fa c8 3d
       0.010732701 0.089557074 0.12734339 0.09813381
000030 2d 80 e4 3d cf 9c 10 3e cc bd 23 3d d2 6a 9a 3d
       0.1115726 0.14122318 0.039975926 0.075399056
000040 f1 e1 08 3e 0a 9f 9b 3c 87 c5 a7 3c 19 65 b3 3d
       0.1336744 0.018996734 0.02047993 0.08759517
000050 a2 20 b6 3d b0 cf a4 3b 68 db 96 3d e4 1f 35 3e
       0.08892943 0.005029641 0.07366067 0.17687947
000060 a7 36 40 3e 2f e5 a1 3d e7 f3 be 3d 45 fb b2 3d
       0.18770848 0.079050414 0.093238644 0.08739332
000070 34 58 04 3e 6d 5d 88 3d c9 41 fb 3d 38 d6 e1 3d
       0.12924272 0.066584446 0.12268407 0.11027187
000080 cb 8d 10 3e 08 d5 1c 3e 4b 0d 13 3e de 37 97 3d
       0.1411659 0.1531564 0.1436054 0.07383703
000090 3f 89 f0 3c c2 24 1e 3c 87 8b 19 3e 58 db 29 3e
       0.029362319 0.009652318 0.14994632 0.16587579
0000a0 dc af 62 3e 54 d1 da 3c 0b 71 dd 3d 1f ab 11 3e
       0.22137398 0.026711144 0.10812577 0.14225434
0000b0 a4 22 f0 3d 51 8c 02 3e 9d ab 5d 3d 31 75 f0 3d
       0.11725357 0.12748839 0.05411874 0.117411025
0000c0 c2 87 25 3d 66 ee 2c 3e 1f 45 1c 3e 9b 4e 70 3d
       0.040412672 0.16887817 0.15260743 0.058668714
0000d0 50 e4 68 3d 5b 2a a3 3e f7 73 31 3c 97 7b 36 3e
       0.05685836 0.31868252 0.010830871 0.17820583
0000e0 17 c9 31 3e 1a d9 2c 3c 02 f1 33 3e 58 14 b4 3c
       0.17361866 0.010549808 0.17572406 0.021982357
0000f0 5f 57 22 3e 37 9f 22 3e 0b f3 46 3e 11 71 47 3e
       0.15853642 0.15881048 0.19428651 0.19476725
000100 a4 ff 5d 3d fa 37 0a 3e 31 b5 e2 3d dc 79 2e 3f
       0.054198876 0.13497916 0.11069716 0.6815469
000110 07 72 2a 3f 91 45 4d 3c 79 f4 fa 3e 87 e5 0d 3e
       0.6658024 0.012528793 0.49014643 0.13857089
000120 8b db 1b 3f 4b 76 85 3d 82 8c 04 3e e8 c1 2a 3e
       0.6088187 0.06516703 0.12944224 0.16675532
000130 c6 2a de 3b 78 7e 11 3d a1 26 a2 3c 44 04 2d 3e
       0.0067800013 0.035521 0.01979381 0.16896158
000140 32 17 c3 3d 59 19 3b 3d ab bc f5 3e d7 82 8b 3d
       0.095259085 0.04567847 0.47995505 0.06812065
000150 e8 17 ad 3d 32 0a 4d 3d d7 06 d6 3c a5 78 f5 3d
       0.084518254 0.05005855 0.026126308 0.11985902
000160 0e 80 df 3d b5 e0 0f 3e 5d c0 a3 3d 27 10 27 3e
       0.10913096 0.14050563 0.07995675 0.16314755
000170 96 74 13 3d ac 46 9a 3d 3d 07 15 3c 73 45 f9 3d
       0.035999857 0.07533011 0.009095964 0.121714495
000180 93 ab 3a 3d 57 e8 b1 3d e2 d3 ae 3d f6 bb f8 3d
       0.045573782 0.086868934 0.08536507 0.12145226
000190 7c b7 13 3e 30 7b 56 3d 82 54 08 3e c3 e8 0f 3e
       0.14425462 0.052363575 0.13313487 0.14053635
0001a0 d3 e7 81 3e c2 45 49 3e 93 4f 9a 3c 4a 61 1b 3e
       0.2537218 0.19655517 0.018836772 0.15173832
0001b0 76 4d c5 3c dd 34 34 3e c2 0e 51 3e 81 e4 5a 3e
       0.024084788 0.1759829 0.20415786 0.2137623
0001c0 d3 1b 05 3c c3 54 c0 3d e2 b5 54 3d 73 2b 4c 3d
       0.00812431 0.09391167 0.05193127 0.049846124
0001d0 8a 5b a4 3d a2 9c fd 3d da 56 47 3c 8c 88 e6 3d
       0.08025272 0.12383391 0.012166703 0.11256513
0001e0 d3 a1 be 3d 8d 32 20 3e 87 1f 75 3e df 39 df 3d
       0.09308209 0.15644284 0.23937808 0.1089971
0001f0 c1 d1 13 3e 2f 36 57 3c 24 74 bc 3d 81 93 c8 3c
       0.14435484 0.013135477 0.092018396 0.024484398
000200 5e 78 cb 3d 39 d5 95 3d 59 f5 77 3d 70 a7 88 3d
       0.099350676 0.073160596 0.060536716 0.06672561
000210 c9 de 88 3d d3 a8 33 3e 75 b0 05 3e a3 b4 e0 3d
       0.06683118 0.1754487 0.13055594 0.10971954
000220 39 bb 53 3e 78 b2 18 3d 3f a4 03 3f c7 9e 1f 3d
       0.20676889 0.037279576 0.51422495 0.03896978
000230 f8 75 bd 3b c6 d4 86 3e 30 75 0d 3f bb bb 77 3d
       0.0057818852 0.26334208 0.5525694 0.060481768
000240 00 ad 11 3e 2b fe f0 3e 88 4b fb 3e 9e 4d 47 3f
       0.1422615 0.47068915 0.49081063 0.7785281
000250 21 59 ef 3b 34 7b f4 3c 0f cc 1e 3e ea 15 97 3d
       0.007304326 0.029843904 0.1550753 0.07377227
000260 1d 7e 99 3d df e9 68 3d f1 b6 05 3e 6a ac b8 3e
       0.07494757 0.05686366 0.13058068 0.36069041
000270 22 e4 ef 3e b2 41 37 3e 30 ec f3 3e 98 c2 4f 3f
       0.4685374 0.17896155 0.47641134 0.811563
000280 ce a2 bb 3e dc 26 22 3d 18 07 8a 3d 36 30 d5 3d
       0.36647648 0.03958784 0.06739634 0.10409586
000290 96 37 cc 3d d8 31 fa 3d 3b 9c 01 3e a2 7c f0 3d
       0.0997154 0.12216538 0.12657253 0.11742522
0002a0 7f 2e 1e 3e d6 3c a1 3d 12 fe 87 3b 39 ee ed 3d
       0.15447424 0.07872932 0.0041501606 0.11617703
0002b0 58 d8 3a 3e 37 2e 18 3c 16 78 31 3e a0 06 9d 3c
       0.18246591 0.009288362 0.17330965 0.019168198
0002c0 6b 81 2d 3e aa 87 3c 3d d6 11 ce 3d b9 53 16 3d
       0.169439 0.046027817 0.10061996 0.036700938
0002d0 65 a0 bd 3d da 27 5f 3e 8b 08 05 3e ea 11 9c 3e
       0.092591085 0.21792546 0.1299154 0.30482417
0002e0 81 1c 9f 3e e9 17 47 3e 5f 62 4e 3e 1f 81 3f 3d
       0.31076434 0.19442715 0.20154713 0.046754
0002f0 cf d3 da 3d b3 7c 2f 3e ee bc 0a 3d 3e 9b 99 3d
       0.106849305 0.17137413 0.033871584 0.07500313
000300 3c 8d 29 3d 79 62 20 3e a1 2e 2f 3f 1d 19 2f 3f
       0.041394457 0.15662564 0.68430525 0.68397695
000310 01 b3 d2 3b 0d 76 06 3f f7 d4 19 3f 06 52 a3 3d
       0.0064300303 0.5252388 0.60090584 0.07974629
000320 c1 2d 40 3d 4c 4b 03 3e c3 1d 08 3d e7 02 08 3d
       0.046918634 0.12821692 0.033231508 0.033205893
000330 4a 9b 0a 3e ba 6d 9a 3c 6b 48 6e 3d 13 2b c8 3d
       0.135358 0.01885115 0.058174532 0.09773841
000340 9f d0 6c 3d db 1d b8 3d 58 38 26 3e 3f 2d 09 3e
       0.057816144 0.089900695 0.16232431 0.13396166
000350 53 7d 67 3d a8 27 b2 3d b7 8d 4d 3e 82 01 b5 3d
       0.056516003 0.0869897 0.20073591 0.08838178
000360 c2 72 d4 3d 00 3e d0 3d 5a 72 71 3d 1c 18 ef 3c
       0.10373451 0.101680756 0.058946945 0.029186301
000370 51 bf b8 3d 07 ed 14 3e b9 27 60 3e 7c 02 fe 3e
       0.09020866 0.14543544 0.21890153 0.4961127
000380 68 18 f8 3d 7e ed 24 3e 5f 5c 0e 3e ec 1e 65 3c
       0.1211403 0.16106221 0.13902424 0.013984423
000390 a5 5f 28 3e 97 00 d3 3c f1 f4 53 3e f2 01 15 3e
       0.16442735 0.025757117 0.20698906 0.14551523
0003a0 49 f3 cf 3d a3 41 2d 3e 01 9a cb 3d 56 e3 d5 3b
       0.10153825 0.1691957 0.09941483 0.0065273447
0003b0 9f 4e 1a 3e 4f a4 16 3e 9d 28 f3 3c df a1 38 3d
       0.15069054 0.14711116 0.029682452 0.045076247
0003c0 f5 a9 e4 3d 7b 27 5a 3b e6 de da 3d a2 b0 11 3e
       0.11165229 0.0033287692 0.10687046 0.14227536
0003d0 ae 76 fe 3e d1 4d ed 3d 8b ef 69 3f eb 3c 82 3d
       0.4969992 0.11587108 0.9138114 0.063592754
0003e0 d5 09 19 3f 02 42 37 3f 4c d1 35 3f ac 16 29 3f
       0.5978063 0.71585095 0.71022487 0.6605022
0003f0 8c 45 35 3f d4 9c db 3d 57 c5 22 3f 1b ad 67 3d
       0.70809245 0.10723272 0.63582367 0.05656157

std_layer_2.mean f4 [4]
000000 fb 3f 02 b5 76 69 2f b4 28 56 7b b2 c5 a0 eb 32
       -4.852188e-07 -1.6336512e-07 -1.46297126e-08 2.743071e-08

std_layer_2.std f4 [4]
000000 90 74 93 42 b2 f5 16 42 0b 66 fb 40 c8 e9 97 40
       73.72766 37.739937 7.8562064 4.7472878

std_layer_u.mean f4 [2]
000000 a0 48 36 41 a7 6e 16 41
       11.392731 9.402015

std_layer_u.std f4 [2]
000000 cc 52 4a 43 54 3c 4a 43
       202.32343 202.23566

pca_layer.inverse_transform.weight f4 [6957, 4]
000000 75 48 a5 ba 2f fe d6 bc 60 62 76 3b 09 25 43 3c
       -0.0012610095 -0.026244251 0.0037595257 0.011910685
000010 4d d4 15 3c 78 44 a0 3c bf 0e c5 ba 0b 1e 4f 3a
       0.009144855 0.019563898 -0.0015034302 0.00079009
000020 9e e9 17 bc 9c 5e 9e bc e2 bc 02 3b 15 49 b7 ba
       -0.009272007 -0.019332223 0.0019949009 -0.0013983572
000030 53 ec 17 bc 1f 5c 9e bc 60 b9 02 3b 1b 4e b7 ba
       -0.009272653 -0.019331036 0.0019946918 -0.0013985069
000040 9e 35 15 3c d0 cb a0 3c c4 f6 0c bb af af 9a 3a
       0.009107022 0.019628435 -0.0021509388 0.0011801625
000050 66 3d 1f 3c 12 3b 97 3c 19 5f 3d bb 2e 5c 55 3b
       0.009719228 0.018460784 -0.0028895794 0.0032556164
000060 5a 39 36 3c c4 bb 77 3c 75 87 3d bb 62 1e db 3b
       0.011122072 0.01512045 -0.002891985 0.0066869715
000070 9d 73 1a bc 63 00 9c bc 5f 3f 05 3b 8a 9a e9 ba
       -0.009426978 -0.019043153 0.0020331962 -0.0017822545
000080 15 ea 5b 3c a5 50 7e 3a e7 bc 04 bc d9 a4 9f 3c
       0.013422509 0.0009701348 -0.008101678 0.019487785
000090 1c 1d 0c bc e6 72 a8 bc 8c c3 df 3a 10 af 8c 39
       -0.008551862 -0.0205626 0.0017071827 0.00026833313
0000a0 2f fa 17 3c 75 4f 9e 3c 51 a0 02 bb bc 4f b7 3a
       0.009275957 0.019324997 -0.0019931982 0.0013985555
0000b0 24 2d 22 bc 03 4d 94 bc 6a 9b 0f 3b 53 6b 40 bb
       -0.009898458 -0.018103128 0.0021912702 -0.0029360845
0000c0 c6 0e 12 bc c6 87 a3 bc 5f e7 11 3b 5c 18 54 ba
       -0.008914655 -0.019962203 0.0022263152 -0.0008090788
0000d0 5c f6 17 3c f5 52 9e 3c 29 a7 02 bb 7b 21 b7 3a
       0.009275045 0.019326666 -0.001993606 0.001397177
0000e0 3f 10 2b bc 0d 57 8a bc 55 b4 35 3b 1d ae 95 bb
       -0.010440885 -0.016887212 0.0027725894 -0.004567875
0000f0 f4 6b 18 3c e0 e9 9d 3c 95 2f c6 ba d1 25 99 3a
       0.009303082 0.01927656 -0.0015120382 0.0011684244
000100 de f2 17 bc 31 56 9e bc 0f 77 02 3b f2 fd b6 ba
       -0.009274213 -0.019328209 0.001990739 -0.001396118
000110 c5 c4 23 3c 24 84 92 3c 7f 9c 4c bb a4 f0 5e 3b
       0.009995644 0.017885275 -0.0031221209 0.0034017945
000120 da ee 19 bc 89 49 9c bc 6c 84 67 3b a8 51 29 bb
       -0.009395326 -0.019078033 0.0035326732 -0.0025836024
000130 0a 1b 0c 3c 49 73 a8 3c e7 09 f1 ba ea 87 df b9
       0.0085513685 0.020562785 -0.0018389792 -0.00042635138
000140 fe 93 26 3c 3a 88 8f 3c a0 9f 16 bb 8c 56 7f 3b
       0.01016712 0.017521013 -0.0022983328 0.0038961498
000150 32 cf 3f bc a9 f6 55 bc f5 3d 01 3c 40 78 25 bc
       -0.011707114 -0.013059297 0.007888307 -0.010099471
000160 f8 7b 0c 3c 0b 26 a8 3c 36 67 f4 ba cf 99 59 b9
       0.008574478 0.020525953 -0.0018646482 -0.00020752031
000170 bf a0 14 3c fb 4e a1 3c 9e dd 0f bb 7b 50 8d 3a
       0.009071528 0.019690981 -0.0021952162 0.0010781431
000180 b5 3f 13 3c b0 87 a2 3c bd 96 f3 ba 57 7c 40 3a
       0.008987357 0.019840091 -0.0018584352 0.0007342747
000190 99 fc 06 3c e1 66 ac 3c 29 1b a3 ba a5 29 9a ba
       0.008238935 0.02104515 -0.0012444007 -0.0011761679
0001a0 33 a7 24 3c bb a6 91 3c 4b ea 18 bb 36 15 5e 3b
       0.010049629 0.017779699 -0.002333301 0.0033887154
0001b0 4e 3b 0b 3c 1a 28 a9 3c 04 55 8e ba 49 13 0c ba
       0.008498026 0.020649005 -0.0010859077 -0.000534345
0001c0 75 f6 17 3c df 52 9e 3c 64 a1 02 bb 98 ec b6 3a
       0.0092750685 0.019326625 -0.0019932622 0.0013956008
0001d0 64 3a 23 3c 5f 16 93 3c 72 b9 58 bb 3f 70 5b 3b
       0.009962652 0.017955003 -0.0033069518 0.0033483652
0001e0 20 0a 18 bc cb 40 9e bc da e0 02 3b 70 76 b8 ba
       -0.009279758 -0.019318005 0.0019970448 -0.0014073383
0001f0 d8 28 13 3c 31 96 a2 3c 94 ca 11 bb 13 a6 5c 3a
       0.008981906 0.019847007 -0.002224599 0.0008417081
000200 1f f7 17 bc 48 52 9e bc 5e 8c 02 3b a0 85 b7 ba
       -0.009275227 -0.019326344 0.001992009 -0.0014001615
000210 08 06 10 3c 6d 44 a5 3c f7 cf f0 ba 58 34 a6 39
       0.0087905 0.02017423 -0.0018372525 0.00031700986
000220 e5 25 12 bc 3e 7c a3 bc 30 e6 d1 3a 1d a4 17 ba
       -0.008920168 -0.019956704 0.0016014036 -0.00057846477
000230 a2 4f 0c 3c ad 4e a8 3c 2a 97 95 ba 93 80 49 b9
       0.008563908 0.020545328 -0.0011412848 -0.00019216751
000240 e3 28 37 3c b7 8f 74 3c 44 aa 9c bb f2 87 d9 3b
       0.011179182 0.014926842 -0.0047810394 0.0066385204
000250 60 c4 00 bc 46 da b0 bc 6a 24 c0 3a 13 49 58 3a
       -0.007859319 -0.021588456 0.001465929 0.0008250635
000260 42 11 18 bc 1f 3a 9e bc 70 6f 03 3b 9e 28 b9 ba
       -0.009281458 -0.019314824 0.0020055436 -0.0014126485
000270 81 e6 18 3c e8 76 9d 3c d4 28 f0 ba dc ec cf 3a
       0.0093323 0.019221738 -0.0018322715 0.0015863436
000280 3b c5 19 bc c2 a6 9c bc 14 fe f6 3a a9 52 d1 ba
       -0.009385402 -0.019122485 0.0018844032 -0.0015970069
000290 ea 01 2e 3c 93 cf 86 3c 76 4b 16 bb 5d 94 a4 3b
       0.010620574 0.016456401 -0.0022933162 0.005022569
0002a0 ca 46 17 bc 38 f2 9e bc f6 28 08 3b a9 38 af ba
       -0.009233186 -0.019402608 0.0020776368 -0.0013368326
0002b0 fe e8 17 bc 3e 5f 9e bc 76 71 02 3b 5a cb b6 ba
       -0.009271858 -0.019332524 0.0019904054 -0.0013946102
0002c0 31 4f 1a 3c cb 23 9c 3c 84 96 00 bb db c3 e1 3a
       0.009418295 0.019060036 -0.0019620964 0.0017224507
0002d0 a0 fc 17 bc 40 4d 9e bc d5 5f 02 3b b1 46 b7 ba
       -0.009276539 -0.019323945 0.0019893546 -0.001398286
0002e0 0a 5e 09 3c e9 98 aa 3c dd c3 57 ba aa af 78 ba
       0.008384237 0.020824866 -0.0008230785 -0.0009486625
0002f0 06 07 18 bc ae 43 9e bc c3 94 02 3b 9a 10 b8 ba
       -0.009279018 -0.019319382 0.0019925095 -0.0014043034
000300 4b f9 20 3c 03 8d 95 3c f8 e5 0e bb 46 31 34 3b
       0.009825061 0.018255716 -0.0021804553 0.002749519
000310 e7 3d 14 bc 00 a5 a1 bc 10 52 11 3b 13 f9 85 ba
       -0.009047962 -0.019731998 0.0022174157 -0.0010221325
000320 3d 32 15 3c 32 d2 a0 3c 35 2c ff ba 16 66 80 3a
       0.009106216 0.019631479 -0.0019468131 0.0009796049
000330 ea eb 17 bc 9e 57 9e bc 9a ba 17 3b ca e7 c5 ba
       -0.009272555 -0.019328889 0.0023151995 -0.0015098986
000340 1c b6 26 3c 9d 67 8f 3c 52 37 05 bb 0d 97 76 3b
       0.010175254 0.017505461 -0.0020327163 0.0037626654
000350 71 bf 11 3c 03 cf a3 3c d4 2f 06 bb c1 f0 14 3a
       0.008895741 0.019996172 -0.0020475285 0.0005681627
000360 b8 c8 83 3b 5d 68 cd bc 15 c2 1f bb 3b 03 b7 3c
       0.0040217303 -0.025074178 -0.0024377157 0.022340408
000370 a9 c1 1b 3c df c0 9a 3c 42 a0 04 bb 52 17 0a 3b
       0.009506621 0.018890796 -0.0020237123 0.002107103
000380 34 73 1d bc aa 1c 99 bc f9 c2 fe 3a 46 88 0f bb
       -0.009609986 -0.018690426 0.0019436768 -0.0021901294
000390 6a 8e 57 3c 43 7b c6 3b fe 3b 58 bb 6d 92 6e 3c
       0.013156513 0.0060571744 -0.0032994743 0.014561278
0003a0 45 a6 17 bc 5a 9c 9e bc b6 e0 ff 3a 59 87 bf ba
       -0.00925595 -0.019361664 0.0019521925 -0.001461248
0003b0 f2 df 3b 3c b4 e0 66 3c 88 f6 48 bb 90 49 f8 3b
       0.011466967 0.014091659 -0.0030664522 0.0075771287
0003c0 41 ca 15 bc 4e 4a a0 bc c8 77 01 3b dd a7 96 ba
       -0.009142459 -0.019566681 0.0019755233 -0.0011494119
0003d0 a3 14 14 bc d8 cc a1 bc e7 79 02 3b 92 33 68 ba
       -0.009038123 -0.019750997 0.0019909085 -0.0008857782
0003e0 7f 8b 15 bc fe 83 a0 bc 83 5d f1 3a 08 45 83 ba
       -0.009127497 -0.019594189 0.001841471 -0.001001508
0003f0 67 2d 1b 3c c0 4e 9b 3c be fa 04 bb 7c 39 07 3b
       0.009471274 0.01895845 -0.0020291056 0.0020633629
