sensor_case/outputs/experiment6/rescale_pca_layer.pth (torch, 170162 bytes, 7 tensors)

std_layer_1.mean f4 [6957]
0	0x39203fdb	0.00015282577
1	0x3aa9649c	0.0012923661
2	0xbb4cd728	-0.0031256173
3	0xbb860220	-0.004089609
4	0x3b416fb3	0.002951604
5	0x3a0893f2	0.0005210034
6	0x3a5ce699	0.0008426696
7	0xbb54fa4a	-0.0032497817
8	0x3a7248b5	0.00092424016
9	0xbaa8b94b	-0.0012872604
10	0x3b34f1c2	0.002760992
11	0xbb35f4f2	-0.0027764407
12	0xbb036b6d	-0.0020053044
13	0x3b48956b	0.0030606638
14	0xbab3fc18	-0.0013731746
15	0x3ad9351e	0.0016571616
16	0xbb3dc843	-0.0028958477
17	0x3a12496b	0.0005580398
18	0xb9f5fb03	-0.0004691706
19	0x3aa51d97	0.001259732
20	0x3b35f2c7	0.0027763115
21	0xb984754d	-0.00025264398
22	0x3a8cfea0	0.0010757037
23	0x3b62e346	0.0034620329
24	0x3b665c23	0.0035150133
25	0x3a6b9137	0.0008986177
26	0x3b36d6f6	0.0027899123
27	0x3a9f0dec	0.0012134886
28	0x3b379257	0.002801081
29	0x3afc7fa5	0.0019264115
30	0xbb2ea3de	-0.0026647965
31	0x3b06ea63	0.0020586483
32	0xbb4883e3	-0.0030596189
33	0x3b282e8d	0.0025662512
34	0xbb29ffb6	-0.002593977
35	0x3a8cc0cd	0.0010738611
36	0x3aa5a1ac	0.0012636683
37	0xb89d361f	-7.496424e-05
38	0xbb559e51	-0.0032595585
39	0x3b722684	0.0036949227
40	0xbba59c66	-0.0050540445
41	0x3a7f5217	0.00097397104
42	0xbb167c73	-0.002296236
43	0xbb49bb22	-0.0030781706
44	0x3b31f8e9	0.0027156419
45	0xbb3533ef	-0.0027649363
46	0x3a358c05	0.00069254666
47	0xbb2713b6	-0.0025493926
48	0x3a91ab87	0.0011113741
49	0xbb560601	-0.0032657387
50	0x3b476599	0.0030425547
51	0xbaa662ce	-0.0012694241
52	0x3ae9795f	0.0017812661
53	0x3bb9d929	0.0056716395
54	0x3a5cba06	0.00084200536
55	0x3b8cac67	0.004293013
56	0xbb8f5bef	-0.004374973
57	0x3a4df6a6	0.0007856883
58	0xbb77530d	-0.003773871
59	0x3a86fa90	0.0010298062
60	0xbb530483	-0.0032198734
61	0xbb483f7f	-0.0030555425
62	0xbb805741	-0.0039166515
63	0x3b975df6	0.0046193553
64	0x3a910d3e	0.0011066569
65	0xbb404699	-0.0029338954
66	0x3b23da4c	0.0025001941
67	0xbd93e2a0	-0.0722096
68	0x3d90b54a	0.07065828
69	0xbab08020	-0.0013465919
70	0x3d56659e	0.052343003
71	0xbc72b477	-0.014813534
72	0xbd851f50	-0.06500113
73	0xbae8ff05	-0.0017776197
74	0xbb3829e4	-0.002810114
75	0x3b69eb9c	0.0035693413
76	0x399aed3c	0.00029549922
77	0x3aa791d9	0.0012784555
78	0xba9c70c2	-0.001193546
79	0x3b8c3b0f	0.0042795013
80	0x3af382be	0.0018578393
81	0x3b912696	0.0044296486
82	0xbd4f581b	-0.050621133
83	0x39926f50	0.00027930224
84	0x3af7dbc6	0.0018910102
85	0xbac06c3c	-0.0014680694
86	0x3a50b975	0.00079622056
87	0xbb3d64d2	-0.0028899205
88	0x3b1af94b	0.0023647125
89	0x3b34b890	0.0027575828
90	0x3afdc773	0.0019361809
91	0xbb677fb7	-0.0035323927
92	0x3a4494a6	0.0007498957
93	0x3b05aec8	0.0020398367
94	0xb9fd9e8a	-0.0004837404
95	0xbb2cde38	-0.002637757
96	0x3a31dea0	0.0006785188
97	0x3b045d08	0.0020197053
98	0x3b230658	0.0024875607
99	0x3b015bfa	0.001973866
100	0xbb340e5a	-0.0027474375
101	0xbadc4d73	-0.001680775
102	0xbb1734d4	-0.002307226
103	0x3b2d0010	0.0026397742
104	0x3b923890	0.004462309
105	0x3b374360	0.0027963743
106	0xbadc3260	-0.0016799681
107	0x3b670b46	0.0035254522
108	0x3ac4e008	0.001502038
109	0xbb94501b	-0.004526151
110	0x3b561d4b	0.0032671269
111	0x3b846301	0.0040401225
112	0xb9a38203	-0.0003118665
113	0xbafb70af	-0.0019183363
114	0x3ae25fcc	0.0017270981
115	0x3a2f31de	0.0006683151
116	0x3b20f1be	0.0024558152
117	0x3b300a77	0.0026861706
118	0x3a264259	0.0006342284
119	0x3b1ff03c	0.0024404665
120	0xbb4ed7bb	-0.003156169
121	0xbb8145e8	-0.003945101
122	0xbb999626	-0.0046870885
123	0xbb058b5d	-0.0020377256
124	0x3b4ce7b4	0.0031266036
125	0x3a0bb7af	0.00053298
126	0x3b4dbe4e	0.0031393948
127	0x3a403633	0.0007332295
128	0x3abec97a	0.0014555894
129	0x3ae75803	0.0017650131
130	0x3aa5ec75	0.0012658971
131	0xbad31c45	-0.0016106447
132	0xba91e1ee	-0.0011129954
133	0x3b89403b	0.004188565
134	0x3b7244e5	0.0036967334
135	0xbaf75709	-0.0018870543
136	0x3b93478d	0.0044946135
137	0xba9a912d	-0.0011792533
138	0x3d607c7f	0.05480623
139	0x3b49d1c7	0.0030795203
140	0x3a203b59	0.0006112359
141	0x3ce647ce	0.028110411
142	0xbd7272da	-0.059191562
143	0xbbd50727	-0.0065010968
144	0xbc72d836	-0.0148220565
145	0x3d4dd6d9	0.050253723
146	0xbd5560c5	-0.05209424
147	0xbda35e76	-0.07977001
148	0x38ce475b	9.8361365e-05
149	0xb83848b2	-4.393672e-05
150	0x3b95954d	0.004564917
151	0xbb395d23	-0.0028284274
152	0xb9c30e93	-0.00037204157
153	0xbaaa7334	-0.0013004304
154	0x3b25d15b	0.0025301788
155	0x3d1bb7b6	0.038016997
156	0x3d4a6e62	0.049421676
157	0x3c9bae24	0.019003935
158	0x3d4f0166	0.050538443
159	0x3dafd6e9	0.08585913
160	0x3d1e23c9	0.038608346
161	0x396fc849	0.00022867428
162	0x3b0d9b79	0.0021607562
163	0xbb1da46b	-0.00240543
164	0x3b0d8fd4	0.002160062
165	0xbb2d5251	-0.002644677
166	0xbb33b83c	-0.0027423045
167	0xbb26fbef	-0.0025479754
168	0xbb4cf7e8	-0.0031275693
169	0x3b2789ab	0.0025564234
170	0xb92bf0c4	-0.00016397523
171	0xbb256431	-0.002523672
172	0x3b83b506	0.0040193824
173	0xba0656ac	-0.00051246095
174	0xbb5adacf	-0.003339458
175	0xb9c0a447	-0.0003674349
176	0xbb3c3fcc	-0.002872455
177	0x38eb0d3a	0.00011208137
178	0x3b26665e	0.0025390605
179	0x39b5c538	0.0003466995
180	0xbac0c290	-0.0014706422
181	0x3b29bede	0.002590112
182	0x3b6378a5	0.003470936
183	0xbb9c38b2	-0.004767501
184	0x3b6bcd9c	0.0035980707
185	0xbb7fc110	-0.0039024986
186	0x3b5084c7	0.0031817423
187	0x3b8b7917	0.0042563784
188	0xbb4b3117	-0.0031004602
189	0x3ba76d0d	0.0051094354
190	0x3a0574d9	0.0005090959
191	0x3925fba1	0.00015829365
192	0xba306c16	-0.0006729973
193	0x3b3962c5	0.002828763
194	0xbd91bde2	-0.071162954
195	0xbd852726	-0.065016076
196	0x3958fd11	0.0002069364
197	0x3d59dbba	0.053188063
198	0x3d6f7dd6	0.058469616
199	0xbaf6f372	-0.0018840863
200	0x3ad58953	0.0016291536
201	0x3b4de222	0.0031415303
202	0xbac7b0b7	-0.001523516
203	0x39d313ab	0.0004025971
204	0x3b40b10d	0.0029402405
205	0x3a5988ba	0.0008298267
206	0xbaf073f5	-0.0018345105
207	0xbb1fe77c	-0.002439945
208	0xba542e8c	-0.0008094094
209	0xba9a1f8e	-0.0011758672
210	0x3b7e8dfa	0.003884195
211	0xbb6fae5c	-0.0036572432
212	0xba3792d4	-0.0007002775
213	0xbb3be8c7	-0.0028672682
214	0xbb7fa297	-0.0039006823
215	0x3b3ac698	0.0028499719
216	0x3b19cfea	0.0023469874
217	0xbb0671f7	-0.0020514706
218	0xba7c9a8c	-0.00096360664
219	0xb98032a0	-0.0002445178
220	0xbb16290b	-0.0022912647
221	0x3b252108	0.002519669
222	0xbcae2ae3	-0.021260684
223	0x3d418593	0.047246527
224	0xbb2c9087	-0.0026331262
225	0x3b849c25	0.004046934
226	0xbb5ffa5d	-0.0034176328
227	0xb9966965	-0.00028688755
228	0x3b3871c9	0.0028143993
229	0x3b1e9c1f	0.0024201942
230	0x3bbc1967	0.005740333
231	0xbb5cf328	-0.0033714268
232	0xbb6cecb0	-0.003615182
233	0x3b92da48	0.0044815876
234	0x3b5d8b4b	0.003380495
235	0xb9e22ac3	-0.0004313794
236	0x3b87d8dd	0.004145725
237	0xbb648b6a	-0.0034873136
238	0xba652c89	-0.0008742293
239	0x3aaff3ed	0.0013424136
240	0xbb3477ff	-0.0027537344
241	0xb91da00c	-0.00015032309
242	0xbb1aa426	-0.0023596375
243	0x3b4ac649	0.003094094
244	0xbd573305	-0.05253889
245	0x3c49f46e	0.012326343
246	0x3dc66e52	0.09689011
247	0xbbd24dae	-0.0064179515
248	0xbd8102e0	-0.062993765
249	0x3d98c5ff	0.0745964
250	0xbd98f35b	-0.07468291
251	0xbd8fe122	-0.070253626
252	0x3d97f3d7	0.07419556
253	0x3bf10470	0.0073552653
254	0xbd8aff34	-0.067869574
255	0x3ba32b6d	0.004979542

std_layer_1.std f4 [6957]
0	0x3b5d88ed	0.0033803538
1	0x3d8212dd	0.06351254
2	0x3e13e7a4	0.14443833
3	0x3e4175b2	0.18892553
4	0x3e17971b	0.14803736
5	0x3ca24bf7	0.019811613
6	0x3ca2f050	0.01988998
7	0x3e0f2511	0.13978983
8	0x3c2fd836	0.010732701
9	0x3db769b3	0.089557074
10	0x3e02664e	0.12734339
11	0x3dc8fa61	0.09813381
12	0x3de4802d	0.1115726
13	0x3e109ccf	0.14122318
14	0x3d23bdcc	0.039975926
15	0x3d9a6ad2	0.075399056
16	0x3e08e1f1	0.1336744
17	0x3c9b9f0a	0.018996734
18	0x3ca7c587	0.02047993
19	0x3db36519	0.08759517
20	0x3db620a2	0.08892943
21	0x3ba4cfb0	0.005029641
22	0x3d96db68	0.07366067
23	0x3e351fe4	0.17687947
24	0x3e4036a7	0.18770848
25	0x3da1e52f	0.079050414
26	0x3dbef3e7	0.093238644
27	0x3db2fb45	0.08739332
28	0x3e045834	0.12924272
29	0x3d885d6d	0.066584446
30	0x3dfb41c9	0.12268407
31	0x3de1d638	0.11027187
32	0x3e108dcb	0.1411659
33	0x3e1cd508	0.1531564
34	0x3e130d4b	0.1436054
35	0x3d9737de	0.07383703
36	0x3cf0893f	0.029362319
37	0x3c1e24c2	0.009652318
38	0x3e198b87	0.14994632
39	0x3e29db58	0.16587579
40	0x3e62afdc	0.22137398
41	0x3cdad154	0.026711144
42	0x3ddd710b	0.10812577
43	0x3e11ab1f	0.14225434
44	0x3df022a4	0.11725357
45	0x3e028c51	0.12748839
46	0x3d5dab9d	0.05411874
47	0x3df07531	0.117411025
48	0x3d2587c2	0.040412672
49	0x3e2cee66	0.16887817
50	0x3e1c451f	0.15260743
51	0x3d704e9b	0.058668714
52	0x3d68e450	0.05685836
53	0x3ea32a5b	0.31868252
54	0x3c3173f7	0.010830871
55	0x3e367b97	0.17820583
56	0x3e31c917	0.17361866
57	0x3c2cd91a	0.010549808
58	0x3e33f102	0.17572406
59	0x3cb41458	0.021982357
60	0x3e22575f	0.15853642
61	0x3e229f37	0.15881048
62	0x3e46f30b	0.19428651
63	0x3e477111	0.19476725
64	0x3d5dffa4	0.054198876
65	0x3e0a37fa	0.13497916
66	0x3de2b531	0.11069716
67	0x3f2e79dc	0.6815469
68	0x3f2a7207	0.6658024
69	0x3c4d4591	0.012528793
70	0x3efaf479	0.49014643
71	0x3e0de587	0.13857089
72	0x3f1bdb8b	0.6088187
73	0x3d85764b	0.06516703
74	0x3e048c82	0.12944224
75	0x3e2ac1e8	0.16675532
76	0x3bde2ac6	0.0067800013
77	0x3d117e78	0.035521
78	0x3ca226a1	0.01979381
79	0x3e2d0444	0.16896158
80	0x3dc31732	0.095259085
81	0x3d3b1959	0.04567847
82	0x3ef5bcab	0.47995505
83	0x3d8b82d7	0.06812065
84	0x3dad17e8	0.084518254
85	0x3d4d0a32	0.05005855
86	0x3cd606d7	0.026126308
87	0x3df578a5	0.11985902
88	0x3ddf800e	0.10913096
89	0x3e0fe0b5	0.14050563
90	0x3da3c05d	0.07995675
91	0x3e271027	0.16314755
92	0x3d137496	0.035999857
93	0x3d9a46ac	0.07533011
94	0x3c15073d	0.009095964
95	0x3df94573	0.121714495
96	0x3d3aab93	0.045573782
97	0x3db1e857	0.086868934
98	0x3daed3e2	0.08536507
99	0x3df8bbf6	0.12145226
100	0x3e13b77c	0.14425462
101	0x3d567b30	0.052363575
102	0x3e085482	0.13313487
103	0x3e0fe8c3	0.14053635
104	0x3e81e7d3	0.2537218
105	0x3e4945c2	0.19655517
106	0x3c9a4f93	0.018836772
107	0x3e1b614a	0.15173832
108	0x3cc54d76	0.024084788
109	0x3e3434dd	0.1759829
110	0x3e510ec2	0.20415786
111	0x3e5ae481	0.2137623
112	0x3c051bd3	0.00812431
113	0x3dc054c3	0.09391167
114	0x3d54b5e2	0.05193127
115	0x3d4c2b73	0.049846124
116	0x3da45b8a	0.08025272
117	0x3dfd9ca2	0.12383391
118	0x3c4756da	0.012166703
119	0x3de6888c	0.11256513
120	0x3dbea1d3	0.09308209
121	0x3e20328d	0.15644284
122	0x3e751f87	0.23937808
123	0x3ddf39df	0.1089971
124	0x3e13d1c1	0.14435484
125	0x3c57362f	0.013135477
126	0x3dbc7424	0.092018396
127	0x3cc89381	0.024484398
128	0x3dcb785e	0.099350676
129	0x3d95d539	0.073160596
130	0x3d77f559	0.060536716
131	0x3d88a770	0.06672561
132	0x3d88dec9	0.06683118
133	0x3e33a8d3	0.1754487
134	0x3e05b075	0.13055594
135	0x3de0b4a3	0.10971954
136	0x3e53bb39	0.20676889
137	0x3d18b278	0.037279576
138	0x3f03a43f	0.51422495
139	0x3d1f9ec7	0.03896978
140	0x3bbd75f8	0.0057818852
141	0x3e86d4c6	0.26334208
142	0x3f0d7530	0.5525694
143	0x3d77bbbb	0.060481768
144	0x3e11ad00	0.1422615
145	0x3ef0fe2b	0.47068915
146	0x3efb4b88	0.49081063
147	0x3f474d9e	0.7785281
148	0x3bef5921	0.007304326
149	0x3cf47b34	0.029843904
150	0x3e1ecc0f	0.1550753
151	0x3d9715ea	0.07377227
152	0x3d997e1d	0.07494757
153	0x3d68e9df	0.05686366
154	0x3e05b6f1	0.13058068
155	0x3eb8ac6a	0.36069041
156	0x3eefe422	0.4685374
157	0x3e3741b2	0.17896155
158	0x3ef3ec30	0.47641134
159	0x3f4fc298	0.811563
160	0x3ebba2ce	0.36647648
161	0x3d2226dc	0.03958784
162	0x3d8a0718	0.06739634
163	0x3dd53036	0.10409586
164	0x3dcc3796	0.0997154
165	0x3dfa31d8	0.12216538
166	0x3e019c3b	0.12657253
167	0x3df07ca2	0.11742522
168	0x3e1e2e7f	0.15447424
169	0x3da13cd6	0.07872932
170	0x3b87fe12	0.0041501606
171	0x3dedee39	0.11617703
172	0x3e3ad858	0.18246591
173	0x3c182e37	0.009288362
174	0x3e317816	0.17330965
175	0x3c9d06a0	0.019168198
176	0x3e2d816b	0.169439
177	0x3d3c87aa	0.046027817
178	0x3dce11d6	0.10061996
179	0x3d1653b9	0.036700938
180	0x3dbda065	0.092591085
181	0x3e5f27da	0.21792546
182	0x3e05088b	0.1299154
183	0x3e9c11ea	0.30482417
184	0x3e9f1c81	0.31076434
185	0x3e4717e9	0.19442715
186	0x3e4e625f	0.20154713
187	0x3d3f811f	0.046754
188	0x3ddad3cf	0.106849305
189	0x3e2f7cb3	0.17137413
190	0x3d0abcee	0.033871584
191	0x3d999b3e	0.07500313
192	0x3d298d3c	0.041394457
193	0x3e206279	0.15662564
194	0x3f2f2ea1	0.68430525
195	0x3f2f191d	0.68397695
196	0x3bd2b301	0.0064300303
197	0x3f06760d	0.5252388
198	0x3f19d4f7	0.60090584
199	0x3da35206	0.07974629
200	0x3d402dc1	0.046918634
201	0x3e034b4c	0.12821692
202	0x3d081dc3	0.033231508
203	0x3d0802e7	0.033205893
204	0x3e0a9b4a	0.135358
205	0x3c9a6dba	0.01885115
206	0x3d6e486b	0.058174532
207	0x3dc82b13	0.09773841
208	0x3d6cd09f	0.057816144
209	0x3db81ddb	0.089900695
210	0x3e263858	0.16232431
211	0x3e092d3f	0.13396166
212	0x3d677d53	0.056516003
213	0x3db227a8	0.0869897
214	0x3e4d8db7	0.20073591
215	0x3db50182	0.08838178
216	0x3dd472c2	0.10373451
217	0x3dd03e00	0.101680756
218	0x3d71725a	0.058946945
219	0x3cef181c	0.029186301
220	0x3db8bf51	0.09020866
221	0x3e14ed07	0.14543544
222	0x3e6027b9	0.21890153
223	0x3efe027c	0.4961127
224	0x3df81868	0.1211403
225	0x3e24ed7e	0.16106221
226	0x3e0e5c5f	0.13902424
227	0x3c651eec	0.013984423
228	0x3e285fa5	0.16442735
229	0x3cd30097	0.025757117
230	0x3e53f4f1	0.20698906
231	0x3e1501f2	0.14551523
232	0x3dcff349	0.10153825
233	0x3e2d41a3	0.1691957
234	0x3dcb9a01	0.09941483
235	0x3bd5e356	0.0065273447
236	0x3e1a4e9f	0.15069054
237	0x3e16a44f	0.14711116
238	0x3cf3289d	0.029682452
239	0x3d38a1df	0.045076247
240	0x3de4a9f5	0.11165229
241	0x3b5a277b	0.0033287692
242	0x3ddadee6	0.10687046
243	0x3e11b0a2	0.14227536
244	0x3efe76ae	0.4969992
245	0x3ded4dd1	0.11587108
246	0x3f69ef8b	0.9138114
247	0x3d823ceb	0.063592754
248	0x3f1909d5	0.5978063
249	0x3f374202	0.71585095
250	0x3f35d14c	0.71022487
251	0x3f2916ac	0.6605022
252	0x3f35458c	0.70809245
253	0x3ddb9cd4	0.10723272
254	0x3f22c557	0.63582367
255	0x3d67ad1b	0.05656157

std_layer_2.mean f4 [4]
0	0xb5149399	-5.534908e-07
1	0xb3c6f98a	-9.2654844e-08
2	0xb26e3f00	-1.3867748e-08
3	0xb1bc809e	-5.486142e-09

std_layer_2.std f4 [4]
0	0x42937490	73.72766
1	0x4216f5b2	37.739937
2	0x40fb660e	7.856208
3	0x4097e9c4	4.747286

std_layer_u.mean f4 [2]
0	0x413648a0	11.392731
1	0x41166ea7	9.402015

std_layer_u.std f4 [2]
0	0x434a52cc	202.32343
1	0x434a3c54	202.23566

pca_layer.inverse_transform.weight f4 [6957, 4]
0	0xbaa54a52	-0.001261065
1	0xbcd6fe71	-0.026244374
2	0x3b763dbe	0.0037573422
3	0x3c432913	0.011911648
4	0x3c15d44c	0.009144854
5	0x3ca044ac	0.019563995
6	0xbac51123	-0.0015035014
7	0x3a4f157d	0.00078996253
8	0xbc17e99d	-0.009272006
9	0xbc9e5e9e	-0.019332226
10	0x3b02bd38	0.001994921
11	0xbab7462e	-0.0013982707
12	0xbc17ec55	-0.009272655
13	0xbc9e5c21	-0.01933104
14	0x3b02b949	0.0019946864
15	0xbab7507c	-0.0013985778
16	0x3c15359d	0.009107021
17	0x3ca0cbcf	0.019628434
18	0xbb0cf6ca	-0.0021509402
19	0x3a9aafed	0.0011801698
20	0x3c1f3d66	0.009719228
21	0x3c973b14	0.018460788
22	0xbb3d5f6d	-0.002889599
23	0x3b555c2d	0.0032556162
24	0x3c36395d	0.011122075
25	0x3c77bbc6	0.015120452
26	0xbb3d86fa	-0.0028919564
27	0x3bdb1e2e	0.0066869473
28	0xbc1a739f	-0.00942698
29	0xbc9c0063	-0.019043153
30	0x3b053f88	0.0020332057
31	0xbae99a55	-0.0017822484
32	0x3c5bea16	0.01342251
33	0x3a7e5090	0.0009701336
34	0xbc04bd05	-0.008101706
35	0x3c9fa4db	0.019487789
36	0xbc0c1d1d	-0.008551863
37	0xbca872e2	-0.020562593
38	0x3adfc46b	0.0017072087
39	0x398cac84	0.00026831415
40	0x3c17fa2e	0.009275956
41	0x3c9e4f75	0.019324997
42	0xbb02a02b	-0.0019931893
43	0x3ab74eea	0.001398531
44	0xbc222d27	-0.0098984605
45	0xbc944d03	-0.018103128
46	0x3b0f9b96	0.0021912805
47	0xbb406be2	-0.0029361178
48	0xbc120ec5	-0.008914654
49	0xbca387c8	-0.019962206
50	0x3b11e77a	0.0022263215
51	0xba5417eb	-0.0008090722
52	0x3c17f65e	0.009275047
53	0x3c9e52f6	0.019326668
54	0xbb02a70a	-0.0019935989
55	0x3ab721da	0.001397188
56	0xbc2b103e	-0.010440884
57	0xbc8a570c	-0.01688721
58	0x3b35b42a	0.0027725794
59	0xbb95ae08	-0.0045678653
60	0x3c186bf6	0.009303084
61	0x3c9de9e1	0.019276561
62	0xbac62f01	-0.001512021
63	0x3a9925fa	0.0011684292
64	0xbc17f2df	-0.009274214
65	0xbc9e5632	-0.01932821
66	0x3b0276e8	0.00199073
67	0xbab6fe37	-0.001396126
68	0x3c23c4c7	0.009995646
69	0x3c928424	0.017885275
70	0xbb4c9cd5	-0.003122141
71	0x3b5ef08e	0.0034017893
72	0xbc19eeda	-0.009395326
73	0xbc9c4988	-0.019078031
74	0x3b678580	0.0035327375
75	0xbb2951c0	-0.002583608
76	0x3c0c1b0b	0.008551369
77	0x3ca87347	0.020562781
78	0xbaf10a60	-0.0018389933
79	0xb9df84f4	-0.00042632932
80	0x3c269400	0.010167122
81	0x3c8f8838	0.017521009
82	0xbb169fc3	-0.002298341
83	0x3b7f566a	0.003896142
84	0xbc3fcf32	-0.011707114
85	0xbc55f6a3	-0.013059291
86	0x3c013e86	0.007888442
87	0xbc257899	-0.0100995535
88	0x3c0c7bf8	0.008574478
89	0x3ca82608	0.020525947
90	0xbaf467eb	-0.0018646693
91	0xb9599f8e	-0.00020754171
92	0x3c14a0bf	0.009071528
93	0x3ca14efb	0.019690981
94	0xbb0fdd95	-0.0021952142
95	0x3a8d5043	0.0010781366
96	0x3c133fb7	0.008987359
97	0x3ca287b1	0.019840093
98	0xbaf396f0	-0.0018584412
99	0x3a407cdd	0.0007342825
100	0x3c06fc9a	0.008238936
101	0x3cac66e1	0.02104515
102	0xbaa31b45	-0.001244404
103	0xba9a2923	-0.0011761527
104	0x3c24a734	0.01004963
105	0x3c91a6bd	0.017779702
106	0xbb18e9e9	-0.002333278
107	0x3b5e1522	0.0033887108
108	0x3c0b3b4f	0.008498027
109	0x3ca9281c	0.020649008
110	0xba8e54d1	-0.0010859017
111	0xba0c13d0	-0.00053435285
112	0x3c17f676	0.009275069
113	0x3c9e52df	0.019326625
114	0xbb02a15f	-0.001993261
115	0x3ab6eca2	0.001395602
116	0x3c233a67	0.009962655
117	0x3c93165e	0.017955001
118	0xbb58ba33	-0.0033069968
119	0x3b5b708d	0.0033483834
120	0xbc180a20	-0.009279758
121	0xbc9e40cb	-0.019318005
122	0x3b02e0fb	0.0019970525
123	0xbab87675	-0.0014073389
124	0x3c1328db	0.008981909
125	0x3ca2962f	0.019847004
126	0xbb11cb5b	-0.0022246453
127	0x3a5ca97a	0.0008417588
128	0xbc17f71f	-0.009275227
129	0xbc9e5248	-0.019326344
130	0x3b028c63	0.0019920103
131	0xbab784db	-0.0014001386
132	0x3c100609	0.008790501
133	0x3ca5446d	0.02017423
134	0xbaf0d094	-0.0018372708
135	0x39a635d3	0.0003170209
136	0xbc1225e5	-0.008920168
137	0xbca37c3d	-0.019956702
138	0x3ad1e649	0.0016014065
139	0xba17a559	-0.00057848316
140	0x3c0c4fa2	0.008563908
141	0x3ca84ead	0.020545328
142	0xba959739	-0.0011412866
143	0xb94980d6	-0.00019216849
144	0x3c3728e5	0.011179184
145	0x3c748fb5	0.014926841
146	0xbb9caa8a	-0.004781072
147	0x3bd9882a	0.0066385465
148	0xbc00c463	-0.007859322
149	0xbcb0da45	-0.021588454
150	0x3ac02755	0.0014660159
151	0x3a58450e	0.0008250036
152	0xbc181144	-0.00928146
153	0xbc9e3a20	-0.019314826
154	0x3b036f93	0.0020055517
155	0xbab928b1	-0.0014126507
156	0x3c18e67f	0.009332298
157	0x3c9d76e8	0.019221738
158	0xbaf0280f	-0.0018322485
159	0x3acfec4f	0.0015863272
160	0xbc19c53c	-0.009385403
161	0xbc9ca6c3	-0.019122487
162	0x3af6fe49	0.0018844093
163	0xbad1521d	-0.0015969906
164	0x3c2e01eb	0.0106205745
165	0x3c86cf96	0.016456407
166	0xbb164b53	-0.002293308
167	0x3ba4945d	0.005022569
168	0xbc1746cc	-0.009233188
169	0xbc9ef238	-0.019402608
170	0x3b082939	0.0020776524
171	0xbaaf397f	-0.0013368576
172	0xbc17e8fe	-0.009271858
173	0xbc9e5f40	-0.019332528
174	0x3b027118	0.0019903835
175	0xbab6caab	-0.0013945898
176	0x3c1a4f32	0.009418296
177	0x3c9c23cc	0.019060038
178	0xbb009654	-0.0019620853
179	0x3ae1c3a1	0.001722444
180	0xbc17fca2	-0.009276541
181	0xbc9e4d40	-0.019323945
182	0x3b025fde	0.0019893567
183	0xbab7462a	-0.0013982703
184	0x3c095e0b	0.008384238
185	0x3caa98e8	0.020824865
186	0xba57c2af	-0.0008230609
187	0xba78b01e	-0.0009486693
188	0xbc180707	-0.009279019
189	0xbc9e43ad	-0.01931938
190	0x3b029523	0.0019925318
191	0xbab81067	-0.0014042974
192	0x3c20f94f	0.009825065
193	0x3c958d03	0.018255716
194	0xbb0ee64a	-0.0021804743
195	0x3b3431c2	0.0027495478
196	0xbc143de4	-0.009047959
197	0xbca1a500	-0.019731998
198	0x3b1151fd	0.0022174113
199	0xba85f73c	-0.0010220776
200	0x3c153240	0.009106219
201	0x3ca0d231	0.019631477
202	0xbaff2d31	-0.0019468424
203	0x3a80670d	0.0009796337
204	0xbc17ebed	-0.009272558
205	0xbc9e579e	-0.019328889
206	0x3b17bb16	0.0023152283
207	0xbac5e98c	-0.001509951
208	0x3c26b61c	0.010175254
209	0x3c8f679e	0.017505463
210	0xbb0536e3	-0.0020326904
211	0x3b7696cd	0.0037626505
212	0x3c11bf72	0.008895742
213	0x3ca3cf02	0.01999617
214	0xbb06305c	-0.0020475602
215	0x3a14f212	0.0005681823
216	0x3b83c8b5	0.004021729
217	0xbccd685c	-0.025074176
218	0xbb1fc1d3	-0.0024377003
219	0x3cb7032d	0.022340382
220	0x3c1bc1aa	0.009506622
221	0x3c9ac0df	0.018890796
222	0xbb04a056	-0.002023717
223	0x3b0a1721	0.0021070915
224	0xbc1d7334	-0.009609986
225	0xbc991cab	-0.018690428
226	0x3afec230	0.0019436534
227	0xbb0f883a	-0.0021901266
228	0x3c578e6a	0.013156513
229	0x3bc67b4c	0.0060571786
230	0xbb583ab3	-0.0032993972
231	0x3c6e9255	0.014561255
232	0xbc17a645	-0.00925595
233	0xbc9e9c5a	-0.019361664
234	0x3affe0e2	0.0019521976
235	0xbabf87e3	-0.0014612641
236	0x3c3bdff5	0.01146697
237	0x3c66e0b3	0.014091658
238	0xbb48f670	-0.0030664466
239	0x3bf84999	0.007577133
240	0xbc15ca42	-0.00914246
241	0xbca04a4e	-0.019566681
242	0x3b0177a4	0.001975515
243	0xba96a7cc	-0.0011494099
244	0xbc1414a4	-0.009038124
245	0xbca1ccd7	-0.019750996
246	0x3b027a27	0.0019909234
247	0xba683465	-0.0008857905
248	0xbc158b80	-0.009127498
249	0xbca083ff	-0.01959419
250	0x3af15cde	0.0018414517
251	0xba834492	-0.0010014942
252	0x3c1b2d67	0.009471274
253	0x3c9b4ec0	0.01895845
254	0xbb04fa98	-0.0020290967
255	0x3b0738fb	0.0020633328
