sensor_case/outputs/experiment6/residual_model.pth (torch, 377480 bytes, 98 tensors)

pretrained_model.layer1.0.fc1.weight f4 [16, 5]
000000 30 95 89 3e db b2 ee bd a7 53 ea 3e 18 5a 02 bf
       0.26871634 -0.11655208 0.45766947 -0.5091872
000010 8e 2d 50 be 3f 9b 30 3e 1e 3f 94 bd 18 77 88 3c
       -0.20329878 0.17246722 -0.07238601 0.01665835
000020 eb a6 c3 bc a3 4f 01 3f f7 bc 08 3f af a2 2a 3e
       -0.023883304 0.5051214 0.5341334 0.16663621
000030 e6 7d f1 3e c0 45 48 bd 73 0a 8c be 84 2a 92 be
       0.47166365 -0.048894644 -0.27351722 -0.28548062
000040 2b 35 ca be af 95 1e 3f f6 47 97 be 7d fc 8e 3d
       -0.3949369 0.6194715 -0.2954709 0.06981752
000050 82 f4 ab 3e e2 b0 a7 3e 46 0f e9 bc aa aa 86 3e
       0.33584982 0.32752138 -0.028449666 0.2630208
000060 c5 42 fa bc a9 11 89 be 53 e4 c6 3e 36 17 81 3e
       -0.030549416 -0.26771286 0.38846073 0.2521302
000070 a5 c9 0b 3e 13 a9 a9 be 67 a1 5c 3e 09 7e b3 3e
       0.1365114 -0.33136806 0.21545945 0.35057095
000080 71 e3 a8 3e 68 03 d5 be 3b f1 2f 3e 12 50 c7 3d
       0.32986024 -0.4160416 0.17181866 0.09732069
000090 b7 48 4d be 8a c6 70 be e6 29 26 be 84 71 2e be
       -0.2004727 -0.23513237 -0.1622692 -0.1703549
0000a0 91 fa ac be 52 27 fa be f5 63 3f 3e 35 19 c8 3e
       -0.33784917 -0.48858124 0.18690474 0.3908173
0000b0 13 b0 b7 3e 46 f8 84 3e 4f 95 b0 3d a1 94 59 be
       0.3587652 0.25970668 0.08622228 -0.21248104
0000c0 0b e0 e6 3e 99 25 48 3e 08 ab 67 be 77 18 a8 3e
       0.45092806 0.19545592 -0.22623837 0.32831165
0000d0 6f ab 1a bd 59 b5 cc be 08 06 d4 be fe d3 53 3e
       -0.037761148 -0.39982107 -0.4141085 0.20686337
0000e0 65 72 b6 3e 85 26 32 be 9b e7 73 be 82 38 99 3e
       0.3563415 -0.17397507 -0.23818819 0.29925925
0000f0 59 2d 03 3e 63 ad c8 be 05 0e 49 3d 56 0c 18 3f
       0.12810268 -0.39194784 0.049085636 0.59393823
000100 aa 0e 5b be 8e cd 94 bc 16 a5 c3 bd 55 1b 3b be
       -0.21392313 -0.018164422 -0.09552972 -0.18272145
000110 0e 8e 1f bf 10 21 52 3b bd aa a9 bd 92 0c ad 3e
       -0.62326133 0.0032063164 -0.08284519 0.33798653
000120 b4 b4 13 3e 73 69 5b be 8c 0e 49 3e 75 91 9a be
       0.14424402 -0.21426944 0.19634455 -0.301891
000130 e9 d5 06 be b0 2f 88 3e f5 aa 84 be 74 4c b0 be
       -0.13167538 0.26598883 -0.2591168 -0.3443333

pretrained_model.layer1.0.fc1.bias f4 [16]
000000 0f c3 35 3d f4 95 77 be ab a4 32 be a7 ba 25 be
       0.044375475 -0.24178296 -0.17445628 -0.16184483
000010 13 6f e6 be 2c 78 9b 3d f4 08 32 be 79 c3 c5 3e
       -0.45006618 0.0759128 -0.17386228 0.38625696
000020 4b 11 9d bb b9 d8 97 3e 51 50 57 be 6a e8 06 be
       -0.0047933212 0.29657534 -0.21026732 -0.13174596
000030 6e a0 86 bd 80 e6 7d be 5b 42 e4 3d 7e 05 19 3e
       -0.06573568 -0.2479496 0.11145469 0.14943501

pretrained_model.layer1.0.bn1.weight f4 [16]
000000 91 6b 81 3f e1 7a 85 3f 06 a2 80 3f 75 73 82 3f
       1.0110952 1.0428125 1.0049446 1.0191485
000010 e2 cc 9e 3f a4 a9 9a 3f a2 c1 82 3f ff 2a 74 3f
       1.2406275 1.208302 1.0215342 0.95378107
000020 1e 37 64 3f 88 d7 6b 3f 60 1e 8c 3f 01 f0 87 3f
       0.891466 0.9212575 1.094677 1.0620118
000030 56 32 4d 3f c6 0f 7b 3f 4d 0b 61 3f 0b 37 86 3f
       0.8015493 0.98070943 0.8790787 1.0485548

pretrained_model.layer1.0.bn1.bias f4 [16]
000000 03 2a 7e 3e eb a0 40 bd b1 43 c4 3b 0e ee 1f 3e
       0.24820714 -0.047028463 0.0059895148 0.15618154
000010 1b 27 a5 3e b2 1d d8 3d 86 73 89 bd 87 df 48 3d
       0.32256398 0.10552539 -0.067114875 0.049041297
000020 ae 5b 16 be 61 b2 55 bd 7d fb ac bd f8 d3 91 bc
       -0.1468341 -0.05217207 -0.08446405 -0.01780127
000030 da 66 dc bd b5 47 53 3d 49 e6 4d bc 9c 12 3b 3d
       -0.10761805 0.051582057 -0.012567111 0.045672044

pretrained_model.layer1.0.bn1.running_mean f4 [16]
000000 5f f2 01 3e 32 dc a2 3b f5 d7 97 3e 54 8c 0a bf
       0.12690113 0.004970097 0.2965695 -0.54120374
000010 77 28 16 bd c9 58 4f be af a1 26 bd 8b bc d1 3e
       -0.036659684 -0.20248713 -0.040681537 0.4096416
000020 c3 e7 46 be 3a 26 38 3f bf b0 1a bf ed a0 95 3d
       -0.19424348 0.7193333 -0.60425943 0.07306085
000030 9c 08 36 3e 21 49 df be 23 e7 16 3c b9 5a 94 be
       0.17776722 -0.4361048 0.009210381 -0.28975466

pretrained_model.layer1.0.bn1.running_var f4 [16]
000000 78 4a 0d 3f 6a 61 60 3e d1 1b aa 3e 4c 0a 36 3f
       0.55191755 0.2191216 0.33224347 0.7110946
000010 a9 2b 4c 3e 5e 26 ab 3e e2 7f ca 3e 0d 73 15 3e
       0.1993853 0.3342771 0.39550692 0.1459467
000020 7f cb e0 3e e4 85 94 3e a2 49 ab 3e 0b c5 98 3e
       0.43905255 0.290084 0.33454615 0.29837832
000030 9d ec ef 3e d2 54 c1 3e d2 c3 53 3e 62 e3 92 3e
       0.4686021 0.37760025 0.20680168 0.28689104

pretrained_model.layer1.0.fc2.weight f4 [16, 16]
000000 87 7d 89 be 89 44 75 be 76 e6 d6 bd 0a 28 91 be
       -0.26853582 -0.23951925 -0.10493176 -0.2835086
000010 75 33 bc 3e 5f ee 9b bd 85 7b 37 3e 83 1a 6d bd
       0.3675801 -0.07613825 0.17918213 -0.05788661
000020 27 59 1d 3e 0f 77 0a 3e 42 87 12 3e fd 41 8f be
       0.1536604 0.1352198 0.1430941 -0.27980033
000030 97 b8 5f 3e e0 08 f2 3c fd 77 a1 bc ff ed c7 be
       0.21847759 0.029545248 -0.019710535 -0.39048764
000040 2e da 37 be b0 b9 e9 bd 54 2d bc be 02 5c d3 3c
       -0.17954323 -0.1141237 -0.36753333 0.025800709
000050 72 c1 fa 3e 5d 84 ec 3d 16 62 45 be 83 02 64 3e
       0.48975712 0.11548684 -0.19275698 0.22266583
000060 1a 52 a1 3e 94 f4 74 3e 7a ab 5a 3e 91 51 ec 3d
       0.3150795 0.23921424 0.21354476 0.11538995
000070 93 42 3a 3d fc 27 39 3e d5 38 d3 3d 29 93 8f bd
       0.045473646 0.18081659 0.10313574 -0.070104904
000080 6f b1 12 be b3 d4 ae 3e b6 15 4b 3e 37 f7 6c 3e
       -0.14325498 0.34146652 0.19832501 0.2314118
000090 8a eb 8f 3e 8d a8 42 3e 96 83 2b be 0b 00 a4 be
       0.2810939 0.1900961 -0.16749415 -0.32031283
0000a0 7d b1 b6 3e b2 91 79 3e ef 23 4d be 45 c5 2e bd
       0.35682288 0.24371985 -0.20033239 -0.0426686
0000b0 d6 0e 1b bd d1 e1 5e be 5b 6c 23 3e 84 18 8a be
       -0.037855946 -0.2176583 0.15959303 -0.2697183
0000c0 64 db 7c 3e 9d 77 9a 3e f4 bb 4f 3e ea f5 c1 3e
       0.24693066 0.30169383 0.20286542 0.3788293
0000d0 9e 40 1e bd 00 9a 73 3d 68 49 23 3e 24 48 46 be
       -0.038635843 0.059473038 0.15945971 -0.19363457
0000e0 2c 43 c7 3d 8f c2 b3 bd 97 eb ac be 3b 08 26 3d
       0.09729609 -0.087773435 -0.3377349 0.040535193
0000f0 8c a5 82 3e a6 2f 44 3c 5e e0 c8 3c 05 9f 0d 3d
       0.25516927 0.011974251 0.02452105 0.03457548
000100 12 22 60 3e e9 58 80 be f2 12 94 3e 47 8d 7d 3e
       0.21887997 -0.25067833 0.28920704 0.24760924
000110 c7 81 42 be 10 af 6c 3e d1 9d 03 3e 89 bb 7e 3d
       -0.18994819 0.23113656 0.12853171 0.062190566
000120 49 df c5 3d 5d 79 03 be 38 1f 37 3e 5a 9b ef bd
       0.09661729 -0.12839265 0.17883003 -0.11699553
000130 ce 9d e5 3b dd e3 2c 3d dc 3b 96 bc 0c 3d 08 3f
       0.007007337 0.042209495 -0.01833909 0.5321815
000140 43 b2 5f be e0 ba 03 3e b0 e5 c2 be d7 24 be bd
       -0.21845345 0.12864256 -0.38065863 -0.092843704
000150 8d 2b 89 3e b3 f2 ad be b7 10 ef 3d f1 b0 de bc
       0.2679104 -0.33974227 0.1167311 -0.027183982
000160 7b 76 ef 3d 2d df dc 3d 3d cd a6 be 90 46 98 3e
       0.1169252 0.10784755 -0.3257846 0.29741335
000170 6d 6b 4d 3e af 38 24 be 5e 31 18 3e 8d 7f d6 bd
       0.20060511 -0.16037248 0.14862582 -0.10473547
000180 56 ae 08 be d6 87 cd bd 25 5d f8 bd de 70 73 3e
       -0.13347754 -0.10035674 -0.12127141 0.23773524
000190 41 ee ed be ea e1 9f be 99 bd 0d be c2 1e 2f 3e
       -0.46470836 -0.31227046 -0.13841857 0.17101577
0001a0 e9 1a 08 bd 61 be 87 be 14 0d 64 be c6 71 b1 be
       -0.03322879 -0.26512435 -0.22270614 -0.34657115
0001b0 44 52 41 bd 7e 57 7e be bb 79 82 bd dd 84 73 3d
       -0.047197595 -0.24838063 -0.063708745 0.05945288
0001c0 60 b2 a2 bb e1 14 e6 bd 96 f6 83 3d 5e e1 ef bd
       -0.0049651116 -0.11234451 0.06443517 -0.11712907
0001d0 f2 af ab be 2d cb 40 bc b3 f3 b5 be dc 8a 82 3e
       -0.33532673 -0.011767191 -0.3553749 0.25496566
0001e0 53 29 04 be 3f 47 9e be f0 33 cb 3d f8 53 d8 3c
       -0.12906389 -0.3091373 0.09922016 0.026407227
0001f0 49 9b 24 3e c6 88 b3 3e d8 d9 d8 be aa cf 21 3e
       0.16074862 0.35065287 -0.42353702 0.15801874
000200 2d 6d 68 be b7 b3 15 be cc 54 61 3e c9 95 8d 3c
       -0.22697897 -0.14619337 0.22005004 0.017283337
000210 1f 00 00 3f 4d 45 b4 3e d8 55 2d be e6 fb 9c 3d
       0.50000185 0.35209122 -0.16927278 0.07665233
000220 73 7d 50 3e 38 96 65 3d 66 29 e7 3d ca 0b ed ba
       0.20360355 0.056051463 0.11287193 -0.0018085178
000230 ef 8c 05 3e 28 14 63 be ce d8 92 3c e2 94 f9 bc
       0.13042043 -0.22175658 0.017925646 -0.0304665
000240 1e 47 92 3c aa d7 98 3b b0 a5 8a be ee fd c2 3a
       0.017856177 0.004664381 -0.27079535 0.0014876702
000250 e7 08 aa be 44 98 fb be cf bf 95 bd 3c 29 11 bc
       -0.33209917 -0.49139607 -0.07311975 -0.008859929
000260 b9 d0 92 be 8d 33 65 be 01 a8 b3 3c b1 17 4a 3e
       -0.28674868 -0.22382946 0.021930696 0.197356
000270 f2 48 e2 bd 87 74 c5 3e c5 04 e0 3d e7 07 95 bd
       -0.110490695 0.38565466 0.1093841 -0.07276898
000280 eb 93 42 3e d7 87 82 be cc df d7 3c 4b 0c 00 3e
       0.19001739 -0.25494263 0.026351832 0.1250469
000290 97 f8 04 be 46 24 1b bb 5f ce 43 bd 89 9d 96 3e
       -0.12985454 -0.0023672744 -0.047804233 0.29417065
0002a0 c6 cc bc 3e 14 d4 3a 3e 8a d2 98 3e 0a 11 66 be
       0.3687498 0.18244964 0.2984813 -0.22467437
0002b0 6b 16 b7 3e 2b 99 e7 3c af 48 8b be 8f d3 ee 3d
       0.3575929 0.028271278 -0.2720389 0.11661445
0002c0 ad e8 fa be 4b 55 18 bd 31 dd 69 be c8 6e 59 be
       -0.49005643 -0.037190717 -0.22838284 -0.21233666
0002d0 81 54 85 3c ac a9 36 bd cf 89 ae bd 16 02 b5 be
       0.016275646 -0.044595405 -0.08522379 -0.35353154
0002e0 2c 6a 3f bb 95 19 76 3e 58 ba 07 be b0 f5 97 bc
       -0.002920757 0.24033196 -0.13254678 -0.01854977
0002f0 17 21 e7 3d f4 7e a7 be 2e 36 21 bd fa b3 99 be
       0.11285608 -0.32714045 -0.03935831 -0.30020124
000300 05 d1 96 bb 10 65 7f be 1f b3 ac bd 6b 5d a5 ba
       -0.004602554 -0.24940896 -0.08432602 -0.0012616342
000310 6f ca c6 bd 91 8e 45 be e2 27 a4 be bc d2 46 3e
       -0.0970658 -0.19292666 -0.32061678 0.19416326
000320 01 fc 15 bb 95 4e a2 be 5b 6f cd 3d 44 ed ed bd
       -0.0022885802 -0.31700578 0.10031005 -0.116175205
000330 85 ed 80 bd f9 f8 91 3e 73 39 87 be 13 df ac bc
       -0.06295303 0.28510264 -0.26411018 -0.021102464
000340 1f e7 b5 3d 88 c8 99 bd 8f b0 df 3e 60 dc 06 be
       0.088819735 -0.075089514 0.4368939 -0.13170004
000350 39 3d aa be 11 d6 4c 3e 14 37 02 3f 1b ab 0a be
       -0.33249834 0.20003535 0.5086529 -0.13541834
000360 0f 13 1b 3e c5 a3 4c bc f8 8b bc 3e 4e 16 d4 3d
       0.15143989 -0.012490218 0.36825538 0.10355817
000370 6e 24 cc bd b5 50 f7 bd 19 22 6c 3e 0d bd 8d 3d
       -0.09967886 -0.120759405 0.23059882 0.06920824
000380 aa 81 31 3d f5 f7 95 3e a0 1f 87 bd b8 46 89 be
       0.043336548 0.2929074 -0.06597829 -0.26811767
000390 52 e2 52 3d c8 6b 7d be ed 05 85 3e 18 9a 9a bc
       0.051485367 -0.24748147 0.25981084 -0.018872306
0003a0 d8 d6 f8 3d 8f 9a 39 3e 2b 07 2d bd 3b 63 b9 3e
       0.12150353 0.18125366 -0.042243164 0.3620852
0003b0 9c 47 90 bc 1c 7d 19 3e ed cb ad 3e 46 6a 4f be
       -0.017612271 0.14989132 0.33944646 -0.20255384
0003c0 6c 04 95 3d 13 57 f8 3d dc da 91 3d 31 ce 7c bd
       0.07276234 0.12125983 0.07121822 -0.061720077
0003d0 81 64 b6 3e 3c 67 51 3e b5 ef 42 3e be e8 23 be
       0.35623553 0.20449537 0.19036753 -0.16006753
0003e0 64 8c 8c bd 78 8f 9f 3e 53 32 a0 3e ac 75 a3 3e
       -0.06862715 0.31164145 0.31288394 0.31925714
0003f0 19 57 2d 3e 72 c2 3a be ef e4 53 3e 50 a0 a5 bc
       0.16927756 -0.18238238 0.206928 -0.020218045

pretrained_model.layer1.0.fc2.bias f4 [16]
000000 35 60 00 3e 2f df 52 3e a1 26 95 3d c8 90 88 bd
       0.125367 0.2059295 0.072827585 -0.0666824
000010 54 29 91 3d c7 3f 91 3d cb 6c 65 3e 49 1d 50 be
       0.07087961 0.07092243 0.22404782 -0.20323671
000020 59 d5 e2 bd 91 e6 95 3d 20 7c cf bd 99 ed ce 3d
       -0.11075849 0.07319368 -0.10131097 0.10103912
000030 3f 37 a0 bd e7 74 ce bd d8 b4 65 bc c4 17 57 3e
       -0.07823037 -0.10080891 -0.014020167 0.2100516

pretrained_model.layer1.0.bn2.weight f4 [16]
000000 18 ca 84 3f 48 33 4d 3f 21 fa 50 3f a9 f4 67 3f
       1.0374174 0.80156374 0.81631666 0.90607697
000010 4d 83 8c 3f c4 4b 7c 3f 0a 80 71 3f b5 08 6d 3f
       1.097757 0.9855311 0.94336 0.9259141
000020 ae e8 71 3f c7 7f 56 3f d6 51 90 3f 51 c3 71 3f
       0.94495666 0.8378872 1.1274974 0.94438654
000030 09 8d 1e 3f 44 aa 5e 3f 69 d5 83 3f 9f ba 67 3f
       0.6193395 0.86978555 1.0299503 0.90519136

pretrained_model.layer1.0.bn2.bias f4 [16]
000000 6b 3b 76 3d 7b 02 da 3d fe 7d dc 3d e3 3d a3 3e
       0.06011526 0.10645004 0.107662186 0.31883153
000010 51 82 94 3e f1 a7 fa 3c ea 59 b6 bd 81 2c 83 3d
       0.29005674 0.030597659 -0.089038685 0.06404973
000020 d8 74 f2 3d 65 84 5c bc a8 0f 5e 3e b4 bd 04 bd
       0.118386924 -0.0134593 0.2168566 -0.032407477
000030 0c 03 58 be 5f 51 68 3e 72 d1 55 3e 0c cb 89 3d
       -0.21094912 0.2268729 0.20880678 0.06728181

pretrained_model.layer1.0.bn2.running_mean f4 [16]
000000 47 fc f1 bd 59 77 3a 3f a9 08 b7 3e 3a 81 e1 3e
       -0.11815696 0.7283836 0.35748795 0.44043905
000010 04 7f 28 3f 86 42 d3 bd d1 77 3a bf 62 0d 0c bf
       0.6581881 -0.10315423 -0.72839075 -0.5470792
000020 39 c3 b1 3e a4 46 f0 be 59 57 7b 3e c1 cb 51 bf
       0.34719256 -0.46928895 0.24545039 -0.8195153
000030 0c 7f 0c bf 82 2a 9e 3e c0 9c 94 3e 83 e8 83 3f
       -0.5488136 0.30891806 0.2902584 1.0305332

pretrained_model.layer1.0.bn2.running_var f4 [16]
000000 53 65 08 3f b7 bd d4 3e b1 06 38 3f a9 f5 da 3e
       0.5327961 0.4155099 0.7188521 0.4276555
000010 72 ed 81 3f 02 17 48 3f 6e 62 35 3f ad 99 22 3f
       1.0150588 0.7816011 0.70853317 0.6351574
000020 9b db 34 3f 12 23 47 3f 0c 17 fd 3e 84 55 77 3f
       0.7064759 0.7778789 0.49431646 0.9661486
000030 a9 83 cb 3e 7e 08 1f 3f 4c d3 ff 3e 1e 14 21 3f
       0.39748886 0.62122333 0.49965894 0.6292132

pretrained_model.layer1.0.shortcut.0.weight f4 [16, 5]
000000 53 db c4 bd ee c1 31 be 48 8a 01 bf 01 c7 d6 3e
       -0.09612145 -0.17359135 -0.50601625 0.41948703
000010 25 8f b9 be 33 db 40 3d a1 d2 72 bd b9 f3 95 be
       -0.36242023 0.047084045 -0.059282903 -0.29287508
000020 fd 0b 21 be 53 66 b4 3e ca 45 89 3e f7 b0 b9 3d
       -0.1572723 0.35234317 0.26811057 0.090669565
000030 04 e7 f5 3e 76 79 c2 3e 05 a7 e6 bd 09 9e fe be
       0.48027813 0.37983292 -0.11262325 -0.49729946
000040 bf b2 6c be d5 2b 28 3e 6a 80 a8 3e 56 f0 09 3f
       -0.23115061 0.1642297 0.32910472 0.5388235
000050 7d 14 ca bd b4 e9 74 be 5d 08 3d 3d 59 3a 93 be
       -0.09867189 -0.23917276 0.046150554 -0.28755453
000060 03 f7 63 be f6 a8 8b bd 16 f0 4f 3d 44 ac 0c bf
       -0.22262196 -0.06819336 0.050766073 -0.54950356
000070 88 e8 24 3e 6b f9 c3 3d c2 7e 66 3d 7f 00 82 bc
       0.16104329 0.09569057 0.05627323 -0.015869377
000080 09 3e 3a bd 34 b8 3a be 8a e3 f4 3e 76 93 c5 3e
       -0.045469318 -0.1823433 0.4782985 0.38589066
000090 1c b3 a8 be 30 db e1 be 0f da 9c bc 8f 44 15 be
       -0.3294915 -0.4411254 -0.019146947 -0.14576934
0000a0 c4 bd e7 be 62 c6 59 be f3 c0 93 be 8a 0f 90 bd
       -0.45261967 -0.21267083 -0.28858146 -0.07034214
0000b0 eb 58 20 bf bb 31 d7 3e e4 0b 3d 3e 5f 52 31 bf
       -0.6263568 0.4203013 0.18461567 -0.69266313
0000c0 78 b2 7e bd b2 15 6b be 49 0f bb bd 57 be 20 bf
       -0.06218192 -0.22957495 -0.09133775 -0.62790436
0000d0 87 07 46 be b5 c9 d7 3e dd 8d 02 bb 6e a5 17 be
       -0.19338809 0.42146078 -0.0019920983 -0.148092
0000e0 d2 08 65 3d 32 d5 43 be 19 69 1f 3e 6e 55 ce 3e
       0.055916615 -0.19124296 0.15567435 0.40299553
0000f0 f9 37 b4 3e 4f eb b6 3e 39 0e ba 3e bf ae d4 3e
       0.35198954 0.357264 0.36338976 0.4153957
000100 94 a2 79 3c 44 50 af 3e 25 0c 8a be 72 9b d9 bd
       0.015236516 0.34240925 -0.2696239 -0.10625352
000110 52 4a 0f bf 78 b9 72 3e 00 f9 70 3d ac f9 69 3e
       -0.5597278 0.23703563 0.058831215 0.22849149
000120 ba c7 c8 be 13 02 dc bd 32 23 70 3e e7 1b 4f 3d
       -0.3921488 -0.10742583 0.23450926 0.05056372
000130 55 33 0b 3f e0 24 16 3e cc 5b 65 be 37 a1 aa be
       0.543752 0.14662504 -0.22398299 -0.33326122

pretrained_model.layer1.0.shortcut.0.bias f4 [16]
000000 ba ce 83 3e f1 2d 84 be a9 af 36 be 1c fa 99 be
       0.25743657 -0.258163 -0.17840447 -0.3007363
000010 16 6f f4 bd 44 c0 a8 be a8 8e d2 bd 94 f3 c4 be
       -0.119352505 -0.32959187 -0.10281116 -0.38467085
000020 a5 05 cb 3e be 95 5f bb e3 2f a1 be cc 0b a9 3e
       0.39652744 -0.0034116353 -0.31481847 0.33016813
000030 c0 fb b5 bd 38 ee 56 be 9e bf a4 3e e4 48 b9 be
       -0.08885908 -0.2098931 0.32177442 -0.36188424

pretrained_model.layer1.0.shortcut.1.weight f4 [16]
000000 57 ec 9d 3f 18 b9 83 3f 9f f0 8e 3f cd 2e 97 3f
       1.233775 1.0290861 1.1167182 1.1811157
000010 9c 2b 8a 3f 89 07 96 3f 1e 65 5c 3f ee 39 91 3f
       1.0794559 1.172105 0.8609179 1.1345804
000020 9b 21 91 3f 65 68 88 3f e3 48 92 3f 75 2e 64 3f
       1.133838 1.0656859 1.1428493 0.8913339
000030 93 63 7a 3f ba b2 7c 3f 14 29 a0 3f 61 ee 94 3f
       0.9780819 0.98710215 1.2512536 1.1635247

pretrained_model.layer1.0.shortcut.1.bias f4 [16]
000000 6b 3b 76 3d 7b 02 da 3d fe 7d dc 3d e3 3d a3 3e
       0.06011526 0.10645004 0.107662186 0.31883153
000010 51 82 94 3e f1 a7 fa 3c ea 59 b6 bd 81 2c 83 3d
       0.29005674 0.030597659 -0.089038685 0.06404973
000020 d8 74 f2 3d 65 84 5c bc a8 0f 5e 3e b4 bd 04 bd
       0.118386924 -0.0134593 0.2168566 -0.032407477
000030 0c 03 58 be 5f 51 68 3e 72 d1 55 3e 0c cb 89 3d
       -0.21094912 0.2268729 0.20880678 0.06728181

pretrained_model.layer1.0.shortcut.1.running_mean f4 [16]
000000 77 35 63 3e ea ab 44 be 6b a3 2c 3e c9 f9 20 bf
       0.22188364 -0.19206205 0.16859214 -0.6288114
000010 63 04 af be d3 7c a6 be 4e e3 8d bc 15 85 ed bc
       -0.34183034 -0.32517108 -0.017320301 -0.028994123
000020 a7 92 37 be 9d 3b c3 3e d7 54 9c be 89 fe 97 3e
       -0.17927037 0.3813142 -0.30533478 0.29686382
000030 01 2b c4 3e fc 80 42 3c 5a 0f cf 3e f2 54 d4 be
       0.3831406 0.011871573 0.404414 -0.41471058

pretrained_model.layer1.0.shortcut.1.running_var f4 [16]
000000 61 7b 0e 3f e9 22 6b 3e aa 2d bf 3e bb 6b b9 3e
       0.5565701 0.22962536 0.37339526 0.36215004
000010 da a0 50 3e 96 8d bd 3e 5b 73 6e 3e 9d 47 a6 3e
       0.2037386 0.37022084 0.23286192 0.32476512
000020 df 93 ed 3e 0b 6f 0e 3f 52 5d 0c 3f 3d 2b 60 3e
       0.4640188 0.5563819 0.54829895 0.21891494
000030 83 bb dc 3e c7 e2 df 3e e9 dd 94 3e 2b 12 d7 3e
       0.4311181 0.43727705 0.29075554 0.4200605

pretrained_model.layer1.1.fc1.weight f4 [16, 16]
000000 58 3a fb 3e ab 6f fc 3c 88 92 d6 3d 3f 93 d6 be
       0.4906795 0.030814966 0.10477167 -0.41909215
000010 60 1f 52 be 55 da cd 3d 00 f9 33 bd f3 f7 4c be
       -0.20519781 0.10051409 -0.043938637 -0.2001646
000020 61 55 73 3e 99 93 bb 3d ad a3 7d 3d 6d 17 25 bc
       0.23763038 0.091590114 0.06192367 -0.010076386
000030 3d e5 20 3e d5 a1 28 be d8 67 a1 be b5 0e 52 be
       0.15712447 -0.16467984 -0.3152454 -0.20513423
000040 55 60 8b 3e 89 47 da bd e1 82 16 be a1 d2 d0 be
       0.27221933 -0.106581755 -0.14698364 -0.40785697
000050 a5 7c dd be b8 23 fa bd dc 82 e9 be 0b a8 4c be
       -0.4325916 -0.12213844 -0.4560765 -0.19985978
000060 9e c0 c8 bc a1 db 15 3d ef ab 5b bd 02 6a 03 be
       -0.02450591 0.036586408 -0.053630766 -0.12833408
000070 a1 96 79 be 0f 4d 44 bd 86 f1 25 be 0d 14 04 3e
       -0.24373867 -0.04792505 -0.16205415 0.12898274
000080 a1 a3 56 3c 5b 32 1f be 4c 15 38 3d db eb 7b be
       0.013100536 -0.15546553 0.044942185 -0.2460169
000090 55 f8 8d be d7 7a 95 3e b3 43 3a be 5e b3 c6 be
       -0.27728525 0.29195282 -0.18189888 -0.3880872
0000a0 eb 8b e3 3d e4 80 e4 be 14 29 5b bd 44 12 a0 3e
       0.111106716 -0.44629586 -0.053505972 0.31263936
0000b0 9e 46 a4 bd 23 eb 5e bd 27 c0 04 3e 0a 21 4d be
       -0.08021282 -0.054423463 0.12963925 -0.20032135
0000c0 17 43 25 be bd ca 97 bd b3 5a aa be cb ac cd bd
       -0.16138874 -0.07411716 -0.33272323 -0.10042723
0000d0 b0 86 3b 3e d6 6c e0 be 15 c9 5d 3d 64 f0 f9 bd
       0.18313098 -0.43833035 0.054146845 -0.12204054
0000e0 f9 92 27 be 29 57 0a be 5b 21 68 be f9 c7 ea bc
       -0.1636466 -0.13509811 -0.22668974 -0.028659808
0000f0 65 db b7 bc c6 42 61 be 68 e6 a3 be 53 a5 b0 bd
       -0.022443483 -0.21998128 -0.32011724 -0.08625283
000100 aa 4e 04 be e1 81 13 be 62 71 d4 bd 1b 9b 81 be
       -0.12920633 -0.14405014 -0.103731886 -0.2531365
000110 7f 81 13 be d9 b6 39 be 91 fd 0f 3e 28 dc 77 be
       -0.14404868 -0.18136157 0.14061572 -0.24205077
000120 f7 21 c8 be e2 d6 77 3d 38 69 6c be e2 01 2d 3e
       -0.39088413 0.060507663 -0.23087013 0.1689525
000130 a0 e8 2a bd 5f 94 d2 be 14 ce cb 3d e1 72 d1 bd
       -0.041725755 -0.41128823 0.09951416 -0.102269895
000140 0d b9 27 3e 90 e4 b6 bd 7b fa 88 be 60 ab 7a bd
       0.16379185 -0.089303136 -0.267536 -0.061198592
000150 c0 cd e1 3d 38 d7 8c 3d e7 bb 5d be df 11 20 3e
       0.11025572 0.06876987 -0.2165371 0.15631817
000160 cf 6c ac bd e9 e5 0c 3d d7 d5 00 3f d3 de 19 3e
       -0.08419191 0.034398947 0.50326294 0.15026407
000170 62 5a b4 be 6c 4d 97 3d e1 56 a6 3d b4 6c 10 be
       -0.35225207 0.07387814 0.081220396 -0.14103967
000180 68 11 0b 3e c7 a2 3f 3d a3 f8 93 be f2 ad b6 be
       0.13580859 0.046786096 -0.28900632 -0.35679585
000190 2f bb 8b be 53 ca 9b 3e 99 05 6a 3c 59 44 6e 3e
       -0.27291247 0.304278 0.014283561 0.2326826
0001a0 dc 17 f4 3d d4 f3 41 3d 79 66 32 3b 7a 54 fb 3d
       0.11918613 0.047351673 0.0027221723 0.12271972
0001b0 32 47 43 be d2 0e da bd 85 6e cd 3d 8c 2b ac 3d
       -0.19070128 -0.10647358 0.100308456 0.084067434
0001c0 02 97 42 3e 37 bb 2f 3e 93 23 b9 3e b3 71 ea 3e
       0.19002917 0.1716126 0.36159953 0.4578987
0001d0 ec 05 7a 3d 1c f2 95 bd 89 86 b3 bc 25 60 0a be
       0.061040804 -0.07321569 -0.021914737 -0.13513239
0001e0 2a 63 59 3e ea 5a 1e 3e bd e2 c8 3e b7 b4 18 3e
       0.21229234 0.15464368 0.39235488 0.14912687
0001f0 40 70 ac 3c 17 5b 02 bd 5f ba 27 3e e6 3a 5e 3e
       0.021049619 -0.03182515 0.16379689 0.21702155
000200 9f 89 06 be 20 c9 f7 be b2 19 91 be 40 72 b4 be
       -0.13138436 -0.48395634 -0.28339916 -0.35243416
000210 be c2 38 3c a5 d6 33 3c 61 c5 f5 bd 6c 90 2d be
       0.011276899 0.010976468 -0.12000538 -0.16949624
000220 ef 0e 8e be 04 e7 2c be 87 e2 5a bd 83 df 19 3e
       -0.27745768 -0.16885 -0.05343869 0.15026669
000230 16 f5 dc bd 68 cc 86 3d 16 5b 84 be 82 ce d2 be
       -0.10788934 0.06581956 -0.25850743 -0.41173178
000240 28 b3 01 be 67 b3 ba 3d b2 5e b9 3d c3 fd 92 3e
       -0.12665999 0.091162495 0.09051265 0.2870923
000250 5c 10 8a 3e 16 52 e1 bd e5 97 20 be fe dd 3d 3d
       0.26965606 -0.11001985 -0.15682943 0.046354286
000260 b8 79 b4 bd bf 89 3b bd c5 cc e3 3e d3 24 03 be
       -0.088122785 -0.04578566 0.44492164 -0.12807016
000270 50 82 c1 bd 4d b3 84 3e d8 8d ae 3c 10 63 b5 3d
       -0.09448683 0.25918046 0.02130787 0.08856785
000280 fb b7 ba be 22 c4 0a be cb 8d 0c be 94 68 0d bf
       -0.3646849 -0.13551381 -0.13725965 -0.552377
000290 72 3e 27 3e 67 45 89 3d 4c d6 48 bd 1b cd 80 bd
       0.16332415 0.067026906 -0.049032494 -0.06289121
0002a0 3e bd 01 bd bd 46 63 be 32 fd 68 be 79 94 ae bd
       -0.031674616 -0.22194953 -0.22752836 -0.08524413
0002b0 0e cf 35 bd 46 7c 72 be a6 d3 82 3e 9b 49 93 3e
       -0.044386916 -0.23680219 0.255521 0.28767094
0002c0 85 a1 bb 3d 82 1d b6 be b8 e9 35 3e 46 28 43 3e
       0.09161667 -0.35569388 0.17764938 0.19058332
0002d0 8c f4 8c bd e8 85 d6 be 6c 9e 59 3d 76 38 4d bd
       -0.06882581 -0.41899037 0.0531296 -0.050102673
0002e0 00 0b 8d 3e 13 3d 2a bf 8d 62 66 be bd c9 3b 3e
       0.27547455 -0.6649944 -0.22498532 0.18338676
0002f0 b3 94 9a 3e e1 43 6a bd 34 9c f3 bd e4 33 c6 3c
       0.30191574 -0.05719364 -0.11895028 0.024194665
000300 73 29 91 be 6c bd 57 be 21 b6 63 3e 2e b3 5f be
       -0.28351936 -0.21068352 0.22237445 -0.21845695
000310 2a 68 4f 3e 3c 55 3a be 51 aa 18 bd 48 0d 17 3e
       0.20254579 -0.18196577 -0.0372718 0.1475116
000320 82 9f 9c 3e 09 85 a6 3d 14 77 ed 3d 27 83 2c bf
       0.30590445 0.08130843 0.11594978 -0.6738762
000330 8b ac 9d bd 81 e9 37 3e a9 8b b4 be bf e9 ec 3d
       -0.076989256 0.17960168 -0.35262802 0.11568021
000340 7c 3f 83 be 50 58 71 3e 32 b2 8f 3b b0 74 e6 3c
       -0.25634372 0.23568845 0.004385256 0.028131813
000350 6e c8 d5 3d 86 bc a8 3e e7 df 61 be 20 b7 bc 3e
       0.104386196 0.32956332 -0.22058068 0.36858463
000360 8b bf 12 be 8b 00 b4 3b 4b de 03 be 98 68 f2 3d
       -0.1433088 0.005493229 -0.12877767 0.11836356
000370 10 71 06 3e 0c 62 98 bd 2f 3b 30 3e be 79 9a 3e
       0.13129067 -0.07440576 0.17210077 0.30171007
000380 75 f8 15 3c b8 33 2f be c6 86 34 3e 86 cf a9 3d
       0.009153475 -0.17109573 0.17629537 0.08291535
000390 29 28 ea 3e 38 13 f0 3d cc 41 1f 3d cd f3 ea bd
       0.45733765 0.11722416 0.03888111 -0.114722826
0003a0 9c 76 a2 3c 8f b0 b3 bc 3d c9 7c be 9d cf 27 be
       0.019831948 -0.021934776 -0.24686141 -0.16387792
0003b0 13 52 a0 be 56 0c 06 3f 63 24 56 3e 07 6b ac 3d
       -0.31312618 0.52362573 0.20912318 0.08418851
0003c0 36 c4 5e 3e 5e 60 ea 3e 54 18 5d be eb 5c 91 3d
       0.21754536 0.45776647 -0.21591312 0.07097801
0003d0 a8 72 28 bd 75 30 23 3e ac 92 12 3d ed 1f 80 3d
       -0.04112497 0.15936454 0.03578441 0.06256089
0003e0 dd 2a a7 3d cc 92 e6 bc e5 d2 9e 3e a8 57 c7 3e
       0.081624724 -0.02814617 0.31020275 0.38934064
0003f0 6e 74 45 3e 98 88 ab bc 5b 85 b0 3e b2 2f 43 3e
       0.19282696 -0.020939156 0.34476742 0.19061163

pretrained_model.layer1.1.fc1.bias f4 [16]
000000 04 21 0a be 2c 84 81 3e 72 5a 81 3e 5d de 01 3e
       -0.13489157 0.25296152 0.25264317 0.12682481
000010 df 7f b2 bd 48 82 40 3d 51 2f 86 3e dd 42 5b be
       -0.08715796 0.046999246 0.26207975 -0.21412225
000020 da 93 2c 3e b3 63 b2 3d e0 8e e0 3d 7b da e2 bc
       0.16853276 0.08710422 0.10964751 -0.02769207
000030 7f 37 55 3d c4 03 0a 3e 51 96 01 3e e0 8a 41 be
       0.05205488 0.13477999 0.12654997 -0.18900633

pretrained_model.layer1.1.bn1.weight f4 [16]
000000 90 8a 69 3f 1e 9c 8b 3f af ae 71 3f 9c 46 92 3f
       0.91227055 1.0907018 0.9440717 1.1427798
000010 55 d9 57 3f 07 30 33 3f 5e bf 73 3f 4e fb 96 3f
       0.84316 0.6999516 0.9521388 1.1795442
000020 de 52 7d 3f 5a a9 ad 3f fa b8 97 3f 09 d2 7f 3f
       0.9895457 1.3567307 1.1853325 0.99929863
000030 71 38 95 3f 57 cb 5f 3f 27 e4 69 3f 1a 2a 96 3f
       1.165785 0.87419647 0.9136376 1.1731598

pretrained_model.layer1.1.bn1.bias f4 [16]
000000 3f 06 16 3e a6 e9 68 bd 69 22 2f be b7 93 7c bd
       0.1465082 -0.05686345 -0.1710297 -0.06166431
000010 6d 54 c6 be 7c 9f 03 be ee 37 eb b9 66 43 a4 3e
       -0.38736287 -0.12853807 -0.00044864364 0.3208267
000020 f8 19 c2 be bd 7c 1f 3e db 5a 4e 3e 2b b0 ee 3d
       -0.37910438 0.15574928 0.20151846 0.11654695
000030 b7 48 ba 3d 53 78 d0 bd 7c be 68 be b4 0d 7a bd
       0.090959005 -0.101792 -0.22728914 -0.061048225

pretrained_model.layer1.1.bn1.running_mean f4 [16]
000000 d0 61 3f bf 86 f5 b2 bf ef 23 27 bf 37 bd e1 bf
       -0.74758625 -1.3981178 -0.65289205 -1.7635869
000010 3f 13 e9 bf 77 b1 29 3f 10 a0 73 3e db fb eb 3f
       -1.8208998 0.66286415 0.23791528 1.8436235
000020 46 a8 f6 bf 57 17 99 3f 37 05 7e bf ab 62 46 bf
       -1.9270103 1.1960248 -0.9922671 -0.77494305
000030 65 dd f3 be bf a9 7c 3f 03 dc 8d 3f b4 6e cb 3f
       -0.47629848 0.9869651 1.1082767 1.5893159

pretrained_model.layer1.1.bn1.running_var f4 [16]
000000 b3 7c d5 3f 57 56 8d 3f cf 07 d1 3f a5 d1 ab 3f
       1.667868 1.1041974 1.6330508 1.3423353
000010 13 12 54 3f 4e 39 a6 3f d1 bb e4 3f 4f 43 5b 3f
       0.8284008 1.2986238 1.7869817 0.8564958
000020 1b c3 51 3f 0a 79 92 3f 17 ef ba 3f c1 fb 02 40
       0.8193833 1.1443188 1.4604214 2.0466158
000030 de 0b 73 40 4d f0 59 3f bb 99 8f 3f 3a 9c 07 40
       3.7975993 0.85132295 1.121879 2.1189103

pretrained_model.layer1.1.fc2.weight f4 [16, 16]
000000 89 01 f5 3e fc d6 b8 3e eb 44 7c bd 09 86 bd be
       0.47852734 0.3610152 -0.061589163 -0.37016323
000010 9e 1f eb 3c 7a 9f 8f 3d cd a0 4c 3e cb df cb bd
       0.0287016 0.070128396 0.19983216 -0.099547945
000020 0b 3f 32 bc a0 25 a8 be 4a 38 a1 bd 70 9b f2 3d
       -0.010879288 -0.32841206 -0.078720644 0.118460536
000030 58 28 ab 3d 8d 85 54 be d4 b8 a7 bb 56 56 49 3a
       0.08357304 -0.2075407 -0.005118469 0.00076804066
000040 d8 04 bd bd a2 19 0a 3d 28 6f 75 3e c6 f7 7a 3e
       -0.092294395 0.03371585 0.23968184 0.2450858
000050 0d ad a4 3e 18 1e 3f 3e f5 5d 12 be 67 ef 85 3d
       0.32163277 0.18663824 -0.14293654 0.06539803
000060 db 1f d0 3e d9 a6 af 3c 31 0b 89 bd b0 73 9a 3e
       0.40649304 0.021441864 -0.06691588 0.30166388
000070 03 e8 a3 be f9 7f 2d 3e 97 55 2e be 3b 6f 10 be
       -0.32012948 0.16943349 -0.17024837 -0.14104931
000080 5b 40 82 3e bf b3 a9 3e 22 da 96 3e 7b 40 92 3e
       0.25439724 0.33144948 0.29463297 0.2856482
000090 b4 37 3d 3d 1d d9 16 be 68 84 a5 bd e6 07 b9 be
       0.0461957 -0.1473126 -0.08081895 -0.3613884
0000a0 3d c0 05 be 1c d2 9e be 52 6b 3e bd ea e5 67 3e
       -0.13061614 -0.31019676 -0.046489067 0.22646299
0000b0 69 1c 99 be a2 9b f0 bd 4f 8f e0 3d 2f 42 1c be
       -0.29904488 -0.117484346 0.10964834 -0.15259622
0000c0 a7 c5 13 be da 68 be be 68 69 cf bd 77 30 97 bd
       -0.14430867 -0.3718937 -0.101275265 -0.07382291
0000d0 20 a7 75 bd 32 1c 29 be c3 db 6a be 4f cf a1 bd
       -0.059973836 -0.16514662 -0.22935395 -0.07900869
0000e0 e3 08 d0 be 1a d2 b4 be 88 40 f7 bb a0 d3 9c 3e
       -0.4063178 -0.35316545 -0.0075455345 0.30630207
0000f0 be 6c 30 3b 8a a0 9c bd 09 b8 88 be 33 0e 63 be
       0.0026920284 -0.07647808 -0.26702908 -0.22173385
000100 4e 00 e7 3d f6 e3 30 be 54 4d 62 3c 79 4d 3f 3e
       0.11279355 -0.1727446 0.013812382 0.18681897
000110 1b 05 be be 65 d4 1a 3e 47 e1 5b 3e 21 90 d7 be
       -0.3711327 0.15120085 0.21472655 -0.4210215
000120 0a 35 ba 3d bb a7 6e be ed ee c3 3e 44 85 2e be
       0.09092148 -0.23306172 0.38268223 -0.17043024
000130 3e 29 38 3e 55 29 1f 3e 66 cf 90 bb 86 82 bb 3e
       0.17984483 0.1554311 -0.004419255 0.3662302
000140 76 0a e3 3d ff 33 62 be e6 54 87 3c 53 67 ef 3c
       0.1108598 -0.22090147 0.016519975 0.029224074
000150 53 e6 90 39 bf f8 b6 3d fa e8 f4 3b 8f c4 c4 be
       0.00027637425 0.08934163 0.007474062 -0.38431212
000160 08 75 51 be 4c cb d5 bd 46 48 e0 bd 46 84 34 3e
       -0.204548 -0.104391664 -0.10951285 0.17628583
000170 56 4e 10 bf 03 e4 c3 bc 0f 48 5d be 3a df 60 be
       -0.5636953 -0.023912435 -0.2160952 -0.21960154
000180 66 9f 4c be 8f d0 8d be 42 d0 80 be c4 f7 cb 3e
       -0.1998268 -0.2769818 -0.25158888 0.39837468
000190 67 99 d8 3d 0c 63 96 bd ae ee f7 bd 53 3f 21 3e
       0.10576134 -0.073431104 -0.121060714 0.15746813
0001a0 2a 12 bb 3e e5 ba 66 be d1 03 c2 bd 7e 46 94 be
       0.36537296 -0.22532232 -0.09473384 -0.2896003
0001b0 f3 12 de 3c ea 9e e6 bd ce 8f d3 bd 54 9c 2c be
       0.027108645 -0.11260779 -0.10330163 -0.1685651
0001c0 02 dd 80 be e3 15 07 bd ee a3 51 be 4a cd a6 bc
       -0.25168616 -0.032979857 -0.2047269 -0.020361561
0001d0 f2 5e 51 bd 96 71 5b be f1 2c db 3d 98 b2 fb be
       -0.051115938 -0.21430048 0.10701931 -0.49159694
0001e0 11 c7 62 be 3a 86 78 be 6b fc 24 be 80 27 bd 3d
       -0.2214625 -0.24269953 -0.16111915 0.0923605
0001f0 66 41 2a bd 7c 59 0b be ef ab 76 3d b9 9f 9d be
       -0.041566275 -0.13608354 0.060222562 -0.3078592
000200 3f be fc 3e ac bf 3b 3e b8 0a c0 3d b5 30 9e 3d
       0.49363896 0.18334836 0.093770444 0.07724134
000210 84 95 20 be 1f a3 af bd 72 34 cc bd 10 54 ee 3d
       -0.15682036 -0.08576035 -0.09970941 0.116371274
000220 c3 b0 f0 bd ea d4 6e be ca 11 8e be 7d a6 33 3e
       -0.117524646 -0.23323408 -0.27747947 0.17543979
000230 8f 4d af bd fb 06 33 3e d9 a2 5c be 74 9f 92 3e
       -0.08559715 0.17483132 -0.21546496 0.28637278
000240 a8 28 ad 3e d8 67 34 3e 61 cc 46 3d c1 c6 1a bd
       0.3382008 0.17617738 0.048534755 -0.037787203
000250 33 ec f7 bd 79 e9 81 3e 7d ab 08 bc ac 7f 4d be
       -0.12105598 0.25373438 -0.008341667 -0.20068234
000260 45 42 07 bd 6f 94 8b 3e 40 fd 82 be 1d be ef bd
       -0.033022184 0.27261683 -0.2558384 -0.11706183
000270 1f de 43 be ec 30 4e be 9c d5 df bd b7 ca a7 bd
       -0.19127701 -0.2013585 -0.10929415 -0.08192962
000280 b0 64 18 3d cd 1c 0e be fd d7 84 3e c0 f8 9e be
       0.037205398 -0.13878174 0.25946036 -0.31049156
000290 97 37 05 3e 13 0c 95 be aa 16 15 3e 4c 6d fa be
       0.13009487 -0.29110774 0.14559427 -0.48911512
0002a0 54 2e b1 bd a3 ce 43 be bf 56 fe 3e 2b 90 89 be
       -0.086514145 -0.19121794 0.49675557 -0.26867804
0002b0 7c 3d 90 3d eb 9b 8b bc 3a 5e 96 be 10 2e 95 bb
       0.07042977 -0.01704212 -0.29368764 -0.00455261
0002c0 df 7b 3f 3e 86 ee 67 bd c0 18 13 3e d8 fc 03 bf
       0.18699597 -0.056623958 0.1436491 -0.51557684
0002d0 2b 3e 80 be ba 8a b3 3d 1b 87 9b 3d b9 a1 f2 bb
       -0.2504743 0.08766694 0.07594129 -0.0074045327
0002e0 68 ff 7e be be 4a f8 3d 05 8b c0 be 92 38 53 be
       -0.24902117 0.12123631 -0.37606063 -0.20627049
0002f0 23 08 4a 3e 41 39 c0 3d ee c1 b5 be 76 b0 67 3d
       0.19729666 0.0938592 -0.3549952 0.05656477
000300 b8 48 96 3d fa 90 b5 bd 05 74 34 3e e2 1e a2 3e
       0.07338089 -0.08865543 0.17622383 0.31664187
000310 91 ca e1 3e e0 c4 9b be 5f 06 e9 bd d5 f7 79 be
       0.44099858 -0.3042364 -0.11378168 -0.24410947
000320 d1 a3 cd 3e 4c d8 98 be 10 0b 92 3c f4 84 8d 3d
       0.40164044 -0.2985252 0.01782754 0.069101244
000330 6b fe 05 3c 87 14 72 bd a0 c9 1b 3e c8 9a 81 bc
       0.008178334 -0.059101608 0.15213633 -0.015820876
000340 69 18 9a 3d c4 13 f8 bc 97 fc 02 bf 76 cd 9b bb
       0.07524187 -0.030282862 -0.5116667 -0.0047547175
000350 3d 3f 07 3e 64 db 92 3e 27 63 76 3d 27 42 9a 3e
       0.13207717 0.28683007 0.060153153 0.30128595
000360 22 aa 87 3d 0e 39 6e 3e 6c 5f 0e bf 6c 7b 2a 3e
       0.06624247 0.23263952 -0.5561435 0.16648644
000370 cd df 6d be 45 d5 dc bd 87 74 8f 3e a4 bc 81 be
       -0.23229904 -0.107828654 0.2801859 -0.25339234
000380 c4 0d 8b bd 06 40 23 be 7e 3c 4c be 90 1f 4a 3e
       -0.06789735 -0.15942392 -0.19944951 0.19738603
000390 0c 80 8c be 42 15 f0 3d 99 d9 95 be a6 5f 32 be
       -0.27441442 0.117228046 -0.29267576 -0.174193
0003a0 a9 98 69 be e8 78 96 3e b4 13 51 bd 1f 20 03 3e
       -0.22812141 0.2938912 -0.05104418 0.12805222
0003b0 4d a2 a1 3e f6 2f 89 be 23 11 58 3d f2 78 ac be
       0.31569138 -0.26794404 0.052750718 -0.33686024
0003c0 dc db 4c be 15 f2 a7 bd 51 d6 cc bd a5 10 2e 3e
       -0.20005745 -0.0820047 -0.10001815 0.16998537
0003d0 3f a6 2b be 58 0c a1 3d 0c a9 d7 be 40 49 55 be
       -0.16762637 0.078636825 -0.4212116 -0.20828724
0003e0 6e 64 91 be 54 7f 2c 3e 21 c5 9c be e3 a7 33 3e
       -0.28396934 0.16845447 -0.30619147 0.17544512
0003f0 ba 61 eb 3e 29 aa 92 be ca d9 98 3b 70 95 1e be
       0.45972997 -0.28645447 0.0046646344 -0.15486693

pretrained_model.layer1.1.fc2.bias f4 [16]
000000 71 80 2e 3d db e4 90 bb 6d 7a 6e be 09 ee b2 bc
       0.04260296 -0.004421813 -0.23288889 -0.02184202
000010 fa 5f 55 3e 8c b2 ba 3e 5a fc b5 be 7e 8f ef bd
       0.20837393 0.36464345 -0.3554409 -0.11697291
000020 a6 5b df bc 85 96 1e be 4b 2d b7 bb 3d 92 32 bd
       -0.027265381 -0.15487106 -0.005590116 -0.043596495
000030 fe ac df 3d aa 96 8c be 70 fa fc bd 19 7d 9c bd
       0.109216675 -0.27458698 -0.12352455 -0.07641048

pretrained_model.layer1.1.bn2.weight f4 [16]
000000 af b8 7f 3f 59 59 9b 3f be 29 85 3f 04 2c 65 3f
       0.9989118 1.2136642 1.0403364 0.8952029
000010 a5 3b 41 3f d8 19 87 3f 5d 91 9f 3f ff 02 64 3f
       0.75481635 1.0554762 1.2466236 0.8906707
000020 ac ae 32 3f 71 54 55 3f ec bb 63 3f d2 ac 67 3f
       0.6979778 0.8333197 0.8895862 0.9049808
000030 26 23 53 3f 44 5f 2e 3f e0 ea 64 3f 33 3d 7d 3f
       0.8247551 0.68114114 0.8942089 0.9892151

pretrained_model.layer1.1.bn2.bias f4 [16]
000000 7e 1f 35 3c ab eb db be ab fa 83 be 5a 9a ce 3d
       0.011054872 -0.42953238 -0.25777182 0.10088034
000010 b9 8e 4d bd 57 86 db bd c8 bf 00 bf 10 7d a0 bd
       -0.05018494 -0.10718983 -0.50292635 -0.07836354
000020 b6 3d 1f 3e c7 69 95 3c 76 15 6b 3e 99 fe aa 3d
       0.15550885 0.018238915 0.22957405 0.08349342
000030 f7 a6 bb be d0 be a4 3e fd 04 fe 3e ed c6 8d 3e
       -0.36650822 0.32176828 0.4961318 0.2769083

pretrained_model.layer1.1.bn2.running_mean f4 [16]
000000 ab 30 b3 3c 57 e2 6a 3e 9e 67 db be c0 54 67 bf
       0.021873793 0.22937904 -0.4285249 -0.90363693
000010 d8 4c d3 3e 3e 14 ee be 37 0a 4a bf 97 57 8d bf
       0.41269565 -0.4649982 -0.78921837 -1.1042355
000020 44 a0 14 3e 6f 5b 9c be f6 18 df be e9 fa dd be
       0.14514261 -0.30538508 -0.4357373 -0.43355492
000030 d2 47 c8 3d c0 cd d0 be e5 44 ad be fb 8e de be
       0.09779324 -0.40781975 -0.33841625 -0.4346846

pretrained_model.layer1.1.bn2.running_var f4 [16]
000000 87 95 2b 3f 6e e7 26 3e 74 c1 0b 3f 7b a7 8a 3e
       0.67025036 0.16299221 0.5459206 0.27080902
000010 11 3f 01 3f 1a 99 5e 3e 2b 29 b1 3e b3 0e d1 3e
       0.50486857 0.21738091 0.3460172 0.40831527
000020 54 ac 10 3f 9c 06 89 3e 6c 69 4c 3f 1a 65 fe 3e
       0.5651295 0.26762855 0.7984836 0.4968651
000030 7f 9c e1 3e 7d 30 4a 3f 42 6d 8b 3f ef 2e 74 3f
       0.4406471 0.7898024 1.0892718 0.95384115

pretrained_model.layer2.0.fc1.weight f4 [32, 16]
000000 e3 e4 af 3e 51 e9 4b 3d 4d a8 6b be bc 62 ef be
       0.34354314 0.049783055 -0.2301342 -0.46755016
000010 01 01 1c 3e f9 62 8d 3d ca 26 bf bd b6 ac a1 3e
       0.15234758 0.06903643 -0.0933357 0.3157708
000020 b6 39 87 3e 69 0c b3 3d 08 e2 1f bd 4e 9b 1a 3e
       0.26411217 0.087426014 -0.03903392 0.15098307
000030 71 2f 4a bc 9f 30 a6 3d bf 41 7f be 66 40 9f 3d
       -0.0123404125 0.081147425 -0.24927424 0.07775955
000040 51 89 c8 be 6d 7a 46 3e 71 26 31 3d f0 a8 a3 3e
       -0.39167264 0.19382639 0.04324955 0.31964827
000050 3c 6b a1 be 34 97 16 3e 5d 3d ff bd ef 8e 8a bd
       -0.31527126 0.14706117 -0.12462876 -0.06765544
000060 40 81 f4 3d f2 45 d8 bd 09 30 d5 be 87 7a 24 3c
       0.11938715 -0.10560216 -0.4163821 0.010038978
000070 eb ab 6e 3e 35 af 15 be 60 2f 73 3e 03 f2 9a bd
       0.23307769 -0.14617617 0.23748541 -0.07565691
000080 28 14 0d 3e 57 f5 cf 3e 84 be de 3c f8 4a 59 3d
       0.1377722 0.40616867 0.027190454 0.05305001
000090 51 23 d1 bd 66 9d 72 3e 13 1d 1a be ee c8 24 bd
       -0.10211814 0.23692855 -0.15050153 -0.040230684
0000a0 e8 8d cb 3d d9 6d 5b bc 59 91 ab 3e 29 d0 10 3e
       0.09939176 -0.013392889 0.3350933 0.14141907
0000b0 2f 0c 56 3e 61 b4 95 be e5 03 fc bd 94 9f b1 be
       0.20903085 -0.2923918 -0.1230543 -0.3469206
0000c0 ad 86 82 b8 17 d8 f4 bd e6 44 28 3e 26 4c af 3d
       -6.2239684e-05 -0.11955278 0.16432533 0.08559446
0000d0 75 4b 09 3d 78 31 25 3e 17 13 cd 3c c9 63 00 3d
       0.033519227 0.16132152 0.025033517 0.031345163
0000e0 95 e6 74 3d ce 20 30 bd c3 e7 3a bf 20 98 db be
       0.059790213 -0.043000035 -0.7300989 -0.428895
0000f0 f3 28 f9 3c 52 0c 23 3d b2 b9 ce be de de 80 3e
       0.030415034 0.03980667 -0.4037605 0.25170034
000100 8a c1 cc bd 22 d5 58 3e e1 c8 bb 3d 07 dd f6 bd
       -0.09997852 0.21175054 0.09169174 -0.12053876
000110 91 bd 98 be 61 81 39 bd 11 07 52 3e 57 ca d2 bd
       -0.29832128 -0.0452894 0.20510508 -0.102924995
000120 5b 95 d2 3d ea 79 62 be 66 d8 a4 be ef 60 a7 bd
       0.102823935 -0.22116819 -0.3219635 -0.081727855
000130 af 26 9c 3e b0 96 c5 bc 96 c7 74 be b6 65 91 be
       0.30498263 -0.024119705 -0.23904261 -0.28397912
000140 88 ac 21 be dc fc b9 be e1 67 12 be e6 ea aa 3c
       -0.15788472 -0.3632573 -0.14297439 0.020863961
000150 7c fc 10 3e dc 47 95 be d9 62 bb be bd de 68 3d
       0.14158815 -0.29156387 -0.36598852 0.056853045
000160 16 b8 3d bd 2a 07 6e be 7b 54 52 3e 6d d9 e6 3d
       -0.046318136 -0.2324492 0.20540039 0.112719394
000170 17 26 b4 be d1 4f 89 bd 00 c4 63 3e e7 a1 55 3e
       -0.3518531 -0.06704677 0.22242737 0.20862542
000180 d4 f8 77 3c 8f 50 88 3e e5 14 84 be 91 28 a4 3b
       0.015135009 0.2662396 -0.2579719 0.0050097187
000190 27 be 16 3e a7 6d 82 bd f0 6d b4 bd 31 4f 9d bd
       0.14720975 -0.06368571 -0.088100314 -0.0768112
0001a0 59 61 26 3e 91 7f 9e 3e bb 56 4f be ea fa e5 3e
       0.16248073 0.309567 -0.20247929 0.44917995
0001b0 07 35 24 be 27 69 31 bc ec 54 1e 3e 8f fc d2 bd
       -0.16035853 -0.010828293 0.15462083 -0.10302078
0001c0 de b2 15 be 9a 24 6c 3e 60 9b c5 3e 93 a1 42 3e
       -0.14619014 0.23060837 0.38595104 0.19006948
0001d0 f9 c3 8d be 2a 0c b2 3e fc f8 76 3b 33 68 e4 bd
       -0.27688578 0.34774905 0.0037685027 -0.11152687
0001e0 43 5e 53 bd 2d c5 89 be 57 ee 09 bc da e4 a0 bd
       -0.051603567 -0.26908246 -0.008418641 -0.0785615
0001f0 c7 32 82 3e 5d 2e b0 be b2 49 86 3d 0c 5c 72 3e
       0.25429365 -0.34410372 0.06557025 0.23667926
000200 6d 23 a4 3a d3 83 08 bd 82 04 f8 be e7 b0 9e be
       0.0012522765 -0.033328842 -0.4844094 -0.3099434
000210 66 dc 50 be bd 42 88 3c f9 d4 4b 3e 35 c2 94 3e
       -0.20396575 0.016633386 0.19905461 0.29054418
000220 ad d4 30 be a1 da 0c 3e f1 f2 35 3e 1f 9d 2a bd
       -0.1726863 0.13755275 0.17768456 -0.04165375
000230 ab b2 69 bd 0e 68 52 3e 8d d9 a3 be ee 1a 8e 3c
       -0.057055157 0.20547506 -0.32001916 0.017346825
000240 5d 1c 6f 3e af 1e 31 be 88 83 89 3e 91 ff a2 3d
       0.23350663 -0.17296861 0.26858163 0.07958902
000250 6a 14 34 be 4e 59 f0 3e c2 54 75 3d b0 52 af bd
       -0.17585912 0.46943134 0.059895284 -0.08560693
000260 dd 3e 1d 3d 36 ea f2 3c 88 83 83 3e c9 8a 60 be
       0.03839003 0.029652696 0.25686288 -0.21927942
000270 dc e6 a8 3e 74 44 a1 be 35 2d 63 be 76 69 8c bd
       0.32988632 -0.31497538 -0.22185214 -0.068560526
000280 b7 e0 c0 bd 94 0e 24 3a 00 a7 3e 3e e1 70 08 bf
       -0.09417861 0.0006258276 0.18618393 -0.5329724
000290 b1 b5 60 be d2 5f 0a 3c 60 11 1a be ee 36 79 be
       -0.2194431 0.008445697 -0.1504569 -0.2433736
0002a0 a0 f3 92 3e d9 d6 33 be 4c 76 a4 bc cf 45 77 be
       0.28701496 -0.17562427 -0.02007594 -0.24147724
0002b0 53 d2 27 bd bc a0 13 be 5d 0c 83 be 8e a8 70 be
       -0.040972065 -0.14416784 -0.2559537 -0.23501799
0002c0 12 86 bf be 00 99 94 bd ab 02 40 be c1 96 d2 bb
       -0.37406975 -0.07255745 -0.18751018 -0.0064266627
0002d0 b8 4f a9 be 8c 95 04 bd b1 6d e9 3e d2 8e 89 bd
       -0.33068633 -0.03236918 0.455915 -0.06716694
0002e0 18 71 fe bd a6 26 11 3e a9 23 02 3e b8 f3 a6 bc
       -0.12423915 0.141749 0.12708916 -0.020379886
0002f0 76 61 c3 3b 1f 90 cd bb 09 1b 14 be 5c 72 03 be
       0.005962546 -0.006273284 -0.14463438 -0.12836593
000300 08 e6 60 bd 30 ce 53 3d 41 56 7e 3e 7a db 10 bf
       -0.054906875 0.051710308 0.24837591 -0.56584895
000310 62 69 1b be 39 b1 6f be 6d 82 36 be 8d 1b df be
       -0.15176919 -0.23407449 -0.17823191 -0.43575707
000320 88 dc dd 3d 59 69 08 3e be c4 84 be 17 1f 7b bd
       0.108330786 0.13321437 -0.25931352 -0.061308946
000330 b7 cf 18 bb a0 16 aa be 01 27 86 be 59 cc a2 be
       -0.0023317167 -0.33220387 -0.26201633 -0.3179653
000340 fc 36 11 3e ce 34 00 3e 28 69 54 3e b3 fc e5 bd
       0.14181131 0.12520143 0.20743239 -0.11229839
000350 53 08 69 be bc 99 66 3e 7b 5e e8 3c cf 29 32 3d
       -0.22757082 0.22519583 0.028365364 0.043496903
000360 bc 10 61 be d6 c6 b6 3e 04 3b 5a bd 23 b5 0b be
       -0.2197904 0.35698575 -0.053278938 -0.13643317
000370 d7 46 d4 3d a8 8a cc 3d 56 cd 0d bf 07 56 b8 be
       0.10365074 0.09987384 -0.5539144 -0.36003134
000380 97 64 3c 3d d2 3f 25 3e 77 90 cd 3d e5 d9 df bd
       0.045994367 0.16137627 0.1003732 -0.10930232
000390 b0 91 a6 bd 3e 5a a3 3d 73 1b 97 3e 34 2f 6d be
       -0.081332564 0.07976197 0.2951313 -0.23162538
0003a0 98 23 2e 3d f5 83 51 be c3 72 25 be 8d da a1 3e
       0.042514414 -0.20460494 -0.1615706 0.31612054
0003b0 6b 0d ab 3d f9 b1 08 be 6b 30 04 bf be 3f 8b bd
       0.08352169 -0.13349141 -0.5163638 -0.06799267
0003c0 8c 62 8c 3e e4 fb d5 3d 36 10 c1 3e 61 97 9b 3d
       0.27418935 0.10448435 0.3770768 0.075972326
0003d0 3a 4f 8c be 90 24 9c 3e a3 1d 68 bd 97 82 bf bc
       -0.27404195 0.30496645 -0.05666889 -0.0233777
0003e0 8f a0 33 be b1 32 07 3e 95 65 6f bc 21 80 7f be
       -0.17541717 0.13202931 -0.014611621 -0.24951221
0003f0 d8 e7 d8 bc 25 59 91 be 88 e0 b5 be d5 02 05 be
       -0.02647774 -0.28388324 -0.35522866 -0.12989362

pretrained_model.layer2.0.fc1.bias f4 [32]
000000 8e 4b de bd 94 9d c2 3d 27 4e 32 be be 4d 5f 3d
       -0.10854255 0.09502712 -0.17412625 0.0545175
000010 08 90 ec 3c ac bf 85 3e 4e aa 8b 3d 10 68 76 bd
       0.028877273 0.26122797 0.068195924 -0.060157835
000020 12 ea 07 3d b8 5a 4f 3c 1e 2f 04 be 9b de 74 3e
       0.03318221 0.012655906 -0.12908599 0.23913042
000030 59 a3 05 3d e1 3e 24 bd d2 6f c3 3c ad 75 08 3e
       0.032626484 -0.04009903 0.023857031 0.1332614
000040 fe 19 96 bd e0 36 28 3e 88 5a 5f 3c ce 13 e6 3c
       -0.07329176 0.16427183 0.013632424 0.028085615
000050 d4 ae 0b be be f1 5a 3e b8 cf 23 3e 9a 9b 0e bd
       -0.1364091 0.2138128 0.15997207 -0.034816362
000060 1f 49 74 3e 42 f4 d7 bd ce bb 23 3d 03 fb 14 be
       0.23856018 -0.10544635 0.039974026 -0.14548878
000070 48 4d 4f be cc b6 a9 bd 90 b9 03 be 06 f6 c4 3c
       -0.20244324 -0.08286819 -0.12863755 0.024043094

pretrained_model.layer2.0.bn1.weight f4 [32]
000000 8c fd 62 3f db 82 44 3f e7 ab 5a 3f fa 05 4c 3f
       0.8866813 0.7676217 0.8541855 0.7969662
000010 44 52 5f 3f 17 d3 a8 3f cb c6 54 3f 3f 04 6e 3f
       0.872349 1.318942 0.83115834 0.9297523
000020 d5 d3 5e 3f ae 73 6d 3f 07 d3 61 3f cf 86 71 3f
       0.8704198 0.9275464 0.8821263 0.94346327
000030 03 2e 79 3f c2 2a 8f 3f 34 8f 57 3f fe e6 7b 3f
       0.97335833 1.1184924 0.84202886 0.9839934
000040 4a 99 83 3f 37 22 57 3f 15 9d 4a 3f 86 89 80 3f
       1.0281155 0.8403658 0.7914594 1.0041969
000050 53 72 79 3f 12 9b 78 3f 24 25 5e 3f 11 6d 70 3f
       0.9744007 0.9711162 0.8677542 0.9391642
000060 9b ab 87 3f b4 47 7c 3f 88 bf 8e 3f 57 74 55 3f
       1.0599245 0.9854691 1.1152201 0.83380646
000070 d0 f5 91 3f ca e1 8a 3f e3 ab 95 3f 7a 00 76 3f
       1.1403141 1.0850155 1.1693081 0.9609448

pretrained_model.layer2.0.bn1.bias f4 [32]
000000 22 72 be 3d 3d b1 87 be 32 97 91 3d 07 44 de 3d
       0.09299113 -0.2650241 0.07108916 0.10852819
000010 6c a7 5f bf 51 6f ef 3e 22 eb 87 be d7 67 74 bd
       -0.8736484 0.46764615 -0.2654658 -0.059669342
000020 a1 a4 e6 bd 17 2a 3f 3d ae c1 16 bf 20 96 d2 be
       -0.11261869 0.046671 -0.5888928 -0.4113016
000030 c2 dd 8b be cf dd e4 be d3 7c 1c bf bb b7 91 be
       -0.27317625 -0.44700477 -0.61127967 -0.28460488
000040 6d 8d 09 bf 6d 07 7d be 36 45 c0 bd 2a e4 29 bf
       -0.53731424 -0.24709864 -0.09388201 -0.66363776
000050 bb 36 95 be 7a 03 c5 be f7 37 17 be 71 b2 c8 bd
       -0.2914332 -0.38479215 -0.14767443 -0.0979966
000060 e5 c7 cd 3d 59 a9 62 bf 11 ad ca 3d f2 67 fb be
       0.100478925 -0.88539654 0.09896291 -0.4910274
000070 a1 0f 90 be 02 ef 7d be 34 cb ed 3d e9 b7 ee be
       -0.28136924 -0.24798205 0.116110235 -0.46624687

pretrained_model.layer2.0.bn1.running_mean f4 [32]
000000 ac 47 83 3e c6 bd 02 bf f3 3d 0e 3e 7d 05 9a bf
       0.2564062 -0.5107082 0.13890819 -1.2032925
000010 18 d1 da bf 91 75 2d 3c f8 3c 36 3f 41 c3 fd 3d
       -1.709506 0.010587112 0.7118678 0.12390757
000020 5b bb 44 bf d8 c8 55 3e 99 76 1b c0 72 5d 68 bf
       -0.7684838 0.20877397 -2.4291136 -0.90767586
000030 e5 32 3f c0 3f 99 86 bf 81 51 76 bf 20 a7 04 bf
       -2.9874814 -1.0515517 -0.96218115 -0.5181751
000040 e5 59 ef bf 27 82 3b bf 06 a8 1c c0 19 57 db bf
       -1.8699309 -0.7324547 -2.4477553 -1.7135955
000050 f1 5c 33 bf 01 16 bd bf 3e 21 95 3e da 7c f0 3e
       -0.7006369 -1.477234 0.29126924 0.46970254
000060 1c e5 5d 3f b1 ed eb bf 94 a6 fc be 51 90 0c c0
       0.8667772 -1.8431913 -0.4934584 -2.1963084
000070 a4 4e 22 c0 ca a5 57 3e 2a 84 be 3f 3d 22 24 c0
       -2.5360498 0.21059337 1.4884083 -2.5645897

pretrained_model.layer2.0.bn1.running_var f4 [32]
000000 fc e7 31 40 99 e5 ef 3f ad bf 1e 40 c4 15 0f 40
       2.7797842 1.8741943 2.480449 2.2357035
000010 b3 75 89 3f d8 c3 a4 3f cc 5c 4a 3f d2 2d fd 3f
       1.0739044 1.2872267 0.79047847 1.9779608
000020 65 bb 94 3f 53 b1 df 3f ff ca 99 3f f7 e3 89 3f
       1.1619688 1.747599 1.2015074 1.0772694
000030 5e 4e eb 3f 07 b6 b4 3f db 31 af 3f d6 3c 00 40
       1.8383291 1.411805 1.368709 2.0037131
000040 ed e5 91 3f b3 52 ef 3f d5 20 a8 3f 26 9b 8f 3f
       1.1398293 1.8697113 1.313502 1.1219223
000050 19 bd 80 3f d6 9b 93 3f f3 59 bb 3f cd ee fd 3f
       1.0057708 1.1531932 1.4636825 1.9838501
000060 15 24 0b 40 ee be 6b 3f 72 f2 28 40 ae 4e 97 3f
       2.1740773 0.9208821 2.6397977 1.1820886
000070 b2 d5 cd 3f 90 95 02 40 bc 4e 8c 3f 23 29 4d 3f
       1.608084 2.0403786 1.0961528 0.80140895
