sensor_case/outputs/experiment4/resnet_model.pth (torch, 148679 bytes, 92 tensors)

layer1.0.fc1.weight f4 [16, 5]
000000 55 72 1b 3d a3 6f 87 bd 8f 1f 4f 3e 4c 00 c0 be
       0.037950832 -0.0661309 0.20226882 -0.37500226
000010 f6 a0 2b bf 57 d9 55 be 16 1c e2 be 3f 89 e2 ba
       -0.6704248 -0.2088369 -0.44162053 -0.0017283334
000020 0e 2a f3 bc 2f d0 46 be 24 95 89 3e 8f d8 0c 3e
       -0.02968314 -0.19415353 0.26871598 0.13754486
000030 7a b7 a3 3e 2e 24 fe 3e 09 1c 8f bd c2 5d a5 bb
       0.3197592 0.49636978 -0.06987769 -0.005046577
000040 c0 a0 e9 be 67 1f 08 3f 29 e4 a2 be a5 e4 68 be
       -0.45630455 0.53172916 -0.31814697 -0.22743471
000050 95 92 9d 3e a2 1b c3 3d c1 a4 ac be 2c 63 c4 3e
       0.30775896 0.09526755 -0.33719447 0.38356912
000060 a0 60 d1 3c 50 d8 10 bf 53 1b 7b 3e d6 74 e8 3e
       0.02555877 -0.56580067 0.24522142 0.4540164
000070 07 ff 93 3e 79 ec 97 3e 13 7d 9a 3d bb f4 b4 3e
       0.28905508 0.29672602 0.07543387 0.35342965
000080 aa 9b 22 3f b3 01 48 3d 64 63 27 3e 9e 03 43 3c
       0.63518775 0.048829746 0.16346508 0.011902718
000090 16 bc 17 be d1 33 84 bd a6 b1 8c be be e4 a0 be
       -0.14817843 -0.06455196 -0.27479285 -0.31424516
0000a0 52 04 0b bf b8 94 0c bf 8e 8c 5c 3e ae 78 a4 3e
       -0.5430347 -0.54914427 0.21537992 0.3212332
0000b0 55 99 ba 3e 91 6e 06 3e 02 b4 31 3e 86 ff 81 3d
       0.36445108 0.13128115 0.17353824 0.06347565
0000c0 eb e1 a0 3e 35 6f dc 3e 73 a5 77 be c5 fb fe 3e
       0.31422362 0.43053594 -0.24184208 0.4980146
0000d0 85 62 89 be a7 5b 06 be 63 45 ae be 94 96 9c 3e
       -0.26832977 -0.131209 -0.34037313 0.30583632
0000e0 7c 8c e4 3e d0 ee 65 3c 32 60 e5 bd ba d9 ac 3e
       0.4463843 0.014033988 -0.111999884 0.33759862
0000f0 04 76 49 3d ed b7 06 bf 97 4f a6 bd 94 a3 f7 3e
       0.049184814 -0.526244 -0.08120649 0.48366988
000100 07 a5 6a be 95 b1 e5 be 02 7e 54 3e f9 56 92 be
       -0.22914515 -0.44862047 0.20751193 -0.2858198
000110 ac 0c d8 be 6b 37 55 be 99 b7 85 be cc 36 48 3f
       -0.42197168 -0.20821922 -0.26116636 0.78208613
000120 8f dc 12 3c 61 9f 89 bc eb c4 cc 3d 19 6e 3e be
       0.008963718 -0.01679963 0.099984966 -0.18596686
000130 d9 e2 32 3e 26 c5 3b 3e c5 46 87 be 3d 84 ff be
       0.17469348 0.18336925 -0.2642118 -0.49905577

layer1.0.fc1.bias f4 [16]
000000 d3 b1 51 be a7 13 48 bf 93 f8 ad bd 3d 45 3e be
       -0.20477991 -0.7815499 -0.084946774 -0.185811
000010 eb dd 04 bf 98 50 02 be 1c 25 c1 bc 96 62 96 3d
       -0.5190112 -0.12726057 -0.023577265 0.073430225
000020 7d 32 80 be a9 ec bc 3e 0d 68 b8 be f5 26 1d bf
       -0.2503852 0.36899307 -0.36016884 -0.6138757
000030 7f e4 d5 bd 7c c6 a9 be b0 2c cc 3d fb 0d 26 3e
       -0.10443973 -0.33159244 0.09969461 0.1621627

layer1.0.bn1.weight f4 [16]
000000 e8 d9 2c 3f 4d f8 ba 3f 0c 85 4e 3f 5f 11 96 3f
       0.6752 1.4607025 0.80671763 1.1724051
000010 7a 8c 68 3f a8 0b 81 3f 7d 0f 75 3f c4 4d 8b 3f
       0.9083935 1.0081682 0.9572676 1.0883107
000020 32 d7 8d 3f 1c d9 67 3f a6 3f 93 3f fb 0e af 3f
       1.1081297 0.9056566 1.1503799 1.3676447
000030 11 8a 6b 3f a0 b7 7f 3f 61 33 7c 3f 51 b4 7c 3f
       0.9200755 0.99889565 0.985159 0.9871264

layer1.0.bn1.bias f4 [16]
000000 f0 39 af bd af 6e 96 3d 7f 53 18 be d3 fd ac 3d
       -0.085559726 0.0734533 -0.14875601 0.08446851
000010 a6 b8 d3 bd b1 b0 dc bb b1 59 e0 bd 29 c0 8a 3e
       -0.10337953 -0.0067349304 -0.10954607 0.27099732
000020 24 ac 8c 3e e0 fe 99 3e d9 8f 53 ba c3 78 d4 3d
       0.27475083 0.30077267 -0.0008070446 0.10374596
000030 12 87 21 3c 2c 0e b3 bd 9b b9 24 be 70 76 86 be
       0.009858863 -0.087429374 -0.16086428 -0.26262236

layer1.0.bn1.running_mean f4 [16]
000000 87 0a 22 be b0 6e 7b bf fa 48 34 3e 88 bb 45 be
       -0.15824328 -0.9821577 0.17605963 -0.19309819
000010 af cc 52 be 41 09 36 bf 7e 93 00 3d 9f d9 c0 3d
       -0.20585893 -0.7110787 0.03139066 0.09416508
000020 7c 8a 4c bf da 6a fa 3e 67 69 18 bf 84 4d a3 be
       -0.7989881 0.48909646 -0.5953583 -0.31895077
000030 e2 b8 35 bd 9e a9 45 bf 74 e6 2f be 73 1c a8 bc
       -0.04436577 -0.7721194 -0.17177755 -0.020521378

layer1.0.bn1.running_var f4 [16]
000000 20 de 22 3f 6a 48 7c 3e 7d 93 bd 3e fb 4d 26 3f
       0.63620186 0.24636999 0.37026587 0.6496274
000010 66 35 88 3e a9 e3 e2 3e 29 08 0d 3f a7 d9 52 3e
       0.2660324 0.44314316 0.55090576 0.2059084
000020 ec 9c 1d 3f 03 fe a6 3e 07 40 f3 3e 70 da ac 3e
       0.6156757 0.3261567 0.47509786 0.33760405
000030 b6 22 16 3f e2 fa b7 3e 27 45 29 3f de c8 c3 3e
       0.58646715 0.35933596 0.66121143 0.38239187

layer1.0.fc2.weight f4 [16, 16]
000000 07 0d 44 bd 48 ba 0c be be 08 d1 bd a3 82 bf be
       -0.047863986 -0.13742936 -0.102067456 -0.37404355
000010 a5 26 9e 3e 7f c2 e3 bb 26 18 bf 3e ff 70 8a be
       0.30888858 -0.006950676 0.3732311 -0.27039334
000020 a7 64 f4 3e 72 bf 6b 3e 8b 79 10 3d a2 0e 7a bd
       0.47733042 0.2302225 0.035272162 -0.06104911
000030 a4 2a 00 3e 77 59 39 bd ec c6 70 3d 6f ea d3 bd
       0.12516266 -0.045251336 0.058783457 -0.10347449
000040 f1 70 33 be ca 18 b9 be 66 f6 06 bd 04 5a 98 3e
       -0.17523552 -0.36151725 -0.032949828 0.29756176
000050 5d ae 61 3e 98 ec fa 3e 55 c0 b3 3e 3e b1 93 bc
       0.2203917 0.49008632 0.35107675 -0.018028852
000060 70 02 34 bd 8e 8b aa 3d e9 1f 40 3c f3 7d a7 3e
       -0.043947637 0.08327399 0.011726358 0.3271328
000070 5e 34 5a be b0 6b cc bd 91 23 dd 3e 93 23 26 bd
       -0.21309039 -0.09981477 0.43191198 -0.04056127
000080 01 b4 af be 6c 1c 37 3d 9c 50 0f be 96 0a 2f bd
       -0.3431702 0.04470484 -0.13995594 -0.042734705
000090 e0 36 bc 3c 19 61 e1 bd ed 1c 01 bf a1 7c c8 be
       0.022975385 -0.11004848 -0.5043476 -0.39157584
0000a0 18 7b 6b 3e 5a 40 12 3e c5 14 84 be 2b b8 94 be
       0.22996175 0.1428236 -0.25797096 -0.2904676
0000b0 c9 b3 fb bd 86 88 48 3d c8 84 8e be 60 85 23 bf
       -0.12290151 0.048958324 -0.2783568 -0.6387539
0000c0 8d a0 82 bd 04 0a 5c 3d 60 3f 46 3e 31 c6 94 3d
       -0.06378279 0.05372049 0.19360113 0.072643645
0000d0 c2 36 38 be 3e 89 0a 3d f9 6d 73 3e 4d b2 22 be
       -0.17989638 0.03382229 0.2377242 -0.15888329
0000e0 ca dd b0 bc bc 51 22 3d 2b d9 dd 3d 57 8e cd 3e
       -0.021590132 0.03962873 0.10832437 0.4014766
0000f0 f1 0a 0c be f1 cf 75 3e 2e 09 21 3f 39 61 46 be
       -0.13676049 0.24005105 0.6290463 -0.19373025
000100 d9 49 0e 3e 0b 20 cf be ff 98 8e 3d 8b 25 e9 3d
       0.13895358 -0.40454134 0.069627754 0.11384114
000110 27 b9 6f be 15 bf 2e bd 89 b7 fe bd 86 2e 97 3e
       -0.23410474 -0.0426627 -0.1243735 0.29527682
000120 09 d9 60 3e 04 0c ca bd 57 32 b9 3e 4e 89 1a be
       0.21957792 -0.09865573 0.3617122 -0.1509144
000130 9a a2 56 be d4 0b a7 3e c4 59 10 be ed 66 32 3e
       -0.20960465 0.32626212 -0.14096743 0.17422076
000140 73 a5 dc bd 2f 16 9e 3e 36 ea 0b bf 25 a8 0b 3e
       -0.107737444 0.308763 -0.5465425 0.13638361
000150 89 70 a8 3e 49 47 bb be ef 6c 81 bd fd 3e 22 bd
       0.32898358 -0.36577824 -0.063196056 -0.03961085
000160 94 88 9a 3e 52 33 3d 3d 6a 4a 24 be c6 42 83 3e
       0.30182326 0.04619152 -0.16044012 0.25636882
000170 43 1b 4a 3d 13 3a 64 bd 96 c6 c5 3e df db 16 be
       0.049342405 -0.055719446 0.38628072 -0.14732312
000180 27 fa 87 be 1e 0b bf 3c df 72 51 3d 39 e7 d5 3d
       -0.2655804 0.02332073 0.05113494 0.10444493
000190 de 09 77 be 54 82 df bd c8 a0 80 be f2 be bf 3c
       -0.24124858 -0.1091353 -0.25122666 0.02340648
0001a0 70 30 ee 3d 9f ba 90 be dd eb 8d be d1 f5 55 bf
       0.116303325 -0.2826738 -0.27719012 -0.8357821
0001b0 dd 4b 38 be 18 b7 bc be 32 2e 19 bd d9 3d aa bd
       -0.1799769 -0.3685844 -0.03739757 -0.08312578
0001c0 a0 87 82 bd 81 09 9b be 01 4d 9d 3e 07 26 a2 be
       -0.06373525 -0.30280688 0.30722812 -0.31669638
0001d0 d2 67 06 be 3a 4c ce 3e 19 ca 29 3d b4 57 51 be
       -0.13125542 0.4029253 0.0414525 -0.20443612
0001e0 96 2e 96 3e 25 4b 33 3e 5d af 3e bd 50 39 14 be
       0.29332417 0.17509134 -0.04655396 -0.14474988
0001f0 d4 cd 8d 3d d9 65 da 3d 0d 05 81 be 73 be 40 3e
       0.06924024 0.10663957 -0.25199166 0.1882265
000200 72 f5 86 3e a0 60 64 3e b1 e1 33 3e e2 df 00 3f
       0.26359135 0.22302485 0.17566563 0.5034162
000210 fe 2b 0d bd 7f af 01 3d 7e 3d 15 3d 74 32 59 3e
       -0.034465782 0.031661507 0.036435597 0.21210653
000220 63 cf 5b 3e 3a 15 9c be 1e 63 ec bd 43 30 69 3e
       0.2146583 -0.30484945 -0.115423426 0.22772317
000230 ae 0f 83 3e 85 1c e1 bd ee 82 80 3d bf 7a b4 3e
       0.255979 -0.10991768 0.06274973 0.35249898
000240 67 04 ba 3d c2 57 59 be 8c 8e 88 be ce a2 b9 ba
       0.09082871 -0.21224883 -0.26671255 -0.00141629
000250 e8 c0 f7 be 6f ed 84 be 01 e7 22 be c6 2d 2b 3c
       -0.48389363 -0.25962397 -0.15908433 0.010447925
000260 65 41 cd be 53 d3 88 be 73 ba ff bc 13 0e 2a 3d
       -0.40088955 -0.26723728 -0.031216836 0.04151733
000270 48 99 12 bf 53 da c8 3e a3 c8 46 bd aa 83 ac bc
       -0.5726514 0.39229068 -0.048531186 -0.021058876
000280 71 dc 94 3d 0f 8c dc be 75 d7 b2 3d 85 a4 63 bd
       0.07268608 -0.43075606 0.087325014 -0.05557682
000290 8f 5e 59 be 45 d9 28 3e 14 42 ed 3e b6 21 a5 be
       -0.21227477 0.16489132 0.46339476 -0.32252282
0002a0 d1 cd 92 3e 49 35 89 3e fa e4 00 3b c1 42 9c bd
       0.2867265 0.26798466 0.001966773 -0.0762992
0002b0 6a 8f e6 3c ce d5 51 3d 6c 4c 29 be e0 62 fb 3c
       0.028144557 0.05122929 -0.16533059 0.030686796
0002c0 4e f2 33 be 5a 5f 35 be 00 0b a6 bd be 84 63 bc
       -0.175729 -0.17712155 -0.08107567 -0.013886629
0002d0 82 6c 83 3e c3 40 53 3e 21 ac aa 3e 93 a3 38 be
       0.25668722 0.20630173 0.3333445 -0.18031149
0002e0 7d 28 44 be 38 4e 9b 3e e4 59 37 3e 85 0e 92 3e
       -0.1915607 0.30333114 0.17905384 0.28526703
0002f0 b3 68 12 3e 9d 1b 57 be 97 df c3 3e 62 57 20 be
       0.14297752 -0.21006627 0.38256523 -0.15658334
000300 c0 d0 b4 bc d3 77 b7 bd 28 e1 f4 3d 4b e9 f8 bd
       -0.022072196 -0.089584015 0.11957008 -0.12153872
000310 fc 58 a7 3e 0e 86 7f 3d 65 f1 ec bc 06 34 55 3e
       0.32685077 0.062383704 -0.0289237 0.20820627
000320 a1 77 72 3e bc 05 86 3d ca dd 2c 3f 54 35 dd bd
       0.23678447 0.065440625 0.67525923 -0.10801187
000330 78 27 93 be 94 9e b8 3e 63 82 b9 bc b4 3c 52 3d
       -0.2874105 0.36058486 -0.022645181 0.051327422
000340 3f 04 f5 bd a1 c1 94 be 61 67 2b 3e 64 c4 a3 be
       -0.119637005 -0.29053977 0.16738655 -0.31985772
000350 d5 e1 97 be 57 65 58 3e bf 0b 4e 3e 65 33 0a be
       -0.29664484 0.21132408 0.20121668 -0.13496168
000360 76 cc be 3e 82 9c 67 3e 57 f6 43 3e 02 14 bd be
       0.37265366 0.22618297 0.1913694 -0.36929327
000370 16 47 2b be 41 7f ba bd 70 f3 28 be ff 99 5b be
       -0.16726336 -0.09106303 -0.16499114 -0.21445464
000380 53 eb 13 3e e4 f5 54 3f e8 3d 2b 3e 14 e7 ee 3d
       0.14445238 0.831877 0.16722834 0.116651684
000390 68 2e a8 3c e3 8f e9 bd 30 df 82 3d 46 95 1c 3e
       0.02052994 -0.11404397 0.06390226 0.15291318
0003a0 e8 0e 26 3e 70 22 60 be e3 44 34 be a6 e2 4c be
       0.16216624 -0.21888137 -0.17604403 -0.20008335
0003b0 ea 11 9d 3e 16 9c d1 bd 83 ca 24 3d 74 5f 32 be
       0.3067773 -0.10234849 0.040232193 -0.17419225
0003c0 cc 1d cf bc 26 75 79 3e 70 92 0c be 1d e4 c7 3d
       -0.025282763 0.24361095 -0.13727736 0.09760306
0003d0 2d 0d 2e 3e 2a e5 0b 3e 95 04 57 3e 52 89 c6 be
       0.16997214 0.13661638 0.20997842 -0.38776642
0003e0 38 19 bf be ee b5 a6 3e 38 94 1c bd 25 51 d6 3e
       -0.37323928 0.32560676 -0.03822729 0.41858783
0003f0 3b d7 2b bd 1f 30 4e be dc a3 35 3e 35 63 b7 bd
       -0.041953307 -0.20135544 0.17738289 -0.08954469

layer1.0.fc2.bias f4 [16]
000000 4f c7 96 3e e0 4e 4a be dc bf 01 be 88 a0 80 3d
       0.29448935 -0.19756651 -0.12670845 0.06280619
000010 92 54 97 bd dd 5b 49 3d b7 5f a3 3e d0 a9 6f be
       -0.073891774 0.049159873 0.31908962 -0.23404622
000020 dc 72 48 3e a0 1c 32 3d 9e fc c9 be a0 89 1a 3c
       0.19575065 0.04348433 -0.39450544 0.009432226
000030 0a 4a 5b bc 7a d4 65 bc 07 1d 7e 3a 26 e0 3e 3d
       -0.0133843515 -0.014027709 0.00096936565 0.046600483

layer1.0.bn2.weight f4 [16]
000000 21 52 52 3f a8 14 82 3f 1e a8 6e 3f e8 0d 6e 3f
       0.8215657 1.0162554 0.93225276 0.9298997
000010 88 83 b3 3f 36 ad 65 3f fd 82 94 3f 31 df 8c 3f
       1.4024515 0.89717424 1.1602474 1.1005613
000020 2a e0 8c 3f 65 98 8a 3f ff b3 80 3f 91 08 6b 3f
       1.100591 1.0827757 1.005493 0.91809946
000030 7c ae 93 3f 79 70 bd 3f 46 1e bb 3f 5d ee 9d 3f
       1.1537623 1.4799949 1.4618614 1.2338368

layer1.0.bn2.bias f4 [16]
000000 c6 e4 83 be e4 a5 62 3d 7b b8 66 be 53 8f 1a 3e
       -0.25760478 0.055333987 -0.22531311 0.15093736
000010 ee 98 47 3e dc 88 52 3d 65 67 22 3e fb 67 2b bd
       0.19491932 0.05140005 0.15859754 -0.04184721
000020 34 b2 70 3e d8 46 8e 3d 12 c4 fc 3d b8 b2 87 bd
       0.23505479 0.06947106 0.12342085 -0.06625885
000030 96 60 e3 3c f9 13 0a bd db a5 bc 3d dc 4b 34 3d
       0.027756017 -0.033710454 0.09211322 0.044017658

layer1.0.bn2.running_mean f4 [16]
000000 f2 b7 e5 3e fb 87 90 3e 33 13 85 bf fa 54 17 3f
       0.44866902 0.28228745 -1.0396484 0.5911404
000010 ef 1e a0 3c 94 64 da 3e bb 31 4b bf b5 e4 9f be
       0.019546 0.4265486 -0.7937276 -0.31229177
000020 60 4e 87 3f da 1e 67 bf ed 36 de be f9 c0 b6 3e
       1.0570793 -0.9028145 -0.4340128 0.356941
000030 de 0b 16 3f 49 4a b9 be 78 69 0b 3f a4 8e 93 3e
       0.5861186 -0.36189488 0.5445781 0.28819764

layer1.0.bn2.running_var f4 [16]
000000 0e 46 2d 3f 86 97 8c 3f 5c ab 6f 3f ce ff 30 3f
       0.6768502 1.0983741 0.9362085 0.69140327
000010 fe b5 e2 3e 7d 81 a8 3e b5 38 8e 3f 78 d5 05 3f
       0.44279474 0.32911292 1.1111056 0.5227885
000020 18 1a 39 3f 28 a9 81 3f dd 0b 2c 3f 66 56 7b 3f
       0.7230544 1.0129747 0.672056 0.9817871
000030 c7 89 e3 3e de b2 04 3f 9e c2 c5 3f 63 b1 15 3f
       0.44441053 0.5183543 1.5450017 0.58473796

layer1.0.shortcut.0.weight f4 [16, 5]
000000 d9 06 7a 3e 37 4a 0c bf 84 80 ef be 46 45 ca 3e
       0.24416675 -0.5480074 -0.46777737 0.39505976
000010 cf cb a0 bd d2 49 77 bd 8c bd be 3d f8 36 65 bd
       -0.078513734 -0.060373135 0.09313497 -0.055960625
000020 90 ae ab bd a5 87 1c 3f a9 eb d2 3d 55 86 19 3e
       -0.083829045 0.6114448 0.10298855 0.1499265
000030 e3 1f 29 3f bd 3c 84 3e fb 82 9b bd 09 d1 1e bf
       0.6606428 0.2582759 -0.07593342 -0.6203771
000040 70 64 a6 bd b8 32 05 bd 72 86 49 3e 42 97 61 3f
       -0.08124626 -0.032519072 0.19680193 0.88121426
000050 49 75 29 3d 86 78 c1 3d f1 86 56 be 4c 99 99 be
       0.041371617 0.09446816 -0.20949914 -0.2999977
000060 5f af 87 be 6e f4 0e 3e f1 a0 33 be 20 4e 16 bf
       -0.26500985 0.1396043 -0.17541863 -0.5871296
000070 ad e6 a6 3d f9 2b 11 3e be ae 22 3e c6 d9 2d 3d
       0.08149467 0.1417693 0.15886971 0.042444013
000080 a7 2d a3 3d 1b 91 4e 3e 74 3c 00 3f 39 17 a8 3d
       0.07967692 0.20172541 0.50092244 0.08207554
000090 82 52 b8 be e5 54 e6 3c 56 85 bc 3e e5 54 65 3e
       -0.36000448 0.028116653 0.36820477 0.22395666
0000a0 99 ed 22 be d2 fc 99 be dd d8 eb 3b 2b cb 92 be
       -0.15910949 -0.300757 0.007197483 -0.2867063
0000b0 7f b4 17 bf ea f8 b9 3e 7d cf 7c 3e 1c 3d cc be
       -0.5925979 0.3632272 0.24688525 -0.39890373
0000c0 14 4c 97 be 91 64 bb be ce 82 b9 bb 60 09 9b be
       -0.2955023 -0.36600164 -0.005661345 -0.3028059
0000d0 9f ec ff 3c 38 c4 aa 3e cb 81 0e 3f 8d d9 81 be
       0.03124076 0.33352828 0.556668 -0.2536129
0000e0 4a 78 a4 3e 53 01 06 be d6 29 01 3e b1 d9 a5 3e
       0.32123023 -0.13086443 0.12613615 0.32392648
0000f0 c0 12 9c 3e 60 df 11 3f c4 a8 1a be 08 de db 3e
       0.30483055 0.5698147 -0.15103441 0.42942834
000100 93 0a 9d 3d 2e c2 0c 3f b3 0d 18 bf f9 f2 54 3e
       0.076680325 0.54983795 -0.59395903 0.20795812
000110 13 ae 9a bd 86 68 a5 3e b1 08 28 3e 1b c3 dd be
       -0.07552733 0.32306308 0.16409566 -0.43312916
000120 44 46 be be 16 19 15 be 52 ef eb bb 32 8c 7f 3e
       -0.37162983 -0.14560351 -0.00720016 0.24955824
000130 d1 b5 21 3f b4 ee 89 3e 91 d3 4b be c2 98 ba 3d
       0.63168055 0.2693993 -0.19904925 0.091111675

layer1.0.shortcut.0.bias f4 [16]
000000 c6 23 83 3d bd 53 77 bd 6b c1 1e 3d 10 31 96 be
       0.064033076 -0.060382593 0.038758676 -0.29334307
000010 1e a0 c5 be 6d f0 5a be 41 57 a6 bd 67 f0 c6 be
       -0.38598722 -0.21380778 -0.08122111 -0.38855287
000020 86 17 f4 3e be e7 b0 3d 81 d4 5b be 63 bd ed 3e
       0.47674197 0.08637951 -0.21467783 0.46433553
000030 7d 4f 56 be 91 9a 41 3e be 53 d7 3e fb dc b3 bd
       -0.2092876 0.18906619 0.42056078 -0.08782383

layer1.0.shortcut.1.weight f4 [16]
000000 f7 f2 4b 3f b9 e7 86 3f 73 99 21 3f 93 9c 97 3f
       0.7966761 1.0539466 0.6312477 1.1844658
000010 54 07 a3 3f 8d 83 98 3f 26 d8 31 3f bc c7 5a 3f
       1.2736611 1.1915146 0.6947044 0.8546102
000020 db 36 9f 3f f3 de 73 3f 62 c8 81 3f e2 c9 73 3f
       1.2438616 0.9526207 1.0139277 0.95229924
000030 e2 71 80 3f 43 9d 3d 3f a7 5d 45 3f 55 74 8b 3f
       1.0034754 0.7406809 0.7709603 1.0894877

layer1.0.shortcut.1.bias f4 [16]
000000 c6 e4 83 be e4 a5 62 3d 7b b8 66 be 53 8f 1a 3e
       -0.25760478 0.055333987 -0.22531311 0.15093736
000010 ee 98 47 3e dc 88 52 3d 65 67 22 3e fb 67 2b bd
       0.19491932 0.05140005 0.15859754 -0.04184721
000020 34 b2 70 3e d8 46 8e 3d 12 c4 fc 3d b8 b2 87 bd
       0.23505479 0.06947106 0.12342085 -0.06625885
000030 96 60 e3 3c f9 13 0a bd db a5 bc 3d dc 4b 34 3d
       0.027756017 -0.033710454 0.09211322 0.044017658

layer1.0.shortcut.1.running_mean f4 [16]
000000 f0 74 a6 3e 6a 67 06 be a4 f6 01 3e 6e 8c 6d bf
       0.3251109 -0.13125387 0.12691742 -0.92792404
000010 47 15 ac be 8a cf 7e bd 55 fb 87 3d c5 7e 9d be
       -0.33609983 -0.062209643 0.06639735 -0.3076078
000020 d3 b6 a9 3e a8 be ec 3e 54 74 69 be 16 28 51 3e
       0.33147296 0.4623921 -0.22798282 0.20425448
000030 6f 23 ba 3d fc 32 3c 3f ef fd 18 3f 9f 48 17 3e
       0.0908879 0.73515296 0.5976247 0.14773796

layer1.0.shortcut.1.running_var f4 [16]
000000 5e ae 2f 3f 66 5f c5 3e 36 57 04 3f 8a 21 52 3f
       0.6862544 0.38549346 0.51695573 0.82082427
000010 60 a2 61 3e 91 f1 c5 3e 08 83 9b 3e 3c 79 a9 3e
       0.22034597 0.38660863 0.30373406 0.33100307
000020 55 d8 08 3f 0f 8f e9 3e af eb 06 3f fc ab 7d 3e
       0.53455096 0.45616958 0.52703375 0.24772638
000030 5c 9b 0e 3f e3 0b 07 3f 2b 33 b3 3e 71 f3 09 3f
       0.5570581 0.5275251 0.34999976 0.5388709

layer1.1.fc1.weight f4 [16, 16]
000000 66 aa 2d bb 8b b0 93 3d 4f a4 12 bd a9 1b 09 bf
       -0.002649927 0.07211407 -0.035801228 -0.5355783
000010 11 67 7e 3e 48 d2 5d be 53 9e 12 be 7c 9d 98 be
       0.24844004 -0.21662247 -0.14318208 -0.2980765
000020 2d 93 4a 3e 65 1c fd 3e 36 20 1d bd d9 d3 23 be
       0.19782706 0.49435726 -0.038360797 -0.15998782
000030 3c c4 65 3e d7 b0 e1 3d 32 5a b5 be 3e 7c db be
       0.22438139 0.11020058 -0.35420376 -0.42868227
000040 3c c5 68 3e 93 5c a9 3d b8 f0 63 be 75 d2 4e be
       0.22731489 0.0826961 -0.22259796 -0.2019747
000050 d0 24 74 bd 3b df 8f be d0 0f 26 bf 5a 77 ba bd
       -0.05960542 -0.281 -0.6486788 -0.09104796
000060 ed 75 d1 bd 2d 93 b4 bd e7 af 3a be fa 61 6b bd
       -0.10227571 -0.08817134 -0.18231164 -0.057466485
000070 e7 12 15 bd 72 dc 0f be ad 8d 35 be 57 64 c7 3e
       -0.03639498 -0.14048937 -0.17729826 0.3894374
000080 fc d2 35 3e c9 5a 38 be a1 9f d8 3d 33 84 af be
       0.17756265 -0.18003382 0.10577322 -0.34280547
000090 98 6a 61 be 33 ac b6 3e 90 22 df 3c 94 4c c8 bd
       -0.22013319 0.35678253 0.02723816 -0.09780231
0000a0 c4 3c a1 3e 38 95 4a be fd 17 22 be 7d 9d 9b 3e
       0.31491673 -0.19783485 -0.15829463 0.30393592
0000b0 1e 23 23 3e 02 98 23 bd 37 b9 06 3f 8e 19 6f be
       0.15931365 -0.039939888 0.52626365 -0.23349592
0000c0 84 48 92 be 9d e1 58 3e 50 fb 87 be 89 66 47 3e
       -0.2857095 0.21179815 -0.26558924 0.19472708
0000d0 7c f3 ea 3c 80 ec ae 3d 29 40 27 be 3e 95 82 be
       0.028680556 0.085412025 -0.16333069 -0.25504488
0000e0 03 1b 7f be 0c 5e 76 be e4 8f 09 be 92 ab 83 3e
       -0.24912648 -0.24059314 -0.13433796 0.25716835
0000f0 3f 79 c0 3e 89 ff 57 be 2a 52 82 bd d8 bd 62 3e
       0.37592503 -0.21093573 -0.06363328 0.22142732
000100 aa 59 2b 3e 33 d7 e7 be c0 23 82 3e 74 6a d4 3d
       0.16733423 -0.4528137 0.254179 0.10371867
000110 6f e2 a2 be 5a a3 b4 bd 4d ea 98 3e c3 68 6a 3e
       -0.3181338 -0.08820219 0.29866257 0.22891526
000120 b3 ab 9d bd 2d 58 45 be 94 d0 ec 3e 92 1e ae 3d
       -0.07698765 -0.19271918 0.46252882 0.085019246
000130 62 43 bf bd 32 36 93 3e 49 78 39 3e 9d 79 30 be
       -0.09339024 0.28752285 0.18112291 -0.17233892
000140 8f a5 20 3e 60 e7 84 be a4 f5 a7 bd c3 5c a0 3d
       0.15688156 -0.25957775 -0.08201149 0.07830193
000150 e2 e7 61 bb 0d f0 cb 3c 73 c9 97 3c 40 8e 14 3e
       -0.0034470488 0.024894739 0.018528676 0.14507389
000160 a1 eb de be 12 c6 a1 bd 28 10 b0 3e 77 83 08 3e
       -0.43539146 -0.07899107 0.34387326 0.133314
000170 32 13 89 be 18 0b 03 3f f0 fd 1a be a9 70 10 be
       -0.26772457 0.511888 -0.15135932 -0.14105476
000180 3b f7 85 3d 30 66 e0 bd c5 eb 40 bd 56 04 d1 3d
       0.06541296 -0.10956991 -0.047099847 0.10205905
000190 f8 79 57 be 30 ef 2c 3e cd 44 0f bd cb 9e b8 3e
       -0.21042621 0.16888118 -0.034977723 0.3605865
0001a0 5d 26 b9 be b7 23 67 3b cf 94 80 3e b1 66 1a be
       -0.3616208 0.003526909 0.25113532 -0.15078236
0001b0 6d 65 13 be 06 c9 fe 3e 6b e9 2c be 46 21 3c bd
       -0.1439416 0.49762744 -0.16885917 -0.04593017
0001c0 90 db 5e 3e e2 a6 33 be 53 47 b8 3e 4a f2 09 3e
       0.21763444 -0.1754413 0.35991916 0.13471332
0001d0 02 f8 d8 be dc 36 8a be 48 0c 3c 3e 22 e2 17 be
       -0.42376715 -0.2699498 0.1836406 -0.14832357
0001e0 7a f5 2c 3e 8e be 3a be 82 b0 8e 3e c0 5e 96 bd
       0.16890517 -0.18236753 0.2786904 -0.07342291
0001f0 4d e9 96 be b7 f0 83 3e 5a 57 7e 3e f0 7f 3f 3e
       -0.2947487 0.25769588 0.2483801 0.18701148
000200 c0 30 53 be 13 0d ec be 58 d2 7d 3d aa dc da 3b
       -0.20624065 -0.46103725 0.061968178 0.0066791372
000210 1f df cd 3d 1b 2d 80 bd 64 01 bd bd a7 7d 75 bc
       0.100523226 -0.06258603 -0.09228781 -0.014983571
000220 84 be 2b bf 99 a9 2f be ef e1 ea 3b b0 1b 7b bc
       -0.6708758 -0.1715454 0.0071680467 -0.015326425
000230 61 f0 6b 3e 60 cd 94 3e 4f 20 cd be b0 ab a0 be
       0.23040916 0.2906294 -0.40063712 -0.31380987
000240 fb a3 82 3e 67 1d 98 be 86 08 04 3e 29 29 16 3e
       0.25515732 -0.29709932 0.12893876 0.14664139
000250 6d b2 75 bd f1 24 e7 bd 07 b3 2e bd 9b 1b 73 3e
       -0.059984613 -0.11286343 -0.042651203 0.23741
000260 81 e3 a1 be c8 b1 40 be 96 06 e6 3e 9b 58 7c bd
       -0.31618884 -0.18817818 0.449269 -0.06160794
000270 7e 8f f9 3d 1f 1c f9 3e 08 bb 8c bc 18 bb 8c bc
       0.12185572 0.48654267 -0.017179027 -0.017179057
000280 4d 3c 01 be e5 1c 1d be c8 c6 91 3d 45 34 b4 be
       -0.12620659 -0.15343054 0.07117993 -0.35196128
000290 ef 78 30 3f 6f 96 b6 bd 7f e4 12 be 61 43 8d bb
       0.6893453 -0.08915412 -0.14344977 -0.0043110107
0002a0 2f 52 8a 3e d0 32 8c 3c 37 6c d5 3d c9 09 a6 be
       0.27015826 0.017114073 0.10421031 -0.3242934
0002b0 d7 8e 84 3e 50 fe 30 be 6d 5f d2 bb 70 6d 05 be
       0.25890228 -0.17284513 -0.006420067 -0.13030028
0002c0 72 6a 80 be bf be 69 bd dd 8a 7b 3d 38 a0 44 3d
       -0.2508121 -0.057066675 0.061411727 0.04800436
0002d0 21 0c 9d 3e 1a de 08 bf 80 5e bd bb c1 60 d1 3d
       0.30673316 -0.534639 -0.0057790875 0.102235325
0002e0 75 62 8b 3e 31 3c f1 3d 18 56 11 be b9 c5 59 be
       0.27223554 0.11779059 -0.14192998 -0.21266831
0002f0 15 d4 61 3e 93 f9 33 3e b9 c8 bc be c1 10 06 bf
       0.22053559 0.17575674 -0.3687189 -0.52369314
000300 c2 8a d4 be 4f a8 51 be dd c4 3e 3d 3a 97 f5 be
       -0.41512114 -0.20474361 0.046574462 -0.4796694
000310 78 4a d5 3e 34 20 e6 be 8e 0a 68 3d 39 a8 a0 bd
       0.41658378 -0.44946444 0.05665069 -0.07844586
000320 a2 21 f0 3e aa d8 63 3e 5b ce 46 bd 91 eb a2 be
       0.4690066 0.2225062 -0.04853664 -0.31820348
000330 5e 24 b1 3c e8 ad b3 bc 21 b1 b0 be d0 a1 09 bd
       0.021623787 -0.02193351 -0.3451014 -0.033601582
000340 23 c8 92 3d 5d 63 54 3e 50 f1 61 bd 82 79 a7 3c
       0.07167079 0.20741029 -0.055161774 0.020443682
000350 82 14 87 bc 16 9b 13 3e f1 d0 81 be c5 35 af 3d
       -0.016489271 0.1441463 -0.25354722 0.085551776
000360 93 ae 26 be 8b d8 c9 3c 53 ef 9e be 1d c9 71 3e
       -0.16277532 0.024639389 -0.31041965 0.23611875
000370 7a 66 aa 3e c1 18 b1 be 7b 75 0a be 89 c3 e5 3e
       0.33281308 -0.34589198 -0.13521378 0.44875744
000380 ea cb d5 bd b1 30 d5 be 19 f1 42 3e 9b 21 c3 3d
       -0.10439284 -0.4163871 0.19037284 0.09527894
000390 90 58 12 3d 10 e8 18 be a6 d9 31 3e 18 77 92 3d
       0.03572899 -0.14932275 0.17368183 0.071516216
0003a0 92 5f 6a be 1c 42 17 3e 27 a8 8a bd de f0 ba be
       -0.2288802 0.14771312 -0.06770354 -0.36511892
0003b0 9d 90 45 be cb 85 1d 3f 73 36 91 bd e0 b7 3b bd
       -0.19293447 0.61532277 -0.070904635 -0.045829654
0003c0 93 84 d5 3d 70 c1 aa bd fc f4 06 be 72 71 6d bd
       0.10425677 -0.083376765 -0.13179392 -0.057969518
0003d0 a7 fa 9f be 91 2c c9 bd 4e a6 3d bd b2 be a7 be
       -0.3124592 -0.098229535 -0.04630118 -0.32762676
0003e0 73 23 8f 3e 41 b3 00 bf 72 2d 63 3d cd 33 6c 3d
       0.27956733 -0.5027352 0.055463262 0.05766659
0003f0 dc c0 70 3d e5 0b 9a be a2 dc eb 3e 37 b2 39 3e
       0.058777675 -0.300872 0.46066767 0.1813439

layer1.1.fc1.bias f4 [16]
000000 46 ce 08 3c 62 ce 19 3e 03 4d b6 3d 18 c9 02 3d
       0.008349961 0.15020135 0.089014076 0.03193006
000010 b9 5b 61 be a4 5b 38 3e ed 8d 1b 3f 99 b3 5d be
       -0.22007646 0.18003708 0.60763437 -0.21650542
000020 67 64 33 bc e4 11 c2 bd 61 83 2f 3e e0 15 0d bc
       -0.010949231 -0.094760686 0.17139961 -0.008611172
000030 ef 17 7f 3e 33 90 1c 3e fe 2d 1a bc c7 56 f3 3d
       0.24911474 0.15289383 -0.009410379 0.11881786

layer1.1.bn1.weight f4 [16]
000000 67 50 93 3f 20 15 28 3f 38 3c ad 3f 1f 18 7a 3f
       1.1508912 0.65657234 1.3534002 0.97693056
000010 2b f1 94 3f da 57 68 3f e0 27 72 3f 5f 78 6e 3f
       1.1636099 0.9075905 0.94592094 0.9315242
000020 00 0d 6f 3f 22 f2 63 3f 7f 0a 92 3f 5b 9d 5a 3f
       0.9337921 0.8904134 1.1409453 0.85396355
000030 23 99 7a 3f 02 5d 93 3f c1 7a 61 3f 25 63 97 3f
       0.9788992 1.1512759 0.8807793 1.1827132

layer1.1.bn1.bias f4 [16]
000000 c8 e6 05 be 12 32 bb be ba 70 80 3e fa 6f 60 bd
       -0.13076317 -0.36561638 0.25086004 -0.05479429
000010 df ef 3c 3e f2 3f 87 3c d2 d8 9e 3b e5 b0 24 3d
       0.18450879 0.016509984 0.0048476243 0.040207762
000020 cf c7 b1 3d c5 39 32 bd d1 36 cf bd 7e 70 3b be
       0.086806886 -0.043512125 -0.10117877 -0.18304631
000030 34 88 c5 bd 43 42 8f 3d 20 3d f7 bd fc b6 74 3e
       -0.09645119 0.0699506 -0.120722055 0.23897928

layer1.1.bn1.running_mean f4 [16]
000000 b8 27 01 bf db d4 83 bf 88 e0 ac 3e 0a cb a9 bd
       -0.5045123 -1.0299333 0.33765054 -0.0829068
000010 09 50 21 be 55 7a d6 bd 00 7d e6 3e 1f 4d 71 be
       -0.15753187 -0.10472552 0.45017242 -0.23564576
000020 c4 ce c8 bf a2 bc 75 3d 45 3b 02 3f 40 33 e1 be
       -1.56881 0.059994347 0.5087169 -0.43984413
000030 da 99 39 be 6a a2 b4 3e 7b 90 dd be 44 89 8f be
       -0.18125096 0.35280162 -0.43274292 -0.28034413

layer1.1.bn1.running_var f4 [16]
000000 cd 13 85 40 0f a5 a5 3f 5b c5 4e 40 3f fc 20 40
       4.158667 1.2940997 3.2307956 2.5153959
000010 a1 f9 60 40 89 7e 26 40 11 0d 45 40 ae 86 28 40
       3.5152361 2.601473 3.0789225 2.6332202
000020 8e d9 14 40 c1 04 34 40 b5 46 9d 40 16 49 3a 40
       2.3257785 2.8127902 4.914881 2.9107108
000030 39 b9 af 40 a0 18 31 40 78 79 ad 3f 70 7b 03 40
       5.49136 2.767128 1.3552694 2.054409

layer1.1.fc2.weight f4 [16, 16]
000000 66 70 dd 3e 7c 65 14 3e 12 dc 40 be 85 bd 35 be
       0.43249816 0.14491838 -0.1883395 -0.17748077
000010 6e b5 87 be 19 79 53 bd 21 2c 66 3c 61 52 af be
       -0.26505607 -0.05162916 0.014048607 -0.34242538
000020 d9 f8 63 3d 59 a7 a2 be 72 5d 41 3e 18 bc 78 3d
       0.05565724 -0.317683 0.18883303 0.060726255
000030 48 ae d1 3e 44 d9 7f be 51 bb 8e be ca 78 12 bd
       0.4095328 -0.24985224 -0.27877286 -0.035759725
000040 63 b4 43 be b9 e9 b0 bc 31 01 3f 3e 0b b4 a5 bd
       -0.19111781 -0.021595823 0.18652798 -0.08090981
000050 d1 1d 81 3e 27 86 2a 3f 7c 28 ce 3e 1d e2 a1 3d
       0.2521806 0.6661095 0.40265262 0.07904456
000060 3d 91 4e 3e 22 b2 83 3e 9b fa 3c bd c4 12 2b 3e
       0.20172592 0.25721842 -0.046137433 0.16706377
000070 d9 a8 b1 be 22 7b de bd 1d c3 b3 3c a0 74 85 be
       -0.34699133 -0.108633295 0.021943623 -0.2606554
000080 32 18 da 3d 0b 10 21 3e ef 89 1a be 98 47 5c 3e
       0.10649146 0.15728776 -0.1509168 0.21511686
000090 ca 2a 89 be 3b 5d c2 be bd 0c ae be 12 74 bb be
       -0.26790458 -0.37961754 -0.33994094 -0.36611992
0000a0 59 7d 6a be 3c 62 c7 be 9f a9 95 be 7c 97 ba bd
       -0.22899379 -0.38942134 -0.29230973 -0.091109246
0000b0 4d 58 b3 bd c1 92 06 be cc 33 a6 bd 8d 66 a5 be
       -0.087570764 -0.1314192 -0.08115348 -0.32304803
0000c0 d3 8b c5 be e8 92 75 be a2 3a 6a 3e f3 bc 9a 3d
       -0.3858324 -0.23981822 0.22873929 0.075555705
0000d0 3c 87 04 bd a5 21 a5 be 92 ec 54 be f1 90 9e 3e
       -0.032355532 -0.3225223 -0.2079337 0.30969957
0000e0 61 b0 6b be 19 04 ca be 5b 80 74 be df 1d 8c be
       -0.23016502 -0.3945625 -0.23877089 -0.2736654
0000f0 0b a3 94 be 77 07 d5 3d 21 e7 a3 be 14 5e ff 3d
       -0.29030642 0.104018144 -0.32012275 0.12469116
000100 fe 2e 03 3f e6 ba 01 be 9c 4b c4 3d 71 4b 6b 3d
       0.5124358 -0.12668952 0.09584734 0.057444993
000110 60 ad 25 be 91 a6 d1 3d dd 88 ab 3d 19 e2 a9 be
       -0.16179419 0.10236848 0.08375714 -0.3318031
000120 e3 ec e9 3d f0 92 05 be 78 2c fa 3e ae 2d 10 3f
       0.11422136 -0.13044333 0.48862052 0.563197
000130 f1 ce e5 3e b7 5a ac 3d ca 30 ea 3d ab 96 73 3e
       0.44884446 0.0841574 0.11435087 0.23787944
000140 4a 96 66 3e fb 4d c3 be 21 9c bd be f5 18 10 3e
       0.22518268 -0.38145432 -0.3703318 0.1407202
000150 6c be 82 be 04 fb 2b 3e 2d bd 34 3e b4 af 86 be
       -0.25535905 0.16794974 0.1765029 -0.26305926
000160 d4 58 bb bd 92 ce ec 3c 6a 29 f3 3d 8a 57 70 3d
       -0.09147802 0.028907094 0.118731335 0.058677234
000170 5c bd 06 3e 67 5c 97 be 78 7a 4a 3d f3 2f e3 be
       0.13158172 -0.29562685 0.0494332 -0.4437252
000180 2e 54 94 3e f5 2e a6 bd 59 69 a2 be ac 96 13 be
       0.28970474 -0.08114425 -0.31721 -0.14412946
000190 80 58 28 be 3d 1f d4 3d 00 4b db 3d e0 49 eb 3d
       -0.1644001 0.10357521 0.107076645 0.114887
0001a0 38 b0 42 3e 6f 2b 58 3d 6e 71 c7 3e f7 69 9d bd
       0.19012535 0.052775797 0.38953727 -0.07686227
0001b0 04 44 a1 3e 25 2b 03 bf 4f f6 12 3e c8 d6 20 be
       0.31497204 -0.5123771 0.14351772 -0.15706933
0001c0 37 f8 18 bc 16 07 44 bc 26 ba 8b be 9f d9 49 be
       -0.009336523 -0.01196458 -0.27290457 -0.19711922
0001d0 70 0f ba be 3b b2 50 bd 82 0f 1c 3e 6b fe 11 bf
       -0.36339903 -0.050951224 0.15240291 -0.57028836
0001e0 82 40 a2 bd e9 f3 b3 3d b5 fc db 3d cc 03 bc 3d
       -0.0792246 0.087867565 0.107415594 0.09180412
0001f0 f3 08 3b 3d 45 6f df be 65 60 0d 3e 83 4d ca be
       0.04566283 -0.4363958 0.13806303 -0.39512262
000200 d1 8f 11 be d0 6f 32 3e 74 a0 0a 3e 70 e2 f2 3e
       -0.14215018 0.17425466 0.1353777 0.47438383
000210 ec 8a 5f be 08 8b 91 be 03 2f 78 be f1 f3 2e 3e
       -0.21830338 -0.28426385 -0.24236684 0.17085244
000220 ce 48 d7 3d da 3b 4c be 4d ff 36 be a5 68 3d bd
       0.10511933 -0.19944707 -0.17870827 -0.046242375
000230 08 6e 2c be 4f 90 b5 3e 64 06 bc be ad 8a 76 3e
       -0.16838849 0.3546166 -0.36723626 0.24076338
000240 fd 8b 19 3e 01 d5 37 be 57 80 85 3e c8 04 1b be
       0.14994808 -0.17952348 0.26074478 -0.15138543
000250 6b 5c 09 3f 4c f5 ab 3d 52 4a d1 bc 90 89 b4 3e
       0.53656644 0.08396396 -0.025548134 0.35261202
000260 ab 77 3b bc 20 d2 f0 3e 85 17 9d bd 44 46 3e be
       -0.011442105 0.47035313 -0.076705016 -0.18581492
000270 42 58 eb bd 3e 20 17 be 31 ed 72 3d 5a ef d4 3d
       -0.11491443 -0.14758393 0.059308235 0.10397215
000280 78 22 0b 3f 86 0f 45 3d b8 69 2b be 4f fe 51 be
       0.5434947 0.048110507 -0.16739547 -0.20507167
000290 11 2e 03 bc 22 7f bb bc 57 cc 6f 3e fa a1 ae be
       -0.008006589 -0.02288777 0.23417793 -0.34107953
0002a0 5c 0d 75 be ec 8f 63 bd fb c5 0d 3f d7 87 10 3d
       -0.23930877 -0.055557176 0.5538022 0.035285797
0002b0 33 29 ec 3e 6f 24 06 be 3c a0 f5 bc 98 d1 3c be
       0.46125183 -0.13099836 -0.029983632 -0.18439329
0002c0 60 01 0b 3d 5e 77 a3 3c b2 6b 06 3f 7b 88 03 be
       0.03393686 0.01995438 0.5250808 -0.12845032
0002d0 18 db 13 3e cf 02 a9 be 40 27 4a 3d 05 e3 bd 3c
       0.14439046 -0.33009955 0.049353838 0.02317954
0002e0 60 22 bd bd 07 05 a7 3d 94 37 b1 be a3 8c c8 be
       -0.09235072 0.08155256 -0.34612715 -0.39169797
0002f0 5e fd e2 bd f4 73 00 3e 69 87 ae be d6 45 2b 3d
       -0.11083482 0.12544233 -0.34087685 0.041814648
000300 5e 51 60 3e 7a 81 af bd b1 97 a4 3e 01 98 98 be
       0.21906039 -0.085696176 0.3214698 -0.2980347
000310 71 ac df 3e ec 2c 11 3e 12 7f 69 3e 75 5d 0d 3d
       0.4368625 0.14177293 0.2280238 0.034512956
000320 ef 59 75 3e 81 18 e7 3d d2 14 ef 3e c2 32 6c 3d
       0.23960088 0.112839706 0.46695572 0.057665594
000330 11 b7 3b 3e b3 57 dc be e9 f4 2a 3e 7c d8 fe 3d
       0.18331553 -0.4303566 0.16694988 0.12443635
000340 f6 80 7d 3d 45 cd a0 3c 42 51 b6 be ff 2c a1 bd
       0.061890565 0.01962913 -0.3560887 -0.078699104
000350 0d a0 14 3e fd 19 7a 3e 94 1e 5c 3e 04 23 f1 3b
       0.1451418 0.24423976 0.2149604 0.0073589105
000360 a3 e9 06 3f 5d 09 86 3e a1 44 9e bc c3 4b 83 3d
       0.5270025 0.2617902 -0.019319834 0.06410935
000370 20 88 5e be 88 54 49 be 57 e4 32 3e a2 ee a0 be
       -0.21731615 -0.19661152 0.17469917 -0.31432062
000380 cb f5 51 3e 87 f4 87 be 07 30 ab bd 37 58 8d 3e
       0.20503919 -0.26553747 -0.0835877 0.27606365
000390 7a 74 a0 be bc 25 ca bd c3 f7 9d be 2f f9 d4 bd
       -0.31338865 -0.098704785 -0.3085309 -0.103990905
0003a0 38 e1 c2 be 53 2e 66 be 48 d4 fd bc a9 54 37 3e
       -0.38062453 -0.22478609 -0.030985013 0.17903389
0003b0 ea 60 58 3d 2b 7e af 3e af 81 41 be a6 de 9c be
       0.0528268 0.34275946 -0.18897127 -0.30638617
0003c0 b7 4a b2 be 45 84 d5 3c 3c 5b 13 3f da 0a 75 3e
       -0.34822628 0.026064048 0.5756109 0.23929921
0003d0 57 41 6c 3c 58 f3 19 be 88 05 57 be 61 39 f8 3d
       0.014419875 -0.15034235 -0.20998204 0.12120319
0003e0 e6 7c 6a bd 9e 55 9a 3d e0 5a 96 be 87 67 89 bd
       -0.05724802 0.075358614 -0.29366207 -0.067091994
0003f0 49 94 29 bd d6 2e e0 bd c7 b0 8e be a0 28 8b 3e
       -0.04140118 -0.10946433 -0.27869245 0.27179432

layer1.1.fc2.bias f4 [16]
000000 ac 31 27 3e 91 9a 6b 3d 2c 35 be bc 36 09 15 3d
       0.16327542 0.057520453 -0.023218714 0.036385737
000010 4e 4e ca 3e 4f 6b 8b 3e be ea 25 be a5 87 5a bd
       0.39512867 0.27230307 -0.16202828 -0.053352017
000020 9e d0 75 be de ab 91 3c 94 6a de 3e 65 47 83 3d
       -0.24005362 0.017782148 0.43440688 0.06410102
000030 f8 55 d7 bc c2 bb bb be 89 85 97 be f5 f3 71 be
       -0.02628611 -0.36666685 -0.29594067 -0.23628218

layer1.1.bn2.weight f4 [16]
000000 b4 31 8c 3f 56 0f 90 3f 44 b3 56 3f 70 9b 20 3f
       1.0952668 1.125468 0.8386729 0.6273718
000010 c3 39 50 3f a1 79 9c 3f 4e d1 6f 3f 92 97 8f 3f
       0.8133814 1.2224618 0.9367875 1.121813
000020 d7 ad 64 3f 0e 48 4e 3f 29 e4 83 3f 3f 04 78 3f
       0.8932776 0.80578697 1.0304004 0.9688148
000030 9e e4 87 3f af 2e a5 3f b6 79 60 3f 69 51 75 3f
       1.0616643 1.2904872 0.87685716 0.9582735

layer1.1.bn2.bias f4 [16]
000000 98 4e 15 3d 68 5c 33 bd 5d 09 85 3c e9 fc f3 3d
       0.036451906 -0.043789297 0.016239816 0.11913473
000010 91 2f 94 3e f0 3f 0e bd 24 ff 3b 3d 3a ee a5 3e
       0.2894254 -0.034728944 0.045897618 0.32408315
000020 9b 86 9c 3e fd e5 ac 3c 79 36 b5 3e 58 43 8b 3e
       0.30571446 0.02110576 0.35393122 0.27199817
000030 a5 60 b1 3e d2 be 26 3e 7f ac 56 3e 3e 81 c7 3d
       0.34644046 0.1628373 0.2096424 0.09741448

layer1.1.bn2.running_mean f4 [16]
000000 fc b9 4c be 76 66 02 3f 9b eb 98 bf ca ed 01 bf
       -0.19992822 0.50937593 -1.1946901 -0.5075346
000010 7f 21 99 3f c6 c5 93 be 18 d5 75 be a0 33 81 bf
       1.1963347 -0.28861827 -0.2400707 -1.009388
000020 47 ac 64 be 54 d6 2a 3f 48 f3 00 3f ca f1 86 3d
       -0.22331344 0.6673329 0.5037122 0.06589086
000030 b1 c5 57 3f 0b d3 a8 be eb bf 4e bf 29 65 eb bd
       0.8428603 -0.32973513 -0.80761594 -0.11493904

layer1.1.bn2.running_var f4 [16]
000000 b0 01 a9 3f 37 b6 ca 3f c9 9e 87 3f 51 84 92 3f
       1.320364 1.5836858 1.0595332 1.144663
000010 63 a9 d2 3f 2d 9a 6e 3f b3 cc 85 3f 6a 0e 43 3f
       1.6457943 0.93204004 1.0453094 0.7619387
000020 a1 d2 a9 3f 7b e9 97 3f a8 7b c2 3f 8b f9 39 3f
       1.3267404 1.1868128 1.5193987 0.726464
000030 3b 37 bb 3f 71 06 a9 3f c7 75 97 3f 1b 13 9d 3f
       1.462623 1.3205091 1.1832818 1.2271456

layer2.0.fc1.weight f4 [32, 16]
000000 69 68 1c 3f 39 d1 2a 3e d1 f9 80 3d 0a c1 53 be
       0.6109682 0.16681375 0.06297649 -0.20679107
000010 fc 44 b7 3d 4d 9d dc bc f5 9b c2 be df 92 0c 3f
       0.089487046 -0.026930476 -0.3800961 0.5491161
000020 73 7e d9 3e a7 7f 0e 3e 0a 1c 67 3d 7d b3 c1 bd
       0.42479286 0.13915883 0.056423225 -0.09458063
000030 f6 8c 45 bc 4b 24 c0 3d e4 e4 c4 bd a4 de a5 bd
       -0.0120575335 0.09381922 -0.0961397 -0.08099106
000040 b8 f8 8b be db b4 7b 3d 3b d5 f7 bc 4d 77 9a 3d
       -0.27338195 0.061451774 -0.030253043 0.07542286
000050 49 f2 e1 be d6 c8 63 3e 55 91 0b bd 71 16 8b 3e
       -0.4413016 0.22244582 -0.034074146 0.2716556
000060 27 70 5c bd 65 7c 7e be 0b 5a e5 bd f6 e6 95 be
       -0.053817894 -0.2485214 -0.11198815 -0.29277772
000070 cd ec cf 3d ed 04 0b 3f c8 06 83 be 23 55 2a be
       0.10152588 0.5430439 -0.2559111 -0.1663404
000080 f7 4e b3 3e 18 a6 15 3e fa 31 d6 be ff cd dd 3d
       0.35021183 0.14614141 -0.41835004 0.10830306
000090 2e 0f 07 3f 4e ff e9 3e 44 c5 84 be 41 7f a6 bd
       0.5275754 0.45702595 -0.25931752 -0.081297405
0000a0 8b 67 b5 3d 30 55 fb 3d 2d 29 26 3e 52 9d 39 bd
       0.0885764 0.122721076 0.16226645 -0.045316048
0000b0 c5 bd 05 3e 7b e9 15 be a6 c0 b1 bc 5e 32 ba be
       0.13060673 -0.14639847 -0.021698307 -0.36366552
0000c0 00 17 43 3e cf ce 5a bd 71 60 a8 3c 8f 35 9e be
       0.19051743 -0.053419884 0.0205538 -0.30900237
0000d0 ff 30 b4 ba ab 1b e6 3e e5 8e b7 3b 7e c5 e5 3d
       -0.0013747512 0.44942984 0.005601751 0.11219309
0000e0 8b 22 b1 bd 79 4b 04 be e2 13 09 3d 22 8a f9 be
       -0.08649167 -0.12919416 0.033466227 -0.487382
0000f0 99 3d 84 be 30 36 fd 3e 87 7d c8 be ba fe 27 be
       -0.25828245 0.49455404 -0.3915827 -0.16405764
000100 c5 4c 7f bd 09 08 87 3e fe 45 9f 3d 3d 1d 91 3d
       -0.062329073 0.26373318 0.07777022 0.07085655
000110 87 14 a1 3d 7d 8f b0 3e 2f b0 aa 3c 72 af 8e 3e
       0.078652434 0.34484473 0.020835964 0.2786823
000120 ea 07 b5 3e a8 b8 1d 3e 38 fe 93 3e 2f 59 0b 3e
       0.353576 0.15402472 0.2890489 0.1360824
000130 e9 18 a4 3e e0 ca 7e 3e 4d 44 5e 3e 34 7e fd bd
       0.32050255 0.24882078 0.21705742 -0.12377587
000140 fb e6 4e be 56 b0 07 bd 31 f5 d1 bd 33 90 91 bc
       -0.202053 -0.03312715 -0.10251845 -0.017768955
000150 ac ff d4 bd 63 ed a1 be 1d 33 11 bf 2b db e8 be
       -0.10400328 -0.31626424 -0.5671862 -0.45479712
000160 28 2d b9 3d df 54 00 bd fb 87 82 be 03 35 5a 3e
       0.09041816 -0.03133094 -0.2549437 0.21309285
000170 4a 72 3f be ff 87 0b be a1 85 bc 3e a5 7c f3 3d
       -0.18695942 -0.13626097 0.368207 0.118890084
000180 6e 5a 10 3e 49 63 d4 3e 59 7b 56 be 4d 6c b6 3d
       0.14096996 0.41482 -0.20945491 0.089073755
000190 8d e3 3f 3e 95 91 f3 3d e0 8d 4e bd f7 09 96 3e
       0.18739147 0.11893002 -0.05042827 0.29304478
0001a0 c6 5a 6d be 0a 09 b2 3e 99 be 8c 3e a3 e7 f8 3e
       -0.23179159 0.3477252 0.27489164 0.48614225
0001b0 f8 44 3f 3e d3 fd 48 3e af 50 14 be 1b 51 ab b9
       0.18678653 0.19628076 -0.14483903 -0.0003267609
0001c0 5f 51 4e be 9e 48 ab bd 6f d8 1d 3d 4f 60 02 be
       -0.20148228 -0.0836346 0.038536485 -0.12732051
0001d0 9b f8 02 bf c8 fb 96 3d eb ce 4e be bc d6 00 bf
       -0.5116059 0.07372242 -0.2019612 -0.5032766
0001e0 a3 3d 1e 3c b6 e7 07 3e d4 a6 50 be f7 a0 88 3d
       0.00965825 0.13271984 -0.2037614 0.066713266
0001f0 e6 5e e6 bc d4 87 f6 be e9 51 93 3e 68 8c 1c 3e
       -0.028121423 -0.48150504 0.2877343 0.15287936
000200 a7 39 09 3e 32 c4 db 3d 9d 5f 81 be da c4 94 be
       0.13400899 0.10730781 -0.2526826 -0.29056436
000210 5a ad 83 be 5f 73 66 3e c0 6a a9 bd cd e2 39 3e
       -0.25718194 0.22504948 -0.08272314 0.18152924
000220 32 34 cd be e1 0e 9c bd 00 2e 34 3e c4 20 03 3b
       -0.40078884 -0.076200254 0.17595673 0.0020008544
000230 9c 01 2a bc 8b 02 a6 3e fb c4 be be 5f 6d 22 3e
       -0.01037636 0.32423815 -0.3725966 0.15862034
000240 0e 72 3f 3e 98 ea e6 be cf 43 8b 3d 41 ad a5 be
       0.18695852 -0.45100856 0.06800043 -0.32358745
000250 a6 f8 08 bc d7 06 98 3d ab da c5 3e 00 e2 24 be
       -0.008360064 0.074231796 0.38643393 -0.16101837
000260 ea 2d 67 3b d7 6e 00 3c 21 d6 4d bd c9 82 2d bf
       0.003527517 0.007838926 -0.050253037 -0.6777769
000270 c1 88 23 3e f2 2d e7 3b f6 da cb be 53 98 3c be
       0.15970136 0.0070550377 -0.3981549 -0.18417482
000280 29 60 8a be 81 2f fc be 91 58 bb 3d 03 e7 c4 be
       -0.2702649 -0.49254993 0.09147752 -0.38457498
000290 ac 33 b9 bc 12 5e ea bc d7 92 55 bd 18 f6 72 3c
       -0.022607647 -0.02860931 -0.05214199 0.014829181
0002a0 cf c1 d1 be eb d2 3d bd 58 a8 9c bd cb 71 a8 be
       -0.40968177 -0.046343725 -0.076492965 -0.32899317
0002b0 19 40 87 be 28 85 a9 bd 43 4d 89 bd 2c 17 12 bf
       -0.2641609 -0.08277351 -0.0670419 -0.5706661
0002c0 4b 5e b3 bd 78 d3 5f 3c 7d 07 15 be de ae d0 bc
       -0.08758219 0.013661258 -0.14553638 -0.025474008
0002d0 18 bf 81 be a3 be 05 bf cd cf 1c bd 16 64 01 3e
       -0.25341105 -0.52244014 -0.03828411 0.12635836
0002e0 b0 38 a0 3e c2 e2 2a 3e dc a7 19 3e 63 3f 1d 3c
       0.3129325 0.16688064 0.1500544 0.009597632
0002f0 a6 94 01 be 3a 15 be 3e d1 b0 cd bd 8c 8d e4 3d
       -0.12654361 0.3712557 -0.10043491 0.111598104
000300 d2 d7 27 be ff 3f 52 be e7 49 b2 3d d5 2c 86 be
       -0.16390923 -0.20532225 0.08705502 -0.2620608
000310 ad cc 94 be 0a 0b 5a be 11 a9 05 bf f1 b1 04 bf
       -0.29062405 -0.21293274 -0.522111 -0.5183402
000320 7f ce 31 3e d1 e7 86 3e e0 84 22 be 68 30 c6 3d
       0.17363928 0.26348737 -0.15871 0.096772015
000330 06 43 94 be 5e 3e 96 be f2 53 9f 3e e4 7f e5 bd
       -0.28957385 -0.29344457 0.31118733 -0.11206034
000340 2b 62 d2 bd ca b0 db be 6e 73 4f 3e 9b fa 93 be
       -0.1027263 -0.42908317 0.20258877 -0.28902134
000350 a9 c3 d0 bd ed d0 3c be 5a e2 12 bd a5 c6 a7 bd
       -0.10193569 -0.18439074 -0.035860397 -0.08192185
000360 0d 15 13 bf 56 4b a1 3d 34 0c ad be bd 09 ac be
       -0.57453996 0.07875697 -0.33798373 -0.3360118
000370 2e e9 8d bd 56 65 84 bd f7 11 8c be 0d 23 69 be
       -0.06929241 -0.06464641 -0.27357456 -0.22767277
000380 24 f8 7c 3d 83 92 4d 3e a4 4f 25 be de 4e ad 3d
       0.061760083 0.20075421 -0.16143662 0.08462308
000390 be 1a 85 3c ab 27 fa 3c 89 95 e8 bd 2e 8c 15 be
       0.016248103 0.030536493 -0.113566466 -0.14604256
0003a0 be 12 cf 3e 5d 21 a1 bd ce 9a c0 bd f7 c3 e5 3e
       0.40443987 -0.07867692 -0.09404527 0.44876072
0003b0 28 4c 70 3e d4 77 9d 3d 12 a0 3a bc b9 69 98 3e
       0.23466551 0.07688871 -0.011390703 0.2976816
0003c0 e9 69 b4 bc 64 ac 85 be 89 13 66 3e 07 30 d3 bc
       -0.022023158 -0.26108086 0.2246839 -0.025779737
0003d0 7e bd 6b be 78 9e 13 be 79 a3 78 3e 1f 42 34 bd
       -0.23021504 -0.1441592 0.2428111 -0.04400837
0003e0 46 09 c1 be f0 42 67 3d b2 6a 53 be ba 72 68 be
       -0.37702388 0.05646032 -0.2064617 -0.22700015
0003f0 23 a2 ad be 53 ea 48 be 01 47 49 be 46 00 9a be
       -0.33912763 -0.19620638 -0.19655992 -0.30078334

layer2.0.fc1.bias f4 [32]
000000 9b 6c 42 bc b2 13 e9 3d 6a b2 65 be 06 02 31 be
       -0.011866714 0.1138071 -0.22431341 -0.17285928
000010 26 f1 9a 3d 40 41 1c 3e 75 a9 22 3d 3c 2f 24 be
       0.07565527 0.15259266 0.039712388 -0.16033643
000020 0c a3 2b 3e 2d f6 d3 bd 30 bd 8c bd c4 43 83 3e
       0.16761416 -0.10349689 -0.06872022 0.2563764
000030 72 fd b4 3d 06 cf 5a bc 4b 53 22 be 65 cd 55 3d
       0.08837403 -0.013355022 -0.15852086 0.052197833
000040 3a 90 b6 bc d7 85 9d 3e 80 de 3a 3e 16 6a 0d be
       -0.02228557 0.30766174 0.1824894 -0.1381
000050 18 52 4c bd 5b b3 ac 3d cb b4 91 3e f4 2e 93 3d
       -0.04988298 0.08432647 0.28458247 0.0718669
000060 c4 59 09 3e 91 aa 38 3d 98 c4 8f 3d 6a 46 2d bd
       0.13413149 0.04508454 0.07019919 -0.04230348
000070 18 c5 19 be c2 db 41 be 63 b9 f7 be 23 a8 47 bd
       -0.15016592 -0.18931487 -0.48383626 -0.048744332

layer2.0.bn1.weight f4 [32]
000000 ff b1 6c 3f f9 fd 76 3f 78 98 59 3f 61 04 8e 3f
       0.924591 0.9648128 0.84998274 1.1095086
000010 93 59 9f 3f 78 c8 1d 3f 42 35 8e 3f 42 98 90 3f
       1.2449211 0.61634016 1.1110003 1.1296465
000020 c4 63 84 3f 61 2d 9d 3f b8 e4 88 3f cc 31 82 3f
       1.0342946 1.2279474 1.06948 1.0171447
000030 71 dc 6e 3f eb ec 93 3f b6 f8 55 3f c3 7d 81 3f
       0.93305117 1.1556677 0.8358263 1.0116504
000040 27 ff 8e 3f dc 32 1f 3f 3f c1 a2 3f df 87 9c 3f
       1.1171616 0.6218698 1.2715224 1.2228965
000050 56 5c 83 3f 2d eb 66 3f 32 52 75 3f b2 46 6e 3f
       1.0262554 0.902026 0.95828545 0.9307662
000060 9e 39 85 3f a6 ae 11 3f 48 f4 7a 3f fb dc 9e 3f
       1.0408208 0.5690712 0.98028994 1.2411188
000070 72 ec 7d 3f 35 df 91 3f d3 42 9a 3f 64 ac 79 3f
       0.9918891 1.1396242 1.2051643 0.9752867

layer2.0.bn1.bias f4 [32]
000000 d3 2a 95 3e af 72 05 bd c1 67 c4 3e 6c 4d a2 3e
       0.29134235 -0.032580074 0.38360408 0.31699693
000010 ea 66 9c bb 12 77 96 bc 78 f1 6e bd e6 38 dd bd
       -0.0047730105 -0.018367324 -0.05833575 -0.10801868
000020 77 47 39 3e 00 02 aa 3e 6b 33 f4 3c de 43 48 3e
       0.18093668 0.3320465 0.029809674 0.1955714
000030 b6 b1 82 3c c8 88 10 3e 05 58 b7 bc b7 c0 ba 3d
       0.01595388 0.14114678 -0.022380838 0.09118789
000040 7e c1 e2 3e 70 27 18 3c 22 d2 e8 3d 0f d9 b9 3d
       0.44288248 0.009286746 0.11368205 0.09074604
000050 2d d9 10 3d ac 5c c8 3e da bc 1c be 30 c3 89 3d
       0.035363365 0.39133203 -0.15306416 0.06726682
000060 94 a5 84 3d a1 95 17 bd 9b fc 15 3c 43 d5 53 bd
       0.06476894 -0.03700793 0.009154464 -0.051717054
000070 9c fa 71 3d a4 10 90 3e 92 45 45 3e d9 d4 ae 3d
       0.05907689 0.28137696 0.1926482 0.08536691

layer2.0.bn1.running_mean f4 [32]
000000 d3 19 ac 3f 09 1b 1d bf 36 2d 65 3f 7d 8b 85 bf
       1.3445381 -0.6136938 0.8952211 -1.0433193
000010 71 5f 4e 40 02 c3 aa bf cc bb 18 40 b6 84 06 c0
       3.2245753 -1.3340762 2.3864622 -2.10185
000020 1f 0a f3 be e0 55 f1 bf aa 3d 60 c0 ba d6 03 3f
       -0.4746866 -1.8854332 -3.5037637 0.5149952
000030 eb b0 0e c0 00 f2 65 c0 c3 87 c4 3f 76 76 31 c0
       -2.2295482 -3.5928955 1.5353931 -2.7728553
000040 67 8e 75 bf e2 ba 58 bf 99 fb 71 3e 7e 6a 30 c0
       -0.95920414 -0.8466016 0.23631133 -2.7564998
000050 3b 87 b5 3f 5d 8e bb bf 7c 14 83 bd c1 67 34 bf
       1.4181894 -1.4652821 -0.064003915 -0.70470816
000060 72 3a 37 c0 cf b0 d1 bf e4 b9 f2 bf f0 38 4c c0
       -2.8629422 -1.6382083 -1.8962979 -3.1909752
000070 ee ae 53 c0 78 1c 82 3f 11 99 dc bf 73 75 51 c0
       -3.3075519 1.0164938 -1.7234212 -3.2727935

layer2.0.bn1.running_var f4 [32]
000000 5c cf bb 3f 94 7f b0 40 43 32 9c 40 e9 e2 8c 40
       1.4672656 5.5155735 4.8811355 4.402699
000010 7e da 1a 40 e5 78 a6 40 2e 6a 79 40 7b 7f b3 40
       2.4195857 5.2022576 3.8971057 5.6093116
000020 9e 13 87 40 a1 7d 8a 40 fe b5 88 40 6b 7a ff 3f
       4.2211447 4.3278356 4.272216 1.9959234
000030 7e 2a ab 40 be 7c 57 40 ac 1e 16 40 fa 57 16 40
       5.348937 3.3669887 2.345622 2.3491197
000040 4f ce 56 40 e3 a5 69 40 3c 6f d5 3f cb f3 1f 40
       3.356342 3.65075 1.6674571 2.499255
000050 fd 81 2a 40 08 88 c4 40 a1 6f 80 40 1e 64 a4 40
       2.6641839 6.1416054 4.0136266 5.1372213
000060 0e 4f fe 3f 5f f9 58 40 b0 2b 1a 40 11 01 00 40
       1.9867876 3.3902204 2.4089165 2.000065
000070 f4 1a 05 40 7c fe 91 40 a7 2d 68 40 18 69 50 40
       2.07977 4.562315 3.6277864 3.2564144
