sensor_case/outputs/experiment7/resnet_model.pth (torch, 368327 bytes, 92 tensors)

layer1.0.fc1.weight f4 [16, 5]
-0.04368301 -0.11567982 -0.05050359 -0.2146435 0.005123498 -0.3205064 -0.34309113 0.12052407
0.10716568 0.289065 -0.029410852 -0.16465783 0.31300277 -0.40011436 0.24475151 0.3217816
0.39282104 -0.32012314 0.080959305 -0.07007928 0.28306356 -0.088420585 -0.10339194 -0.42264816
-0.3955172 0.3073194 -0.2072222 -0.23237577 0.16117501 0.25736046 -0.118897416 0.11486692
0.2190203 0.14932802 0.24070556 -0.42846254 -0.19546796 0.16154607 0.16111979 -0.33582193
-0.41706687 0.34946382 0.277881 -0.33121145 -0.06347867 -0.16511643 -0.086646095 -0.037958793
-0.040155783 -0.36339372 -0.29796293 0.048423834 -0.23807311 0.39450517 0.3299077 -0.43512744
0.38891846 -0.25766554 -0.04866161 -0.07423288 0.17325696 0.20774604 0.088805445 0.31245235
0.15326303 0.23662212 0.41405192 -0.043304976 0.22590129 0.24492148 -0.35600394 0.031200537
0.17445946 0.36086252 0.39162302 -0.28717667 0.05744375 0.012909184 0.41087133 -0.3175082
00000000: f5ec 32bd 8be9 ecbd dadc 4ebd 81cb 5bbe
00000010: 04e3 a73b 6a19 a4be a4a9 afbe 53d5 f63d
00000020: ae79 db3d 5400 943e 07ef f0bc 109c 28be
00000030: e641 a03e cadb ccbe 24a0 7a3e 8fc0 a43e
00000040: d71f c93e 2ee7 a3be fecd a53d ba85 8fbd
00000050: b5ed 903e da15 b5bd 27bf d3bd 5765 d8be
00000060: 3b81 cabe f858 9d3e 0e32 54be eaf3 6dbe
00000070: 100b 253e c0c4 833e 7d80 f3bd 593f eb3d
00000080: dc46 603e 72e9 183e 857b 763e 715f dbbe
00000090: c128 48be 556c 253e 96fc 243e daf0 abbe
000000a0: ca89 d5be ecec b23e 6b46 8e3e 8c94 a9be
000000b0: 1b01 82bd 4814 29be 8273 b1bd ae7a 1bbd
000000c0: 647a 24bd be0e babe 998e 98be 1258 463d
000000d0: 70c9 73be 95fc c93e a9e9 a83e 06c9 debe
000000e0: 5220 c73e bdec 83be 6551 47bd 6807 98bd
000000f0: 466a 313e 61bb 543e a1df b53d c1f9 9f3e
00000100: fcf0 1c3e 124d 723e 9dfe d33e 8f60 31bd
00000110: ab52 673e b2cc 7a3e 2646 b6be 4598 ff3c
00000120: 80a5 323e f9c2 b83e d082 c83e d208 93be
00000130: 234a 6b3d 0b81 533c ba5d d23e 6f90 a2be

layer1.0.fc1.bias f4 [16]
-0.3002369 0.20709293 -0.18595849 0.016275411 0.18308231 -0.11337232 0.39500344 -0.062762685
-0.32743174 -0.33709896 -0.18080306 0.15725397 0.42442778 -0.10528681 0.17099999 0.24971022
00000000: a7b8 99be 2b10 543e e76b 3ebe 0354 853c
00000010: ee79 3b3e bf2f e8bd e43d ca3e b989 80bd
00000020: 22a5 a7be 3c98 acbe 7024 39be 2f07 213e
00000030: 994e d93e 9ca0 d7bd 9f1a 2f3e 09b4 7f3e

layer1.0.bn1.weight f4 [16]
1.0 1.0 1.0 1.0 1.0 1.0 1.0 1.0
1.0 1.0 1.0 1.0 1.0 1.0 1.0 1.0
00000000: 0000 803f 0000 803f 0000 803f 0000 803f
00000010: 0000 803f 0000 803f 0000 803f 0000 803f
00000020: 0000 803f 0000 803f 0000 803f 0000 803f
00000030: 0000 803f 0000 803f 0000 803f 0000 803f

layer1.0.bn1.bias f4 [16]
0.0 0.0 0.0 0.0 0.0 0.0 0.0 0.0
0.0 0.0 0.0 0.0 0.0 0.0 0.0 0.0
00000000: 0000 0000 0000 0000 0000 0000 0000 0000
00000010: 0000 0000 0000 0000 0000 0000 0000 0000
00000020: 0000 0000 0000 0000 0000 0000 0000 0000
00000030: 0000 0000 0000 0000 0000 0000 0000 0000

layer1.0.bn1.running_mean f4 [16]
-0.34797615 -0.11473331 -0.21920957 0.34111354 0.45897672 0.19234113 0.28098154 -0.49111217
-0.74256796 -0.50454307 -0.4747708 -0.27591503 0.60441965 0.13868573 -0.17870653 -0.032652497
00000000: ee29 b2be 4cf9 eabd 7978 60be 6fa6 ae3e
00000010: fffe ea3e 13f5 443e d0dc 8f3e 0e73 fbbe
00000020: ef18 3ebf bc29 01bf 2915 f3be bc44 8dbe
00000030: 3fbb 1a3f a203 0e3e d8fe 36be a0be 05bd

layer1.0.bn1.running_var f4 [16]
0.06384542 0.22466376 0.3513956 0.26947293 0.35792103 0.18854299 0.14400679 0.20137961
0.3100462 0.14209658 0.32619956 0.22413942 0.17629135 0.28581715 0.31854686 0.27644342
00000000: 63c1 823d 420e 663e 20ea b33e 5bf8 893e
00000010: 6d41 b73e 6a11 413e 8476 133e 7536 4e3e
00000020: 60be 9e3e c481 113e a103 a73e ce84 653e
00000030: b885 343e a056 923e 9318 a33e fe89 8d3e

layer1.0.fc2.weight f4 [16, 16]
-0.07734382 0.12817961 0.026511043 0.03983307 -0.10362831 0.03809312 -0.18746915 0.05874324
-0.035203606 -0.023644269 -0.23159707 0.23655623 -0.03044951 -0.05080962 -0.2308763 0.086349994
-0.17272952 -0.13992065 -0.017748147 0.0895654 0.19334644 0.08648181 -0.10756582 0.071279466
-0.012059629 -0.05153945 0.2269991 0.2274122 -0.08032173 -0.0055734813 -0.2361024 0.019390762
0.020761877 0.08549601 0.002963215 -0.1185123 0.13734469 -0.005060971 0.185902 0.089954525
0.1522358 0.047955096 -0.14869836 0.066946805 0.16410723 0.22039339 0.18923011 0.12564498
-0.024911344 0.09703538 0.10937983 0.08571756 0.039841324 -0.05783239 -0.18417934 -0.23343313
0.13244939 0.19892219 -0.20673305 0.2343565 0.071088016 0.05774963 0.1782864 -0.13076887
0.079212725 -0.10938567 0.21216667 0.18491784 0.016496152 0.23795265 -0.0983305 -0.1446644
-0.06093529 0.072155684 -0.092853785 -0.20050701 -0.0132501125 -0.10046774 0.061363935 0.12234157
0.19066828 -0.040845394 -0.07210091 -0.23243421 0.10728291 0.09457809 -0.09336653 -0.10652715
0.025758713 0.2044273 0.21286169 -0.014968216 0.2407744 -0.19896293 -0.16426745 -0.0070922077
0.04628378 0.04668036 0.10461053 -0.15811262 -0.095157295 -0.095139176 0.060920805 -0.12719408
-0.22428364 0.0679577 0.058055878 0.13064957 -0.1982002 -0.2038039 -0.12486762 -0.22841877
-0.19190052 -0.2064507 0.054226637 -0.18101838 -0.21704152 -0.067053735 0.08498463 -0.23532647
0.11030227 0.010523915 -0.09190783 0.1425341 -0.15414774 0.16268107 0.03729582 -0.101380765
0.11014384 -0.080429524 -0.08750945 -0.24658826 -0.07404801 -0.005286902 -0.06099823 -0.1685065
-0.112167984 -0.23837674 -0.24162605 -0.05832842 -0.039310724 0.13536671 -0.18608692 0.00095805526
0.24595717 -0.15830803 -0.12717757 0.09561017 0.23084891 -0.09516919 0.2263842 -0.22915462
-0.15720072 -0.09048173 -0.19644186 -0.20482534 -0.097280234 0.056494832 -0.19219136 -0.070687145
0.09557235 -0.24815801 -0.102662355 -0.045227975 -0.012811035 -0.17323649 0.14144677 -0.0985024
0.10838577 0.19070384 -0.19292605 0.08025104 -0.18041283 0.062005043 0.15397379 0.04671517
0.23746347 0.24403423 -0.016285896 -0.12153277 -0.077926576 -0.11347479 -0.036684334 -0.063940465
-0.07545045 0.026775867 0.090313464 -0.20182174 0.12373802 0.04121387 0.22749433 0.20135891
0.14439994 -0.058136612 -0.16974255 0.11416027 -0.045933813 0.22104266 0.16570303 0.09946224
-0.10802439 0.11033735 -0.029818505 -0.07242167 -0.034856677 0.23843181 -0.19685456 0.20278999
0.11127198 0.04765752 0.13535619 0.09501439 -0.058651775 0.0046061277 0.17218286 0.036109895
-0.053639203 0.013147622 0.15830985 -0.15583438 0.20827785 -0.10619244 -0.07531518 0.058314115
0.006946534 -0.17140949 -0.18063918 -0.16880378 0.040266633 0.12964779 -0.24695629 -0.10705668
-0.23059651 -0.07417008 0.22642988 -0.14255938 -0.02114746 -0.20075032 -0.2056708 -0.0700866
-0.23958004 0.22007045 0.103465766 -0.075814456 0.23579374 -0.24307036 0.056890458 -0.13329163
0.19661033 0.12688655 -0.08795628 -0.019170344 0.22168684 -0.011225462 -0.1719338 0.030732542
00000000: 7066 9ebd 8441 033e b02d d93c 0028 233d
00000010: 143b d4bd 8807 1c3d eaf7 3fbe c09c 703d
00000020: a831 10bd a0b1 c1bc c827 6dbe cc3b 723e
00000030: 4071 f9bc c01d 50bd d66a 6cbe 44d8 b03d
00000040: 02e0 30be 5c47 0fbe 9064 91bc 106e b73d
00000050: 9cfc 453e 601d b13d 784b dcbd f8fa 913d
00000060: c095 45bc 081b 53bd 7472 683e bede 683e
00000070: b87f a4bd c0a1 b6bb d4c4 71be 60d9 9e3c
00000080: d014 aa3c 8818 af3d 8032 423b 94b6 f2bd
00000090: 16a4 0c3e 80d6 a5bb 185d 3e3e 143a b83d
000000a0: b4e3 1b3e 906c 443d 6244 18be 681b 893d
000000b0: ba0b 283e ceae 613e 8ac5 413e 14a9 003e
000000c0: e012 ccbc 7cba c63d 8802 e03d b08c af3d
000000d0: a830 233d a8e1 6cbd 8299 3cbe 1809 6fbe
000000e0: d0a0 073e 42b2 4b3e d4b1 53be 26fb 6f3e
000000f0: 9896 913d e08a 6c3d b690 363e 46e8 05be
00000100: 483a a23d 9805 e0bd 3842 593e 1a5b 3d3e
00000110: f022 873c dca9 733e 8061 c9bd e822 14be
00000120: 4897 79bd 5cc6 933d 202a bebd b651 4dbe
00000130: 0017 59bc 08c2 cdbd c058 7b3d 388e fa3d
00000140: 8c3e 433e 804d 27bd a4a9 93bd 3c03 6ebe
00000150: 24b7 db3d 28b2 c13d f436 bfbd e82a dabd
00000160: f003 d33c 6455 513e 6af8 593e 403d 75bc
00000170: 908d 763e f0bc 4bbe ba35 28be c065 e8bb
00000180: 1094 3d3d e833 3f3d 0c3e d63d 46e8 21be
00000190: d4e1 c2bd 54d8 c2bd 1888 793d 2a3f 02be
000001a0: 9caa 65be 682d 8b3d 00cc 6d3d 00c9 053e
000001b0: fef4 4abe f8b1 50be 98ba ffbd 9ce6 69be
000001c0: 9281 44be d067 53be c01c 5e3d e25c 39be
000001d0: 2240 5ebe 7853 89bd 6c0c ae3d 6cf9 70be
000001e0: 28e6 e13d 806c 2c3c 2c3a bcbd 76f4 113e
000001f0: e8d8 1dbe de95 263e 80c3 183d b8a0 cfbd
00000200: 1893 e13d 3cb8 a4bd 2838 b3bd a281 7cbe
00000210: 7ca6 97bd c03d adbb 48d9 79bd f88c 2cbe
00000220: 54b8 e5bd 0819 74be d26c 77be c8e9 6ebd
00000230: 4804 21bd 929d 0a3e 928d 3ebe 0026 7b3a
00000240: 32dc 7b3e 801b 22be d63a 02be 44cf c33d
00000250: a863 6c3e 10e8 c2bd 42d1 673e 82a7 6abe
00000260: 3af9 20be 7c4e b9bd 0e28 49be bcbd 51be
00000270: dc3a c7bd 2067 673d d0cd 44be 6cc4 90bd
00000280: 70bb c33d 221d 7ebe a440 d2bd f840 39bd
00000290: 60e5 51bc e864 31be 6cd7 103e a0bb c9bd
000002a0: 5cf9 dd3d de47 433e 688e 45be a85a a43d
000002b0: 24be 38be 00f9 7d3d 4eab 1d3e 6858 3f3d
000002c0: a029 733e 1ce4 793e 006a 85bc 2ce6 f8bd
000002d0: f897 9fbd 7865 e8bd 5042 16bd 38f3 82bd
000002e0: c485 9abd 1059 db3c 44f6 b83d 5caa 4ebe
000002f0: 5c6a fd3d e0cf 283d 46f4 683e 0831 4e3e
00000300: 94dd 133e a820 6ebd fed0 2dbe dccc e93d
00000310: 1825 3cbd 0259 623e 0eae 293e dcb2 cb3d
00000320: e43b ddbd 8cf8 e13d f045 f4bc d051 94bd
00000330: e0c5 0ebd 7827 743e 3e94 49be 2ea8 4f3e
00000340: 90e2 e33d 8834 433d d09a 0a3e e896 c23d
00000350: d83c 70bd 00ef 963b b450 303e f8e7 133d
00000360: c8b4 5bbd 2069 573c fa1b 223e 0c93 1fbe
00000370: ca46 553e 6c7b d9bd d83e 9abd c8da 6e3d
00000380: c09f e33b f885 2fbe 7af9 38be e6da 2cbe
00000390: a0ee 243d 64c2 043e 1ce2 7cbe 8840 dbbd
000003a0: 7e21 6cbe 7ce6 97bd 3cdd 673e 16fb 11be
000003b0: 703d adbc 7e91 4dbe 5e9b 52be 9089 8fbd
000003c0: 7854 75be 265a 613e dce5 d33d 9c44 9bbd
000003d0: ea73 713e 70e7 78be f805 693d 9a7d 08be
000003e0: 3854 493e 8cee 013e 6c22 b4bd 200b 9dbc
000003f0: e001 633e 00eb 37bc 6a0f 30be d0c2 fb3c

layer1.0.fc2.bias f4 [16]
0.24955842 0.10265961 -0.18024206 0.03111291 0.059851706 -0.06590471 0.16029581 -0.15671661
0.19599006 0.24045467 0.015053421 -0.02752614 -0.050515026 -0.21483114 0.085724264 -0.24898577
00000000: 3e8c 7f3e 343f d23d 6091 38be 80e0 fe3c
00000010: 1027 753d 0cf9 86bd 9624 243e 527a 20be
00000020: 9eb1 483e c039 763e a0a2 763c 807e e1bc
00000030: d8e8 4ebd b2fc 5bbe 3490 af3d 20f6 7ebe

layer1.0.bn2.weight f4 [16]
1.0 1.0 1.0 1.0 1.0 1.0 1.0 1.0
1.0 1.0 1.0 1.0 1.0 1.0 1.0 1.0
00000000: 0000 803f 0000 803f 0000 803f 0000 803f
00000010: 0000 803f 0000 803f 0000 803f 0000 803f
00000020: 0000 803f 0000 803f 0000 803f 0000 803f
00000030: 0000 803f 0000 803f 0000 803f 0000 803f

layer1.0.bn2.bias f4 [16]
0.0 0.0 0.0 0.0 0.0 0.0 0.0 0.0
0.0 0.0 0.0 0.0 0.0 0.0 0.0 0.0
00000000: 0000 0000 0000 0000 0000 0000 0000 0000
00000010: 0000 0000 0000 0000 0000 0000 0000 0000
00000020: 0000 0000 0000 0000 0000 0000 0000 0000
00000030: 0000 0000 0000 0000 0000 0000 0000 0000

layer1.0.bn2.running_mean f4 [16]
0.1167791 0.14938971 0.3223117 0.20285888 0.11939294 -0.006006805 -0.23444909 -0.5126063
-0.36625135 -0.075271554 -0.049946863 0.18046644 0.18587802 0.022274673 -0.5073585 -0.15193379
00000000: e129 ef3d 9ef9 183e 0a06 a53e 3dba 4f3e
00000010: 4984 f43d bcd4 c4bb 6c13 70be 2b3a 03bf
00000020: 4c85 bbbe f927 9abd 1595 4cbd 32cc 383e
00000030: cf56 3e3e 6079 b63c 3fe2 01bf 8894 1bbe

layer1.0.bn2.running_var f4 [16]
0.08807291 0.13369107 0.09224213 0.08285947 0.04174157 0.07143045 0.11247843 0.09892417
0.077395745 0.14588255 0.11289854 0.12898685 0.07933833 0.054062847 0.14623338 0.091881566
00000000: 925f b43d 50e6 083e 71e9 bc3d 3ab2 a93d
00000010: 35f9 2a3d 214a 923d 175b e63d c198 ca3d
00000020: a981 9e3d 3c62 153e 5a37 e73d 2115 043e
00000030: 227c a23d 0171 5d3d 34be 153e 672c bc3d

layer1.0.shortcut.0.weight f4 [16, 5]
-0.07783592 0.42731488 0.17143081 0.13740046 0.06044836 -0.24816999 0.27393007 -0.16021566
0.034110624 -0.30291018 -0.24654503 -0.3460327 0.18210147 -0.27037728 0.34766743 -0.28520516
-0.120104074 -0.09446095 0.15257184 -0.05903826 0.021738827 -0.2024398 -0.1310556 0.00830324
0.12117512 0.12797022 -0.31970352 -0.14472698 0.09476818 0.3842343 -0.2975328 -0.3166179
0.20133309 -0.16428082 -0.31236693 -0.33291736 0.057314306 -0.08470618 0.3499773 -0.011175478
-0.43237463 -0.33449963 -0.2503853 -0.01095983 0.22766842 0.22969802 0.31313905 -0.058910683
-0.3918076 -0.3961368 -0.14342856 0.26583627 0.4412727 0.16190422 0.072095275 -0.43925202
0.20713498 -0.030365458 -0.16595283 0.28701898 -0.06260286 0.18110251 0.1604335 0.064830184
-0.41322973 0.19548844 -0.2812455 0.09037453 0.22956586 -0.09943869 0.30835408 -0.2652613
-0.17120348 0.29259205 -0.40772507 -0.38144532 -0.24675743 -0.030271042 0.16489528 0.11120635
00000000: 7068 9fbd 04c9 da3e 8f8b 2f3e b5b2 0c3e
00000010: b398 773d 4620 7ebe 9040 8c3e 930f 24be
00000020: 95b7 0b3d 0b17 9bbe 4d76 7cbe 332b b1be
00000030: cf78 3a3e e46e 8abe 7701 b23e 6906 92be
00000040: 20f9 f5bd be74 c1bd cb3b 1c3e 1ad2 71bd
00000050: a015 b23c 614c 4fbe 7033 06be 500a 083c
00000060: a92a f83d a00a 033e 2eb0 a3be 4f33 14be
00000070: d215 c23d 5cba c43e 3856 98be be1b a2be
00000080: 432a 4e3e 3b39 28be 8fee 9fbe 2574 aabe
00000090: 68c2 6a3d 6f7a adbd 3a30 b33e 5a19 37bc
000000a0: 3560 ddbe 8943 abbe 8132 80be dc90 33bc
000000b0: e921 693e f535 6b3e c353 a03e 544c 71bd
000000c0: 019b c8be 71d2 cabe f0de 12be b11b 883e
000000d0: 7fee e13e 38ca 253e b0a6 933d a4e5 e0be
000000e0: 311b 543e fbc0 f8bc 8aef 29be 27f4 923e
000000f0: ee35 80bd f072 393e ae48 243e b0c5 843d
00000100: d992 d3be 1f2e 483e 69ff 8fbe 4816 b93d
00000110: 5013 6b3e 83a6 cbbd 96e0 9d3e 54d0 87be
00000120: f74f 2fbe a0ce 953e 57c1 d0be cd4c c3be
00000130: fbad 7cbe fafa f7bc 4fda 283e 28c0 e33d

layer1.0.shortcut.0.bias f4 [16]
0.25872988 -0.042894952 -0.25070024 -0.3435196 0.25317758 -0.43809408 -0.30430856 -0.043131445
0.08902088 -0.026719129 0.30089584 0.40116507 0.36145812 -0.42448545 -0.3292901 -0.43270797
00000000: 3e78 843e 9eb2 2fbd c85b 80be cde1 afbe
00000010: 7ea0 813e de4d e0be 55ce 9bbe 99aa 30bd
00000020: 9450 b63d 13e2 dabc 050f 9a3e 8265 cd3e
00000030: 0a11 b93e 2856 d9be b698 a8be e68b ddbe

layer1.0.shortcut.1.weight f4 [16]
1.0 1.0 1.0 1.0 1.0 1.0 1.0 1.0
1.0 1.0 1.0 1.0 1.0 1.0 1.0 1.0
00000000: 0000 803f 0000 803f 0000 803f 0000 803f
00000010: 0000 803f 0000 803f 0000 803f 0000 803f
00000020: 0000 803f 0000 803f 0000 803f 0000 803f
00000030: 0000 803f 0000 803f 0000 803f 0000 803f

layer1.0.shortcut.1.bias f4 [16]
0.0 0.0 0.0 0.0 0.0 0.0 0.0 0.0
0.0 0.0 0.0 0.0 0.0 0.0 0.0 0.0
00000000: 0000 0000 0000 0000 0000 0000 0000 0000
00000010: 0000 0000 0000 0000 0000 0000 0000 0000
00000020: 0000 0000 0000 0000 0000 0000 0000 0000
00000030: 0000 0000 0000 0000 0000 0000 0000 0000

layer1.0.shortcut.1.running_mean f4 [16]
0.1885047 -0.28921503 -0.50235057 -0.62908673 0.2720728 -0.31293088 -0.6064605 -0.37203506
-0.3485095 0.20096622 0.16537164 -0.037330512 0.30196404 -0.22913061 -0.022479506 -0.8150654
00000000: 6007 413e fe13 94be 0c9a 00bf d40b 21bf
00000010: 204d 8b3e 7a38 a0be ff40 1bbf 617b bebe
00000020: d66f b2be 17ca 4d3e 2f57 293e e1e7 18bd
00000030: 089b 9a3e 37a1 6abe f126 b8bc 20a8 50bf

layer1.0.shortcut.1.running_var f4 [16]
0.23626573 0.19347787 0.35055268 0.049676824 0.0728554 0.27742082 0.26576743 0.1356762
0.22721855 0.40780655 0.30503258 0.15157348 0.23377523 0.1469729 0.3485191 0.099274315
00000000: a5ef 713e 101f 463e a47b b33e ed79 4b3d
00000010: 3635 953d 1a0a 8e3e ab12 883e b4ee 0a3e
00000020: fbab 683e 05cc d03e 3b2d 9c3e 1436 1b3e
00000030: c662 6f3e 1080 163e 1871 b23e 5550 cb3d

layer1.1.fc1.weight f4 [16, 16]
0.08249366 -0.05182579 0.14024842 0.05613774 0.24664658 0.22106218 0.045214564 -0.043975502
0.0058130026 0.23854166 -0.106051564 0.18144447 -0.11812383 -0.22250047 0.01933235 -0.20107102
-0.16918099 0.21798271 0.052194566 -0.18067285 -0.08681652 -0.17140952 -0.13233131 -0.08066225
-0.060569137 0.21466872 0.12588742 0.11823356 0.15411192 -0.075336844 -0.19462335 -0.23632479
0.10024491 -0.06429148 0.0036818683 -0.023320675 0.03345132 0.18718478 -0.088002264 -0.15816501
-0.17024818 -0.22483793 0.089832515 0.07939738 -0.16125607 0.055778325 -0.18164626 0.07392028
-0.14210916 -0.13939571 -0.017646909 -0.14214897 -0.18609533 -0.054761857 0.16155156 0.1367288
0.22580305 -0.054130316 -0.093069375 0.13009807 0.06555113 -0.015110284 -0.041694432 0.03723845
0.050816894 0.09751412 0.16223904 -0.19776767 -0.014436811 0.24272561 0.17347181 0.0065329075
0.12736931 0.20420164 0.008497626 0.22729465 0.1200397 0.2023738 0.105109245 -0.068326265
0.20215905 0.13226992 0.15700063 -0.16798499 0.08722788 0.09872657 -0.1720905 0.08370575
-0.11685869 -0.024884492 0.122837305 0.08979714 -0.13892275 -0.108276546 -0.088739336 0.084792465
0.0026580393 -0.24989805 0.04908946 -0.19550407 -0.057154536 -0.007964969 -0.21989292 0.17779723
-0.2183004 0.095096946 -0.10429475 -0.18058342 -0.028480768 0.08542505 -0.106729984 0.10648778
-0.028915018 -0.04356578 0.24503547 -0.18261725 -0.08364612 -0.23983636 -0.12224513 -0.12112972
-0.12882677 -0.110995114 -0.027286172 0.2357707 0.0850544 -0.07546678 0.19491649 0.097794205
-0.016901791 0.0073112547 0.1676214 -0.10557124 -0.018030107 0.103755295 0.18331131 -0.2461156
0.24019915 -0.108428836 -0.01486817 0.10002124 0.2358166 -0.027363062 -0.15604192 0.12539682
-0.085822314 0.09495038 -0.047492385 0.09062293 -0.115267485 -0.09815633 0.111044884 0.097940356
-0.16309416 -0.05493796 -0.015811741 -0.010969251 0.10245526 -0.08273423 0.029604703 0.051577955
-0.2415958 0.21498135 0.019891351 0.1779081 0.09022969 0.12881479 0.10968974 0.015564144
0.004429877 -0.12883732 -0.24419695 -0.14995053 -0.037954867 0.081888795 0.015388638 -0.24108726
0.06282735 0.12761962 0.052543133 0.23562807 -0.07051167 -0.23491222 -0.18056521 0.24686223
0.047391623 0.19626024 -0.061401546 0.105553746 -0.13177466 -0.117394656 -0.12837991 -0.069948316
0.08654985 0.113416016 0.18284592 -0.14179993 0.024821192 -0.24989644 -0.11364296 0.084692985
0.20679069 -0.11761618 -0.12038013 -0.015069902 0.24515676 -0.14604568 -0.15618956 -0.0472959
-0.14906117 0.21021968 -0.054976076 0.04091981 0.18557188 0.24624872 -0.047483027 0.19081178
-0.042283148 0.13704866 0.018030286 -0.20820117 0.18431452 0.22229752 -0.11495164 -0.12864497
0.035583407 0.05074522 0.23177403 0.018217176 -0.020281702 -0.2342628 0.09460768 -0.018214673
0.16026288 0.20591718 0.09973821 -0.0020361245 0.101959944 -0.09474325 0.22088906 -0.04823798
-0.2012932 -0.007107109 0.120548576 -0.13036859 0.12598711 -0.09424487 -0.06245041 -0.06466955
-0.16967654 0.05041784 -0.14427662 0.04146713 -0.18573558 -0.1988819 -0.23227715 -0.1971071
00000000: 70f2 a83d 4847 54bd 489d 0f3e b0f0 653d
00000010: ec90 7c3e 205e 623e e832 393d a81f 34bd
00000020: 007b be3b 4444 743e 9031 d9bd 94cc 393e
00000030: e8ea f1bd 2ad7 63be e05e 9e3c 90e5 4dbe
00000040: c83d 2dbe dc36 5f3e f8c9 553d 4e02 39be
00000050: dccc b1bd fa85 2fbe dc81 07be 4032 a5bd
00000060: 5817 78bd 1ed2 5b3e a2e8 003e 7024 f23d
00000070: 84cf 1d3e 344a 9abd 584b 47be 20ff 71be
00000080: 344d cd3d 40ab 83bd 804b 713b 000b bfbc
00000090: 4004 093d 5ead 3f3e 883a b4bd 02f6 21be
000000a0: 8a55 2ebe ea3b 66be 1cfa b73d 189b a23d
000000b0: 5020 25be d077 643d 7a01 3abe 8463 973d
000000c0: 1085 11be c0bd 0ebe 4090 90bc 808f 11be
000000d0: c68f 3ebe f84d 60bd c66d 253e a202 0c3e
000000e0: ea38 673e c0b7 5dbd 289b bebd 6e38 053e
000000f0: ac3f 863d 2091 77bc c8c7 2abd 5887 183d
00000100: 6025 503d 7cb5 c73d fe21 263e 9c83 4abe
00000110: 6088 6cbc 108d 783e 98a2 313e 0012 d63b
00000120: 1a6d 023e 3c1a 513e a039 0b3c eebf 683e
00000130: 60d7 f53d 143b 4f3e 8443 d73d a4ee 8bbd
00000140: c802 4f3e c471 073e c6c4 203e 4204 2cbe
00000150: 88a4 b23d 2831 ca3d 7e38 30be ec6d ab3d
00000160: 9c53 efbd 90da cbbc 2092 fb3d 90e7 b73d
00000170: c441 0ebe 18c0 ddbd f8bc b5bd aca7 ad3d
00000180: 8032 2e3b 46e5 7fbe 0812 493d 3832 48be
00000190: e01a 6abd 807f 02bc 9c2b 61be 7a10 363e
000001a0: 248a 5fbe 30c2 c23d 7c98 d5bd dcea 38be
000001b0: 8050 e9bc 54f3 ae3d 4095 dabd 4416 da3d
000001c0: 30df ecbc 0872 32bd 94ea 7a3e 0400 3bbe
000001d0: a84e abbd aa97 75be a85b fabd dc12 f8bd
000001e0: 2aeb 03be 6851 e3bd 4087 dfbc e06d 713e
000001f0: 0031 ae3d 548e 9abd 3098 473e 5448 c83d
00000200: a075 8abc 4093 ef3b f2a4 2b3e bc35 d8bd
00000210: e0b3 93bc a87d d43d f6b5 3b3e ba05 7cbe
00000220: c4f6 753e f00f debd a099 73bc f0d7 cc3d
00000230: e879 713e 8028 e0bc 74c9 1fbe 0668 003e
00000240: 9cc3 afbd 5875 c23d 6087 42bd 8498 b93d
00000250: 5c11 ecbd 3006 c9bd 806b e33d f494 c83d
00000260: 2802 27be a006 61bd a087 81bc 60b8 33bc
00000270: 10d4 d13d 9070 a9bd 9085 f23c 6843 533d
00000280: e464 77be 1224 5c3e 30f3 a23c 8a2d 363e
00000290: 58ca b83d 06e8 033e 04a5 e03d c000 7f3c
000002a0: 8028 913b eeed 03be c40e 7abe a28c 19be
000002b0: 9076 1bbd 50b5 a73d a020 7c3c 94df 76be
000002c0: a0ab 803d b8ae 023e 7837 573d 7c48 713e
000002d0: 6c68 90bd d48c 70be 16e6 38be 74c9 7c3e
000002e0: b81d 423d 72f8 483e 3080 7bbd 902c d83d
000002f0: f0ef 06be 9c6c f0bd 0676 03be 1041 8fbd
00000300: 0c41 b13d a846 e83d f63b 3b3e 0034 11be
00000310: d055 cb3c dae4 7fbe a4bd e8bd 8473 ad3d
00000320: f0c0 533e c0e0 f0bd dc89 f6bd c0e7 76bc
00000330: 600a 7b3e 008d 15be 28f0 1fbe 58b9 41bd
00000340: 7ea3 18be d443 573e 982e 61bd 889b 273d
00000350: 8e06 3e3e a028 7c3e 907d 42bd 2a64 433e
00000360: 1831 2dbd 7c56 0c3e 40b4 933c b032 55be
00000370: f2bc 3c3e f6a1 633e c46b ebbd 82bb 03be
00000380: e8bf 113d 38da 4f3d 2c56 6d3e 303c 953c
00000390: d025 a6bc 96e2 6fbe acc1 c13d f036 95bc
000003a0: f41b 243e f4db 523e 8c43 cc3d 8070 05bb
000003b0: 60d0 d03d c008 c2bd be30 623e 3095 45bd
000003c0: ce1f 4ebe c0e2 e8bb 2ce2 f63d 587f 05be
000003d0: c402 013e 7403 c1bd 00cc 7fbd 7871 84bd
000003e0: b0bf 2dbe f082 4e3d 40bd 13be 70d9 293d
000003f0: 7831 3ebe b2a7 4bbe 10da 6dbe 72d6 49be

layer1.1.fc1.bias f4 [16]
0.14493486 0.19424528 -0.09755564 0.024274528 -0.21102402 -0.012235403 -0.038572997 -0.1998071
0.0665144 0.09631947 -0.011604816 -0.21217239 -0.23489738 -0.0074760914 0.0012669861 0.20698601
00000000: ce69 143e 3ce8 463e 40cb c7bd 60db c63c
00000010: ae16 58be 0077 48bc b8fe 1dbd 3c9a 4cbe
00000020: b438 883d 2443 c53d 2022 3ebc b843 59be
00000030: f088 70be 00fa f4bb 0011 a63a 24f4 533e

layer1.1.bn1.weight f4 [16]
1.0 1.0 1.0 1.0 1.0 1.0 1.0 1.0
1.0 1.0 1.0 1.0 1.0 1.0 1.0 1.0
00000000: 0000 803f 0000 803f 0000 803f 0000 803f
00000010: 0000 803f 0000 803f 0000 803f 0000 803f
00000020: 0000 803f 0000 803f 0000 803f 0000 803f
00000030: 0000 803f 0000 803f 0000 803f 0000 803f

layer1.1.bn1.bias f4 [16]
0.0 0.0 0.0 0.0 0.0 0.0 0.0 0.0
0.0 0.0 0.0 0.0 0.0 0.0 0.0 0.0
00000000: 0000 0000 0000 0000 0000 0000 0000 0000
00000010: 0000 0000 0000 0000 0000 0000 0000 0000
00000020: 0000 0000 0000 0000 0000 0000 0000 0000
00000030: 0000 0000 0000 0000 0000 0000 0000 0000

layer1.1.bn1.running_mean f4 [16]
0.47551417 0.022989707 -0.46968403 -0.052385274 0.8030038 0.098850764 -0.59627026 -0.41724658
0.33673048 0.015599747 -0.020436784 -0.26456025 -0.3185826 0.55487454 0.52862763 -0.55421704
00000000: 9876 f33e e954 bc3c 6d7a f0be f191 56bd
00000010: a891 4d3f 4572 ca3d 2ba5 18bf 58a1 d5be
00000020: f067 ac3e 1596 7f3c 0b6b a7bc 7174 87be
00000030: 421d a3be 420c 0e3f 2454 073f 2be1 0dbf

layer1.1.bn1.running_var f4 [16]
0.5926898 0.37573895 0.19257364 0.18398423 0.24684253 0.21726288 0.22854112 0.35047498
0.25173756 0.19864486 0.29078287 0.41967988 0.2242881 0.20251498 0.124973506 0.15611349
00000000: 85ba 173f db60 c03e 0632 453e 5d66 3c3e
00000010: 4ac4 7c3e 297a 5e3e af06 6a3e 7571 b33e
00000020: bfe3 803e 8f69 4b3e 7ee1 943e 48e0 d63e
00000030: c8ab 653e 1660 4f3e 1cf2 ff3d 37dc 1f3e

layer1.1.fc2.weight f4 [16, 16]
0.057877183 0.21052086 -0.18294552 -0.22796309 0.07995883 0.2123881 -0.21805948 -0.1735174
-0.1566832 0.16872048 -0.008146107 0.11291325 0.10622233 0.033394933 0.115321726 0.07388297
0.077402234 -0.20039198 0.16655034 -0.23257267 0.111961395 -0.07249069 -0.24052614 0.105591595
-0.19244927 0.033690423 -0.16870922 -0.22145644 -0.09576434 0.19362193 -0.01532051 -0.04629603
0.20038778 0.20460463 -0.027580291 0.04386738 -0.18085212 0.011659056 -0.052731574 -0.069024235
0.21085909 -0.048182935 -0.20224762 0.16678888 0.13200301 -0.094355255 -0.11438683 0.18167645
0.08745715 0.18302017 -0.18299234 -0.09714365 -0.03015396 -0.08176321 -0.2005986 0.10139248
0.14347833 0.10237914 0.07722053 0.24648449 -0.15696725 0.21913958 -0.08769539 0.18085134
-0.023565799 0.19012222 -0.13956922 -0.21274927 -0.08865255 -0.19220686 -0.17989099 0.072258115
-0.08736056 0.21088558 -0.12422454 -0.23236215 -0.15419495 -0.01576063 -0.12875977 -0.21272668
-0.24798131 0.13575312 0.20449471 -0.021894157 0.00014927983 -0.18478137 0.14093906 -0.02358669
-0.20306039 -0.089205414 0.18471944 0.0687179 0.21158803 -0.14538252 -0.15743893 -0.09413886
0.1405991 -0.1930286 -0.2362454 0.08512956 -0.22493237 0.08586377 -0.10530412 -0.19528377
-0.21575046 0.021155238 -0.11646354 0.013564289 -0.059180975 -0.14944372 0.24665916 0.1451182
-0.114177406 0.14657354 0.15308207 0.1526148 0.014786482 -0.096096635 0.0025500357 -0.075513184
-0.038904488 -0.12316713 0.17520994 -0.13824978 -0.11984891 0.19874454 0.036747664 0.16303211
-0.008806825 -0.028603673 -0.12129328 -0.053100467 0.05800712 -0.086515605 -0.11939007 -0.011918545
0.035270005 -0.0957253 -0.17383292 -0.028473854 0.22353259 -0.12760511 -0.04223624 0.19269678
-0.19741082 -0.22026557 -0.2001917 -0.11431822 -0.18194538 -0.18175203 -0.043061674 0.08786872
0.06667212 -0.20075306 -0.11406726 0.10691324 0.24880016 0.0149029195 -0.20664775 -0.016171098
-0.032786906 0.049788028 0.22616228 -0.2244707 0.088311255 -0.0039025545 0.016449094 -0.113725275
-0.008994073 -0.096500605 0.21758333 0.028044254 -0.23576418 -0.22656721 -0.050146967 0.008965105
-0.24781922 0.0076034963 -0.07942936 -0.047950655 0.20617044 0.20884347 0.105872184 0.21282527
0.17021096 -0.21293771 -0.2035321 0.07347873 -0.011801064 -0.063442856 -0.018700302 0.011155844
-0.039280564 -0.2036044 0.1881547 -0.20201069 -0.14531803 0.18931133 0.016434312 0.11396724
-0.20588014 0.0322721 0.0077442527 -0.22143725 -0.06651506 0.06691462 -0.14953849 0.08650422
-0.09500155 0.1504995 -0.071689695 -0.12825578 -0.09809217 0.048607707 0.024129659 -0.08792922
-0.23084596 -0.08237201 -0.18370363 -0.14034009 0.22474155 -0.10638046 -0.051836133 -0.21187574
0.1885691 -0.14999697 -0.19474101 0.008631647 0.14505506 0.17687145 0.08662182 0.14934346
-0.05075115 -0.15732512 -0.08223325 -0.043019116 0.038652748 0.1088523 0.08848685 -0.024220258
-0.09117687 0.038006663 -0.13638261 0.19076988 0.22252843 -0.059879184 -0.2180084 -0.175253
0.15596494 -0.058363885 -0.21923763 -0.16951486 -0.031002343 -0.18913805 -0.23970556 0.089360535
00000000: a010 6d3d c892 573e 1256 3bbe 286f 69be
00000010: 74c1 a33d 447c 593e fc4a 5fbe 8cae 31be
00000020: 9071 20be 10c5 2c3e 4077 05bc 103f e73d
00000030: 188b d93d 20c9 083d cc2d ec3d f44f 973d
00000040: 1085 9e3d 8e33 4dbe 2c8c 2a3e 8827 6ebe
00000050: 044c e53d 0076 94bd 7c4c 76be 6840 d83d
00000060: 6c11 45be f8fe 093d 1cc2 2cbe 7ac5 62be
00000070: 1820 c4bd d444 463e e002 7bbc e8a0 3dbd
00000080: 7432 4d3e e083 513e 10f0 e1bc 48ae 333d
00000090: 4c31 39be a005 3f3c 10fd 57bd 945c 8dbd
000000a0: 72eb 573e 785b 45bd 001a 4fbe b4ca 2a3e
000000b0: cc2b 073e 543d c1bd a443 eabd 6409 3a3e
000000c0: bc1c b33d a469 3b3e 5862 3bbe 40f3 c6bd
000000d0: 7005 f7bc 7873 a7bd b869 4dbe dca6 cf3d
000000e0: fceb 123e 28ac d13d cc25 9e3d 6e66 7c3e
000000f0: 06bc 20be 2066 603e a499 b3bd 1831 393e
00000100: 100d c1bc 66af 423e 3ceb 0ebe f2da 59be
00000110: 788f b5bd e0d1 44be 5835 38be 10fc 933d
00000120: 18ea b2bd 64f2 573e 7069 febd 58f0 6dbe
00000130: 48e5 1dbe 701c 81bc 9ad9 03be 06d5 59be
00000140: d0ee 7dbe de02 0b3e 1067 513e 605b b3bc
00000150: 0088 1c39 5437 3dbe 5452 103e e038 c1bc
00000160: 10ef 4fbe 54b1 b6bd 1827 3d3e f8bb 8c3d
00000170: 88aa 583e 28df 14be ac37 21be e0cb c0bd
00000180: 36f9 0f3e 4aa9 45be 50ea 71be 6858 ae3d
00000190: ac54 66be 58d9 af3d b0a9 d7bd 78f8 47be
000001a0: b0ed 5cbe c04d ad3c 7084 eebd c03c 5e3c
000001b0: c067 72bd c607 19be 3894 7c3e de99 143e
000001c0: d8d5 e9bd 6017 163e 8cc1 1c3e 0e47 1c3e
000001d0: 0043 723c 50ce c4bd 801e 273b a8a6 9abd
000001e0: 505a 1fbd 0c3f fcbd 3c6a 333e 5a91 0dbe
000001f0: 5873 f5bd b083 4b3e b884 163d e4f1 263e
00000200: 804a 10bc 4052 eabc 9c68 f8bd e07f 59bd
00000210: e098 6d3d 182f b1bd c882 f4bd 0046 43bc
00000220: 4877 103d a00b c4bd 4201 32be 0042 e9bc
00000230: bae5 643e eaaa 02be e8ff 2cbd 4e52 453e
00000240: 1026 4abe 4c8d 61be 0eff 4cbe ac1f eabd
00000250: e44f 3abe 341d 3abe 7061 30bd 84f4 b33d
00000260: 648b 883d 3692 4dbe 189c e9bd 54f5 da3d
00000270: 78c5 7e3e 602b 743c 789b 53be 4079 84bc
00000280: 904b 06bd 88ee 4b3d 1697 673e a6db 65be
00000290: 88dc b43d 00c2 7fbb 40c0 863c cce8 e8bd
000002a0: e05b 13bc 1ca2 c5bd 2ace 5e3e 10bd e53c
000002b0: 2a6c 71be 3c01 68be e866 4dbd 60e2 123c
000002c0: 52c4 7dbe c026 f93b dcab a2bd e867 44bd
000002d0: 581e 533e 10db 553e 84d3 d83d deee 593e
000002e0: c84b 2e3e 580c 5abe b86a 50be 047c 963d
000002f0: 4059 41bc 54ee 81bd 6031 99bc 00c7 363c
00000300: a8e4 20bd ac7d 50be a0ab 403e e4db 4ebe
00000310: 40ce 14be d4da 413e 40a1 863c a867 e93d
00000320: 3ed2 52be c02f 043d 80c3 fd3b 72c0 62be
00000330: 0c39 88bd 880a 893d 9e20 19be 2029 b13d
00000340: 2c90 c2bd 8a1c 1a3e 0cd2 92bd 7c55 03be
00000350: 8ce4 c8bd e018 473d 90ab c53c 3c14 b4bd
00000360: e262 6cbe a8b2 a8bd ce1c 3cbe 50b5 0fbe
00000370: a622 663e 00de d9bd 2052 54bd f4f5 58be
00000380: 4218 413e ce98 19be 306a 47be c06b 0d3c
00000390: 5089 143e ca1d 353e c866 b13d 7eed 183e
000003a0: 70e0 4fbd d619 21be e869 a8bd d034 30bd
000003b0: 5852 1e3d f4ed de3d 9838 b53d 9069 c6bc
000003c0: f0ba babd e0ac 1b3d e2a7 0bbe 2e59 433e
000003d0: 7ede 633e e043 75bd 983d 5fbe 8675 33be
000003e0: 46b5 1f3e f80e 6fbd d47f 60be 4e95 2dbe
000003f0: a0f8 fdbc 68ad 41be 6075 75be a802 b73d

layer1.1.fc2.bias f4 [16]
0.1063976 0.08460796 0.023804754 -0.2260294 -0.195138 -0.24842468 0.24949601 -0.09493011
-0.1612927 0.036740303 -0.22923008 0.0917173 -0.18031096 -0.24142173 0.08635083 -0.1428509
00000000: fce6 d93d f046 ad3d 3002 c33c 4074 67be
00000010: 42d2 47be 0a63 7ebe e27b 7f3e b86a c2bd
00000020: ea29 25be 007d 163d 4abb 6abe 48d6 bb3d
00000030: 70a3 38be 4237 77be b4d8 b03d 8247 12be

layer1.1.bn2.weight f4 [16]
1.0 1.0 1.0 1.0 1.0 1.0 1.0 1.0
1.0 1.0 1.0 1.0 1.0 1.0 1.0 1.0
00000000: 0000 803f 0000 803f 0000 803f 0000 803f
00000010: 0000 803f 0000 803f 0000 803f 0000 803f
00000020: 0000 803f 0000 803f 0000 803f 0000 803f
00000030: 0000 803f 0000 803f 0000 803f 0000 803f

layer1.1.bn2.bias f4 [16]
0.0 0.0 0.0 0.0 0.0 0.0 0.0 0.0
0.0 0.0 0.0 0.0 0.0 0.0 0.0 0.0
00000000: 0000 0000 0000 0000 0000 0000 0000 0000
00000010: 0000 0000 0000 0000 0000 0000 0000 0000
00000020: 0000 0000 0000 0000 0000 0000 0000 0000
00000030: 0000 0000 0000 0000 0000 0000 0000 0000

layer1.1.bn2.running_mean f4 [16]
0.19469802 -0.27429822 0.18285327 -0.016760841 -0.74937636 -0.33644566 -0.064117 0.042287327
-0.31514785 -0.42939198 -0.3725003 0.1519905 -0.42436185 -0.6669807 0.20569585 -0.47862336
00000000: eb5e 473e d170 8cbe e33d 3b3e 084e 89bc
00000010: 21d7 3fbf 9b42 acbe c64f 83bd 7a35 2d3d
00000020: 0f5b a1be 44d9 dbbe 5cb8 bebe 66a3 1b3e
00000030: f545 d9be 3fbf 2abf efa1 523e 1f0e f5be

layer1.1.bn2.running_var f4 [16]
0.23305981 0.10913438 0.10623971 0.1036242 0.11654823 0.13448557 0.14027524 0.040531743
0.055643592 0.12236084 0.05775268 0.20161471 0.086617865 0.19913134 0.06585084 0.18988858
00000000: 3ba7 6e3e d981 df3d 3494 d93d ed38 d43d
00000010: d7b0 ee3d 96b6 093e 50a4 0f3e 9d04 263d
00000020: 89ea 633d 5298 fa3d 138e 6c3d 1674 4e3e
00000030: b564 b13d 16e9 4b3e cedc 863d 2772 423e

layer2.0.fc1.weight f4 [32, 16]
0.13802525 -0.22859275 -0.093167245 0.06073621 0.20028722 -0.09539193 0.11251277 -0.06779933
0.10464713 -0.0015157461 -0.1542061 -0.21635184 0.24103236 0.14082378 -0.057160974 -0.18006146
0.012080789 0.05764568 0.10853961 -0.18854097 -0.050431818 -0.17323884 0.20220876 0.023260802
0.023978382 -0.1921449 -0.020740151 0.22209665 -0.23719645 0.15978381 -0.20609224 0.077151746
-0.2318911 0.15900138 0.19520408 0.03481531 0.00043180585 0.21373323 -0.15945649 0.21535584
-0.19774067 -0.022955984 -0.04892224 -0.13692442 -0.024303257 0.10202485 -0.070881814 0.003380537
-0.13380039 -0.13094455 -0.047670126 0.10292357 0.21672887 0.16616678 -0.09274319 0.00083339214
-0.22601539 -0.0148744285 0.030387491 -0.057978183 0.17470434 -0.24333459 0.06222421 -0.10103175
0.19667545 0.22858953 -0.15949667 -0.1332353 0.03811997 -0.22010812 0.115478635 0.007933229
0.019735187 0.20383903 0.09771943 0.18657729 0.078109175 0.062254578 0.10835445 -0.095314175
-0.16497883 -0.0086093545 0.068872154 -0.19949839 0.0053278804 -0.23801935 0.14393944 0.19879162
0.11736411 -0.12598544 0.0017619133 0.22554263 -0.10615119 -0.022361636 0.088523895 -0.15994334
0.15240756 0.1069074 -0.045057178 -0.16829434 0.056260675 -0.16665474 -0.06397626 0.003622055
0.14976162 -0.1748898 -0.22461367 0.15413627 -0.1853509 0.10864875 -0.21583354 -0.13856065
0.19634512 -0.1639235 0.12716049 0.056173444 -0.025770932 0.029330969 0.0042428076 -0.20416486
0.23873308 -0.0316979 -0.1891402 0.034395754 -0.20268312 0.039846838 0.21192303 -0.13729101
-0.11551362 -0.045090884 -0.16455105 0.018888175 0.0712232 -0.02879873 0.10181257 -0.23461264
0.20111284 0.17573553 0.18991584 0.23035088 0.04037574 0.09453899 0.10745245 -0.022239208
-0.060528845 -0.004517168 0.11026108 0.098039776 -0.13826123 0.16726711 -0.024795532 -0.031873673
0.12418887 -0.09599036 -0.21936479 0.10353142 -0.18884271 0.22999847 -0.16745812 -0.1472969
-0.18760765 0.070363015 0.045937896 0.024856806 0.15495366 -0.014547795 -0.07629031 0.23491469
-0.08712545 -0.13978556 0.16672394 -0.18400154 0.22746477 0.23878613 -0.027190119 -0.16204599
-0.03718832 0.16627818 -0.06973255 -0.0029232502 0.14629298 0.09809071 -0.22726274 0.046528906
0.08342484 0.2045866 0.1128926 0.1571647 0.12444538 -0.20105541 0.06248489 -0.12644553
0.00012308359 -0.11822373 -0.18306729 -0.24151918 -0.019039363 -0.12188095 0.21336913 -0.031712234
0.07396072 -0.23250619 0.07136878 -0.08232424 0.19539234 -0.0186522 -0.08577746 0.10491258
-0.0352934 -0.03372252 0.13806033 -0.109907 -0.24010667 -0.019157827 0.12751803 -0.06612584
0.21506888 -0.0796603 0.103927046 -0.23183325 0.122739315 0.22915483 0.07984573 -0.17686158
-0.24554148 -0.19384745 0.07122967 0.13948852 0.21735424 -0.088190675 -0.058146298 -0.15992725
0.12819442 -0.050052762 0.10456592 -0.014931649 0.21880609 0.0011307895 -0.19121113 -0.23353568
0.1696041 0.112803996 -0.12918821 -0.09701848 0.12252438 0.110473305 -0.16779828 -0.041232884
-0.037831157 0.11760497 0.22302985 0.037085086 -0.2113859 0.03051281 0.08464822 -0.037627876
00000000: 7e56 0d3e 3814 6abe 78ce bebd 88c6 783d
00000010: 1818 4d3e d85c c3bd 186d e63d 60da 8abd
00000020: 3c51 d63d 00ac c6ba 34e8 1dbe 568b 5dbe
00000030: 30d1 763e 1c34 103e a021 6abd 0862 38be
00000040: 80ee 453c e01d 6c3d 044a de3d e210 41be
00000050: 9891 4ebd 8665 31be d00f 4f3e 708d be3c
00000060: 506e c43c a2c1 44be 40e7 a9bc 4e6d 633e
00000070: a0e3 72be 5e9e 233e d809 53be bc01 9e3d
00000080: dc74 6dbe 42d1 223e 94e3 473e 809a 0e3d
00000090: 0064 e239 e2dc 5a3e 9048 23be 3e86 5c3e
000000a0: 887c 4abe 300e bcbc b062 48bd ea35 0cbe
000000b0: a017 c7bc 68f2 d03d 7c2a 91bd 008c 5d3b
000000c0: f802 09be 5416 06be c041 43bd 98c9 d23d
000000d0: 2cee 5d3e a027 2a3e 24f0 bdbd 0078 5a3a
000000e0: 9470 67be e0b3 73bc 30ef f83c 887a 6dbd
000000f0: b2e5 323e b42c 79be d0de 7e3d bce9 cebd
00000100: 4a65 493e 6013 6a3e 1853 23be d66e 08be
00000110: b023 1c3d 0664 61be 1080 ec3d 60fa 013c
00000120: b0ab a13c 2ebb 503e 2021 c83d 1e0e 3f3e
00000130: b4f7 9f3d a8fe 7e3d f0e8 dd3d 1434 c3bd
00000140: 36f0 28be 400e 0dbc d80c 8d3d 4e49 4cbe
00000150: 8095 ae3b 58bb 73be dc64 133e 0890 4b3e
00000160: 985c f03d 5402 01be 00f0 e63a a6f4 663e
00000170: cc65 d9bd c02f b7bc 044c b53d 30c8 23be
00000180: ba10 1c3e 44f2 da3d e08d 38bd 5a55 2cbe
00000190: 9871 663d 8aa7 2abe fc05 83bd 0060 6d3b
000001a0: 1c5b 193e 5016 33be 2001 66be e6d5 1d3e
000001b0: a0cc 3dbe 3c83 de3d 7803 5dbe d8e2 0dbe
000001c0: b20e 493e 90db 27be 5c36 023e 2016 663d
000001d0: 901d d3bc 8047 f03c 4007 8b3b 9810 51be
000001e0: 7276 743e a8d5 01bd f8ad 41be 90e2 0c3d
000001f0: 2a8c 4fbe 7036 233d 5a02 593e 0496 0cbe
00000200: 6892 ecbd 38b1 38bd 1280 28be 60bb 9a3c
00000210: 78dd 913d 50eb ebbc 1c83 d03d 4c3e 70be
00000220: 86f0 4d3e 04f4 333e 4c79 423e 1ae1 6b3e
00000230: 0861 253d a89d c13d 0810 dc3d 002f b6bc
00000240: 18ed 77bd c004 94bb 90d0 e13d 14c9 c83d
00000250: 5a94 0dbe 1248 2b3e 0020 cbbc f88d 02bd
00000260: bc56 fe3d 9896 c4bd 2aa1 60be 4808 d43d
00000270: fc5f 41be b884 6b3e 247a 2bbe 00d5 16be
00000280: 381c 40be 7c1a 903d 6029 3c3d 80a0 cb3c
00000290: 2cac 1e3e e059 6ebc 183e 9cbd 7a8d 703e
000002a0: d46e b2bd f223 0fbe aeb9 2a3e e66a 3cbe
000002b0: 86ec 683e 5a84 743e d0bd debc 62ef 25be
000002c0: c852 18bd d444 2a3e f0cf 8ebd 0094 3fbb
000002d0: d4cd 153e c8e3 c83d 90b7 68be 1895 3e3d
000002e0: a4da aa3d 267f 513e 3c34 e73d c8ef 203e
000002f0: 38dd fe3d 78e1 4dbe 28f0 7f3d f07a 01be
00000300: 0010 0139 481f f2bd fe75 3bbe ce50 77be
00000310: 70f8 9bbc b89c f9bd 707d 5a3e b0e4 01bd
00000320: b878 973d 1a16 6ebe cc29 923d 9c99 a8bd
00000330: ee14 483e 80cc 98bc 18ac afbd 68dc d63d
00000340: d08f 10bd a020 0abd b05f 0d3e ec16 e1bd
00000350: 86de 75be e0f0 9cbc 1694 023e fc6c 87bd
00000360: 043b 5c3e f024 a3bd b4d7 d43d b265 6dbe
00000370: c05e fb3d 90a7 6a3e 2886 a33d 341b 35be
00000380: 3a6f 7bbe f27f 46be dce0 913d 14d6 0e3e
00000390: 1c92 5e3e 509d b4bd d02a 6ebd f8c3 23be
000003a0: 6645 033e 2004 4dbd a826 d63d e0a3 74bc
000003b0: b40e 603e 0037 943a dacc 43be fa23 6fbe
000003c0: b2ac 2d3e c805 e73d ea49 04be a0b1 c6bd
000003d0: 10ee fa3d d43f e23d 50d3 2bbe d0e3 28bd
000003e0: d8f4 1abd e0da f03d f061 643e 88e6 173d
000003f0: 8c75 58be 00f6 f93c 0c5c ad3d b01f 1abd

layer2.0.fc1.bias f4 [32]
0.10064024 0.24692217 0.038772196 -0.23086926 0.13184974 0.09025526 -0.18234438 0.105475456
0.06222838 -0.013522714 0.13789156 0.20085779 -0.13778761 -0.08848438 -0.23862031 0.039554596
0.21937305 -0.07909435 0.05735022 -0.057596654 0.026109636 -0.058692753 -0.12646613 0.17038411
-0.20120639 -0.2345762 -0.09400371 -0.024052978 -0.054578155 0.02191773 -0.14078373 -0.08441937
00000000: 781c ce3d 2ad9 7c3e 98cf 1e3d fe68 6cbe
00000010: 9e03 073e c0d7 b83d 7cb8 3abe 8403 d83d
00000020: 30e3 7e3d 608e 5dbc 7233 0d3e aaad 4d3e
00000030: 3218 0dbe 4c37 b5bd e258 74be 0004 223d
00000040: 54a3 603e 38fc a1bd 10e8 6a3d 78ea 6bbd
00000050: e0e3 d53c d067 70bd 5680 01be 2c79 2e3e
00000060: 0c09 4ebe be34 70be 0485 c0bd c00a c5bc
00000070: 588d 5fbd d08c b33c 9c29 10be 10e4 acbd

layer2.0.bn1.weight f4 [32]
1.0 1.0 1.0 1.0 1.0 1.0 1.0 1.0
1.0 1.0 1.0 1.0 1.0 1.0 1.0 1.0
1.0 1.0 1.0 1.0 1.0 1.0 1.0 1.0
1.0 1.0 1.0 1.0 1.0 1.0 1.0 1.0
00000000: 0000 803f 0000 803f 0000 803f 0000 803f
00000010: 0000 803f 0000 803f 0000 803f 0000 803f
00000020: 0000 803f 0000 803f 0000 803f 0000 803f
00000030: 0000 803f 0000 803f 0000 803f 0000 803f
00000040: 0000 803f 0000 803f 0000 803f 0000 803f
00000050: 0000 803f 0000 803f 0000 803f 0000 803f
00000060: 0000 803f 0000 803f 0000 803f 0000 803f
00000070: 0000 803f 0000 803f 0000 803f 0000 803f

layer2.0.bn1.bias f4 [32]
0.0 0.0 0.0 0.0 0.0 0.0 0.0 0.0
0.0 0.0 0.0 0.0 0.0 0.0 0.0 0.0
0.0 0.0 0.0 0.0 0.0 0.0 0.0 0.0
0.0 0.0 0.0 0.0 0.0 0.0 0.0 0.0
00000000: 0000 0000 0000 0000 0000 0000 0000 0000
00000010: 0000 0000 0000 0000 0000 0000 0000 0000
00000020: 0000 0000 0000 0000 0000 0000 0000 0000
00000030: 0000 0000 0000 0000 0000 0000 0000 0000
00000040: 0000 0000 0000 0000 0000 0000 0000 0000
00000050: 0000 0000 0000 0000 0000 0000 0000 0000
00000060: 0000 0000 0000 0000 0000 0000 0000 0000
00000070: 0000 0000 0000 0000 0000 0000 0000 0000

layer2.0.bn1.running_mean f4 [32]
0.16145752 0.11047986 -0.036090575 -0.5053734 0.9123805 0.01905839 -0.6762552 0.12318921
0.6778718 -0.2862727 0.4370611 0.67335814 -0.45094174 0.039228585 -0.4711285 0.29975855
1.0369672 0.33199552 0.2832874 0.32003674 0.03464524 -0.048271988 0.1617663 1.191968
-0.60484105 0.25224864 -0.01081401 0.3392319 -0.45415315 0.5985522 -0.39270028 -0.18949945
00000000: 1f55 253e 4443 e23d b6d3 13bd 2760 01bf
00000010: c591 693f 5720 9c3c 101f 2dbf a04a fc3d
00000020: 0289 2d3f 5692 92be 79c6 df3e 3361 2c3f
00000030: d6e1 e6be 27ae 203d c137 f1be f479 993e
00000040: 57bb 843f 51fb a93e 0c0b 913e dbdb a33e
00000050: 2be8 0d3d d9b8 45bd 11a6 253e 6892 983f
00000060: ddd6 1abf bc26 813e 3f2d 31bc ceaf ad3e
00000070: c386 e8be b83a 193f 0310 c9be 250c 42be

layer2.0.bn1.running_var f4 [32]
0.379006 0.45396146 0.32321104 0.2308404 0.21394594 0.46220013 0.13705632 0.2967059
0.20343104 0.13574716 0.53551567 0.26902044 0.27329987 0.15660928 0.13715647 0.3189022
0.43696114 0.76246554 0.12531957 0.3640803 0.10844717 0.08530124 0.32851982 0.32306498
0.5343126 0.7576347 0.26691976 0.12395493 0.23137842 0.26952353 0.6400948 0.22003028
00000000: 130d c23e a36d e83e eb7b a53e 6d61 6c3e
00000010: a514 5b3e 7fa5 ec3e 7e58 0c3e d6e9 973e
00000020: 3a50 503e 4e01 0b3e 8e17 093f 0cbd 893e
00000030: f6ed 8b3e 2f5e 203e bf72 0c3e 2647 a33e
00000040: 5fb9 df3e f130 433f c653 003e bc68 ba3e
00000050: 8d19 de3d 6bb2 ae3d c033 a83e c668 a53e
00000060: b6c8 083f 59f4 413f b5a9 883e 15dc fd3d
00000070: 77ee 6c3e fdfe 893e 41dd 233f 9e4f 613e

layer2.0.fc2.weight f4 [32, 32]
-0.0070515047 -0.00079278223 -0.10369151 0.079314716 0.14216723 0.12977727 -0.17093472 0.06506388
-0.094545454 -0.13062362 0.09083147 0.07303789 -0.08337599 0.02197014 -0.038061764 0.10762958
0.12107609 0.057034254 0.1067099 -0.08734702 0.16802825 0.10729793 0.17125367 -0.066214174
0.14913975 0.024960795 -0.061277345 0.115882315 0.17158812 0.03694753 -0.15746854 -0.0018665995
-0.047435645 0.05556908 0.052456345 -0.1326854 -0.14120935 -0.10339722 -0.1726589 0.159852
0.0029823321 -0.10934696 0.09333894 0.07391518 -0.058578346 -0.0017588934 -0.11090791 0.05482439
0.10500767 -0.095444806 0.09927884 0.16400611 0.04104222 -0.09072876 -0.07365394 -0.013240601
0.16211991 -0.13449298 -0.08259967 0.0044875434 -0.13520367 0.17439045 0.14867939 0.12383397
-0.035529435 0.1201131 0.13582371 0.14971088 0.0018369493 0.11875633 0.16249648 -0.081572525
-0.15998583 -0.09574181 -0.1273209 0.16219859 -0.004036867 -0.053518236 0.05403995 -0.16041663
0.17575648 0.083932795 0.08603826 0.16353413 -0.06617258 0.05972651 0.043516938 -0.15233454
-0.02304733 0.085916035 -0.1271972 0.022570206 0.16680638 0.16137365 0.13398962 0.09937089
0.09253014 -0.12554376 -0.066336796 -0.11113538 0.04166555 0.017599259 -0.09774756 -0.11336969
-0.16587256 0.16800256 -0.16564056 -0.17495397 0.092663996 -0.12803213 0.061070066 0.08737642
0.14532006 -0.066062234 -0.10674286 -0.1737246 -0.001318248 0.08253522 -0.07426587 0.12435383
-0.12319532 0.1623122 0.15204127 -0.01166827 0.16657129 -0.15473397 0.030884326 -0.16532476
0.05876396 0.12248209 -0.103151836 -0.16642195 -0.06802204 -0.09004908 0.15904613 -0.014666576
-0.12334119 0.15059574 -0.111602955 0.1446649 0.06572472 -0.05941814 -0.15883495 -0.17216866
0.12615609 -0.008081743 0.1695858 0.067353085 0.08171342 -0.07784761 -0.13340762 0.009869253
0.026200863 0.045048933 0.13565606 0.12617874 -0.05650084 -0.16716664 0.0273434 0.06617363
0.14516465 -0.16103294 -0.11907863 -0.09465664 -0.15793057 0.066339746 -0.08134613 -0.0551761
0.017164346 0.15918212 0.13357243 0.108137935 0.044705667 -0.053845886 0.05096892 0.11667668
0.17342526 -0.12565643 0.04766619 0.13374841 -0.17313795 0.104048006 -0.07375521 0.032127973
-0.11397755 -0.038267653 0.15561064 -0.030878214 -0.055666417 0.021446066 -0.138153 -0.16234493
0.14316161 -0.14088437 0.14761953 0.15329693 0.15408677 -0.06575338 -0.09111297 0.10008036
-0.11055573 0.09547429 -0.14932352 -0.11118294 0.119986214 -0.010358936 0.13814415 0.09449532
-0.15641616 0.080812514 0.12497147 -0.026022686 0.07684433 0.056065824 0.020947468 -0.12190352
-0.1765797 -0.16484831 -0.1191653 0.11632669 -0.16749491 0.1617159 -0.08457494 -0.041192666
-0.061081868 0.071502425 0.002924401 -0.03757796 -0.14710732 -0.16623083 0.11456666 -0.15898341
0.1339395 -0.11614738 0.05927741 0.033934303 0.102093615 0.11087995 0.0656767 0.08242022
-0.1423018 -0.14650914 0.15718403 0.015751563 -0.008689753 0.109833844 -0.04238072 0.081227705
-0.061352912 0.17472148 0.09408736 0.09762913 0.017925961 -0.099546134 0.12411627 -0.004045339
00000000: 4f10 e7bb b7d2 4fba 375c d4bd c16f a23d
00000010: 4994 113e 55e4 043e 8309 2fbe 3640 853d
00000020: 0ca1 c1bd 33c2 05be da05 ba3d e494 953d
00000030: 08c1 aabd b9fa b33c a7e6 1bbd e66c dc3d
00000040: bef6 f73d c09c 693d b88a da3d ffe2 b2bd
00000050: 990f 2c3e 04bf db3d 1f5d 2f3e 4c9b 87bd
00000060: 17b8 183e 957a cc3c f4fd 7abd b553 ed3d
00000070: ccb4 2f3e 4b56 173d 6f3f 21be b0a8 f4ba
00000080: e14b 42bd 679c 633d 77dc 563d aede 07be
00000090: 2f99 10be ecc1 d3bd 7fcd 30be 3eb0 233e
000000a0: 3b73 433b 4df1 dfbd 7c28 bf3d d860 973d
000000b0: d9ef 6fbd ab8a e6ba b023 e3bd 8a8f 603d
000000c0: 430e d73d 9178 c3bd b452 cb3d 38f1 273e
000000d0: e31b 283d 00d0 b9bd e0d7 96bd 1bef 58bc
000000e0: c302 263e 87b8 09be 042a a9bd 3e0c 933b
000000f0: d572 0abe 6993 323e 693f 183e aa9c fd3d
00000100: 5087 11bd dbfd f53d 5f15 0b3e cf4d 193e
00000110: cac5 f03a 8536 f33d 7a65 263e 7f0f a7bd
00000120: 53d3 23be 4814 c4bd 6960 02be 6317 263e
00000130: b247 84bb f035 5bbd ff58 5d3d 4244 24be
00000140: 82f9 333e f5e4 ab3d d434 b03d 7e75 273e
00000150: 7d85 87bd c9a3 743d d13e 323d 96fd 1bbe
00000160: c1cd bcbc bff4 af3d fc3f 02be 27e5 b83c
00000170: 4bcf 2a3e 223f 253e 9334 093e f782 cb3d
00000180: 7180 bd3d 8b8e 00be 96db 87bd f29a e3bd
00000190: 7fa9 2a3d 522c 903c df2f c8bd 5e2e e8bd
000001a0: 7fda 29be dd08 2c3e ae9d 29be 2227 33be
000001b0: 9fc6 bd3d db1a 03be 9b24 7a3d 69f2 b23d
000001c0: c8ce 143e a34b 87bd 009c dabd dde4 31be
000001d0: 10c9 acba 3a08 a93d b418 98bd 39ad fe3d
000001e0: d44d fcbd 2b35 263e b5b0 1b3e 462c 3fbc
000001f0: aa91 2a3e 9572 1ebe 2001 fd3c e54a 29be
00000200: 7ab2 703d e4d7 fa3d 4541 d3bd 846a 2abe
00000210: 244f 8bbd a76b b8bd fddc 223e 144c 70bc
00000220: 4e9a fcbd c535 1a3e 1790 e4bd 0923 143e
00000230: af9a 863d 7060 73bd a1a5 22be fb4c 30be
00000240: 102f 013e 4969 04bc e6a7 2d3e 6af0 893d
00000250: 5e59 a73d 916e 9fbd 029c 08be a6b2 213c
00000260: 31a3 d63c 3b85 383d 6ce9 0a3e 0035 013e
00000270: 6d6d 67bd bb2d 2bbe 44ff df3c 0a86 873d
00000280: 0ba6 143e d2e5 24be 7fdf f3bd 57db c1bd
00000290: 8db8 21be 22dd 873d cd98 a6bd 5600 62bd
000002a0: 3e9c 8c3c a300 233e 36c7 083e 6c77 dd3d
000002b0: 4a1d 373d 818d 5cbd c9c4 503d 2ff4 ee3d
000002c0: 6496 313e 14ac 00be 9f3d 433d 58f5 083e
000002d0: 134b 31be 1f17 d53d f90c 97bd 9f98 033d
000002e0: 106d e9bd 8bbe 1cbd 6558 1f3e 4ff4 fcbc
000002f0: 7802 64bd a9af af3c fb77 0dbe c03d 26be
00000300: f598 123e fe43 10be 9329 173e dff9 1c3e
00000310: ecc8 1d3e b5a9 86bd 7099 babd eff6 cc3d
00000320: 0b6b e2bd 0688 c33d 44e8 18be e2b3 e3bd
00000330: 55bb f53d 87b8 29bc a975 0d3e c386 c13d
00000340: 8f2b 20be 0881 a53d 0bf1 ff3d 872d d5bc
00000350: 8f60 9d3d 47a5 653d 069a ab3c 8da8 f9bd
00000360: 4fd1 34be ffcd 28be f00c f4bd b03c ee3d
00000370: c983 2bbe da98 253e a035 adbd a4b9 28bd
00000380: fb30 7abd dd6f 923d 4fa7 3f3b 59eb 19bd
00000390: 4da3 16be 6a38 2abe eda1 ea3d 8ccc 22be
000003a0: 7027 093e adde edbd dfcc 723d b2fe 0a3d
000003b0: 7516 d13d 0715 e33d 8181 863d efcb a83d
000003c0: 90b7 11be 7e06 16be daf4 203e 6c09 813c
000003d0: 775f 0ebc 91f0 e03d 6897 2dbd b65a a63d
000003e0: 314d 7bbd 30ea 323e e0b0 c03d c8f1 c73d
000003f0: 77d9 923c d8de cbbd ac30 fe3d c38e 84bb

layer2.0.fc2.bias f4 [32]
0.04729203 -0.0013873057 -0.050237693 -0.098484054 -0.08107163 0.04450684 0.08882406 -0.13066587
0.114338055 -0.09100929 0.08837056 -0.16412134 0.06457649 0.05230622 -0.009594224 -0.09614655
-0.016276184 -0.09219383 -0.067238994 0.17450875 0.08653372 -0.00029235161 -0.07853949 0.0810145
0.1573069 0.15062876 0.14442912 -0.16563623 0.10131732 -0.06256588 -0.020708432 0.08257358
00000000: 4ab5 413d 41d6 b5ba 0ac6 4dbd 02b2 c9bd
00000010: e208 a6bd ce4c 363d 64e9 b53d 46cd 05be
00000020: 122a ea3d 1463 babd a0fb b43d 6d0f 28be
00000030: ae40 843d 0c3f 563d 1831 1dbc 7be8 c4bd
00000040: a255 85bc 1ed0 bcbd 99b4 89bd 6cb2 323e
00000050: 9738 b13d c546 99b9 50d9 a0bd eeea a53d
00000060: 0f15 213e 6d3e 1a3e 3ae5 133e 8b9c 29be
00000070: 747f cf3d 8a22 80bd bba4 a9bc 561c a93d

layer2.0.bn2.weight f4 [32]
1.0 1.0 1.0 1.0 1.0 1.0 1.0 1.0
1.0 1.0 1.0 1.0 1.0 1.0 1.0 1.0
1.0 1.0 1.0 1.0 1.0 1.0 1.0 1.0
1.0 1.0 1.0 1.0 1.0 1.0 1.0 1.0
00000000: 0000 803f 0000 803f 0000 803f 0000 803f
00000010: 0000 803f 0000 803f 0000 803f 0000 803f
00000020: 0000 803f 0000 803f 0000 803f 0000 803f
00000030: 0000 803f 0000 803f 0000 803f 0000 803f
00000040: 0000 803f 0000 803f 0000 803f 0000 803f
00000050: 0000 803f 0000 803f 0000 803f 0000 803f
00000060: 0000 803f 0000 803f 0000 803f 0000 803f
00000070: 0000 803f 0000 803f 0000 803f 0000 803f

layer2.0.bn2.bias f4 [32]
0.0 0.0 0.0 0.0 0.0 0.0 0.0 0.0
0.0 0.0 0.0 0.0 0.0 0.0 0.0 0.0
0.0 0.0 0.0 0.0 0.0 0.0 0.0 0.0
0.0 0.0 0.0 0.0 0.0 0.0 0.0 0.0
00000000: 0000 0000 0000 0000 0000 0000 0000 0000
00000010: 0000 0000 0000 0000 0000 0000 0000 0000
00000020: 0000 0000 0000 0000 0000 0000 0000 0000
00000030: 0000 0000 0000 0000 0000 0000 0000 0000
00000040: 0000 0000 0000 0000 0000 0000 0000 0000
00000050: 0000 0000 0000 0000 0000 0000 0000 0000
00000060: 0000 0000 0000 0000 0000 0000 0000 0000
00000070: 0000 0000 0000 0000 0000 0000 0000 0000

layer2.0.bn2.running_mean f4 [32]
0.42886692 0.0057592047 0.38865915 -0.34210524 -0.071000904 -0.014981801 0.10730514 0.038199313
-0.009661791 -0.3358402 0.5229695 0.13759215 0.24290043 0.17415729 -0.062427282 0.14051825
0.076163314 -0.07196863 -0.13259245 0.33180413 0.033924993 -0.18153013 -0.33578372 0.063406564
0.26917264 0.16989978 0.11947559 -0.38668156 0.5566885 -0.2076048 0.31870753 0.21324492
00000000: 7294 db3e b6b7 bc3b 55fe c63e 6b28 afbe
00000010: ec68 91bd 3a76 75bc ccc2 db3d e276 1c3d
00000020: 7d4c 1ebc 3ff3 abbe 54e1 053f f5e4 0c3e
00000030: e4ba 783e 4a56 323e c0b3 7fbd 04e4 0f3e
00000040: 83fb 9b3d 4a64 93bd 51c6 07be 3be2 a93e
00000050: eff4 0a3d 09e3 39be d8eb abbe 4ddb 813d
00000060: ffd0 893e 35fa 2d3e 9eaf f43d 20fb c5be
00000070: 2383 0e3f 5a96 54be a22d a33e e05c 5a3e

layer2.0.bn2.running_var f4 [32]
0.086234525 0.13776281 0.16037138 0.16865544 0.1988549 0.14012615 0.18368399 0.05207933
0.1645194 0.08063658 0.091063105 0.11325031 0.08900078 0.13573766 0.05102416 0.10287885
0.1909804 0.14226979 0.16985773 0.065042876 0.058622386 0.06441388 0.057359144 0.06700793
0.3403529 0.08297926 0.08216007 0.11147514 0.078516185 0.071161225 0.123417236 0.07384863
00000000: ba9b b03d b211 0d3e 6538 243e 03b4 2c3e
00000010: 9ea0 4b3e 3b7d 0f3e a817 3c3e 2351 553d
00000020: c677 283e cb24 a53d 4b7f ba3d c7ef e73d
00000030: 0a46 b63d d0fe 0a3e b6fe 503d 26b2 d23d
00000040: 5e90 433e 2caf 113e 2fef 2d3e 3335 853d
00000050: 071e 703d 6deb 833d 6cf1 6a3d 743b 893d
00000060: bc42 ae3e 08f1 a93d 8a43 a83d 144d e43d
00000070: 18cd a03d fabc 913d 2dc2 fc3d f33d 973d
