toy-model2/outputs/experiment2/model_2stage_pretrain.pth (torch, 3315 bytes, 4 tensors)

NN.hidden.weight f4 [32, 1]
00000000: 32b2 3b3f 1017 c13e 40e6 aebd c374 6cbe
00000010: bf1a 9fbe 0223 1cbf 353e 39bf b0d8 e0be
00000020: 233d 903f 5d9f 953f 63a0 e6be d813 8bbf
00000030: 55cc 233f ea36 7bbf 0024 62be e485 94bf
00000040: 3861 c13e 0f6c 8dbf c0fa 5d3f 76a1 683f
00000050: 4509 a03e 2d70 74bf b5ed 963f 008e 243c
00000060: d377 373f a640 743f 1001 68be 1645 82bf
00000070: 534a 893f 953e 00be da9e 85bf 1106 8fbf
0.7331878 0.37712908 -0.085400105 -0.23091416 -0.31075093 -0.6099092 -0.72360545 -0.4391532
1.1268657 1.1689259 -0.4504424 -1.0865431 0.6398366 -0.9813067 -0.22084045 -1.160336
0.37769485 -1.1048602 0.8671074 0.9087137 0.31257072 -0.95483667 1.1791292 0.010043621
0.7166721 0.95411146 -0.22656655 -1.0177333 1.0725807 -0.12523873 -1.0439103 -1.1173726

NN.hidden.bias f4 [32]
00000000: 65b4 943e 24a3 a3bd 1411 1fbf 6b3f 7b3e
00000010: d0e7 383f 5447 42bf 9694 593f 0e90 1fbf
00000020: 8cf4 d6bc 4e42 a33e 1375 6d3f 2de6 de3e
00000030: 7d3a a73d 6eb1 583d 608a a2be ac18 383f
00000040: 4d18 f33e 18ad b53e b541 09bf 67ce e7be
00000050: 99ac 1d3f cc40 7c3e 024f d5bd f04c 01be
00000060: 7889 283f 76b6 f3bd 8c22 bebe 937b 1c3d
00000070: fc8c 2b3f 71d4 bd3e f7f4 00bf ecd9 3e3e
0.2904388 -0.07990101 -0.62135434 0.24535911 0.7222872 -0.7589009 0.8499235 -0.62329185
-0.026239656 0.31886524 0.92756766 0.43534985 0.08165453 0.052903585 -0.31746197 0.71912646
0.47479478 0.35483623 -0.53615886 -0.4527466 0.6159149 0.24634093 -0.1041546 -0.12627006
0.6583476 -0.11900036 -0.37135732 0.038203787 0.67012 0.37076142 -0.50373787 0.18637818

NN.output.weight f4 [10, 32]
00000000: e888 94bd f101 82bd b42c 8f3b abea 763f
00000010: 59ae babc dddf 8b3d c47a 493e 585f 8e3d
00000020: 5a53 493e ea4d babe 2d9e 4cbd 6960 bfbc
00000030: 67d3 47be a4a4 b8bd ce79 1fbd a602 58be
00000040: 9f4f d6bd 76ee dbbd ed80 3d3f b593 153a
00000050: e536 99bd a5b3 65bd e9d2 da3e a005 50bb
00000060: 82ff fdbc 5191 5f3e 1821 28be b814 9b3d
00000070: f356 a1be b444 a43e 52cb fbbd 40e0 093d
00000080: 8373 f53d beb0 383e 9d5d f03d 4339 b7bf
00000090: 307f d13e ee62 f83b 9fd1 8e3e 0021 c2bd
000000a0: b4d0 97be 4718 33bd 107f 763e 362b bdbd
000000b0: 11c4 443d ee0e f43e e70f c33d dcdb e83e
000000c0: 2a6a 433e efc7 6a3c f82d e33e c498 2a3e
000000d0: fe2c 563e 4d8b 4b3b d2ee 2d3e 1fc0 063e
000000e0: 34ad 67be 9e6b 923b 73d2 25ba 3de5 27bc
000000f0: fd5e 64bd 80af 8f3e 908b 333e 891d dbbd
00000100: 10d4 c5bd f3a2 49be 39b6 5d3d fa5e f7be
00000110: 7ebc 8bbe 287e a33d 2a41 58be a711 a93b
00000120: c2f3 2abe 53cf 95bd 7e5a 37be 61d5 3e3e
00000130: 4171 043c 1e45 a0be 7a24 8cbb 690f bcbe
00000140: 0a24 63bd 38ca e3bd c4be 8e3e f449 38be
00000150: a97f fdbd e0d0 e4bd 7cad 20be d346 ebbd
00000160: 8271 0abe 723b b13d 6398 24be 94a4 e0be
00000170: 8c25 0dbe 363a 8fbe a980 d1be 3712 da3d
00000180: 4431 033e e4b9 2fbe 6829 263e 5c6d d8bf
00000190: b72c 123e a9e9 0c3e bbf6 ae3e 1042 00be
000001a0: 6076 e0bd f507 fc3d 0191 653e 904d 1cbe
000001b0: 2861 0b3e 3de7 eabd ab15 acbd ebaa 44be
000001c0: 7e7a 96bc b795 8ebd 3c6b c6be f235 32bd
000001d0: 89fb b3bd c718 223d 284f 523e 2a70 b9bd
000001e0: 8df9 d9bd 82ef ab3d e5d6 a4bd fa8d 83be
000001f0: 64f2 f8bd 0041 323e ad3f 093f 43fe 3f3d
00000200: 95e9 4e3e 44f1 a33d 9e12 f2bd d1ce de3f
00000210: 6e57 aabd 8643 34be c3fb 26be 03d7 b83c
00000220: 18ea 0b3e 9ea1 debd 1f39 14be 256e 2dbe
00000230: b60d c8bd 38fe bdbd 8da1 d53d b554 d13d
00000240: 6277 ecbd ad77 ac3d bed8 d43e d0b3 4c3e
00000250: cb69 1e3d 6921 a13d c91f 46bd 8bdc b2bd
00000260: 2b37 01be 42a0 163d 748f 1e3e 2338 d7bd
00000270: e7f4 4fbe a22e ec38 12d4 2abe 23c7 2fba
00000280: 9be0 bcbd 9728 4f3c 9e0d cb3d abec cfbf
00000290: 6b0a e3bd 7669 843d 2b4f 86bd 0555 bdbd
000002a0: e93a 833e 4052 0abe 96c8 62be 8548 443d
000002b0: dcb2 47be 644e f33e a619 a1bd ff93 1839
000002c0: b25d 9dbe 1f96 183e 3b7f 4abd 13a8 053d
000002d0: 591b 0ebe 8495 2d3e 1538 163e b6ba 7ebc
000002e0: af3c 08bd 1b7f 07be 82b0 2d3e 981b 68bd
000002f0: 7bf0 85be 0a67 26bd 54a2 a5be f438 3fbd
00000300: 0dea 513e 8e05 f7bd 6c57 32be e783 00c0
00000310: 8812 d2bc 9a9a dd3c 812f e53d f160 973d
00000320: d501 f5bd 8a2f 293d 8d96 dbbc c1b9 923c
00000330: 213f 3d3e e062 a6be 2f8c 31bd f281 14be
00000340: dde3 00be ac0e c83d 9e0f 713d 8617 16bd
00000350: 1bac d4bd c4eb 253d fa6c 8d3d 0351 233d
00000360: a990 2bbe 5141 c9be 6586 dbbd 2833 333d
00000370: d9e8 45be 1b6c ccbc 6a56 47bd c27b 303c
00000380: df2f 9f3d 397a 76be 6d81 0b3e b2d4 9bbf
00000390: 33ab e93c 807e 003e 7bae 363e 58c5 b23d
000003a0: 4840 55bc 9cf6 0c3e dffc 9c3e b4b1 dc3d
000003b0: 1349 4c3d 4c8e dfbe 28a3 bb3d 33dc 25bd
000003c0: bc62 be3d 0930 833d 6121 3abe e291 01be
000003d0: a95c 043e d337 3ebb bb29 89bb 3337 9ebd
000003e0: 9994 873d 7c87 b8bd 0af7 213e eac4 b9be
000003f0: 9a63 9ebd 0149 993d 89e8 c83e 1f91 abbe
-0.07252675 -0.063480265 0.0043693427 0.96451825 -0.022788214 0.06829808 0.19675738 0.06951779
0.19660702 -0.3638757 -0.049955536 -0.023361402 -0.19514237 -0.09015778 -0.03893452 -0.2109476
-0.10464405 -0.10738842 0.7402485 0.0005705909 -0.074811734 -0.056079526 0.42739037 -0.0031741634
-0.031005625 0.21832778 -0.16418874 0.07572311 -0.3151165 0.32083666 -0.1229464 0.033661127
0.11984923 0.18036172 0.11736605 -1.431435 0.4091735 0.0075801527 0.27894303 -0.094789505
-0.29651415 -0.043724325 0.24071908 -0.092367575 0.048038546 0.4766764 0.095245175 0.4548024
0.19083467 0.014329894 0.4437101 0.16659838 0.209156 0.0031058372 0.16985634 0.13159226
-0.22624665 0.0044683954 -0.000632561 -0.010247526 -0.05575465 0.28063583 0.17533708 -0.10698993
-0.09659588 -0.19691066 0.05412886 -0.4831465 -0.27292246 0.07983047 -0.21118608 0.005159575
-0.16694549 -0.073149346 -0.17905614 0.18636085 0.008083642 -0.31302732 -0.0042768093 -0.36730507
-0.05545429 -0.111225545 0.27879918 -0.17996961 -0.12377865 -0.11172652 -0.15691179 -0.11488118
-0.13519862 0.086539164 -0.16073756 -0.43875563 -0.13783854 -0.279741 -0.40918472 0.106480055
0.12811762 -0.17160755 0.16226733 -1.6908374 0.1427487 0.1376101 0.34172615 -0.12525201
-0.10960078 0.12306205 0.22418596 -0.15263963 0.13611281 -0.114698865 -0.0840257 -0.19205825
-0.018368956 -0.069621496 -0.38753688 -0.043508478 -0.08788211 0.03957441 0.20538008 -0.09054597
-0.10643301 0.08395292 -0.080488004 -0.25694257 -0.12155607 0.17407608 0.53612787 0.046873342
0.20206292 0.08005002 -0.11819957 1.7406865 -0.08317457 -0.17603883 -0.16306977 0.022563463
0.13663518 -0.1087067 -0.14474915 -0.16936548 -0.0976824 -0.09277004 0.10431204 0.10221235
-0.11546208 0.08421264 0.4157161 0.19990468 0.03867511 0.078677006 -0.048370156 -0.087334715
-0.12618701 0.036773928 0.1548441 -0.10508754 -0.20308267 0.00011262043 -0.16682461 -0.0006705394
-0.092225276 0.012643955 0.09914707 -1.62441 -0.110859714 0.064654276 -0.06558069 -0.09244732
0.25630882 -0.13507938 -0.2214683 0.047920723 -0.19501823 0.47520745 -0.0786622 0.00014550982
-0.30735546 0.14901017 -0.049437743 0.03263099 -0.1387762 0.16951567 0.14669831 -0.015547445
-0.033260997 -0.1323208 0.16961864 -0.05666694 -0.26160035 -0.04062561 -0.3235041 -0.046685174
0.2049944 -0.12061606 -0.17416161 -2.0080507 -0.025643602 0.027051259 0.11190701 0.07391537
-0.1196324 0.041305102 -0.026805187 0.01791084 0.18481113 -0.3249731 -0.04334658 -0.14502695
-0.12586923 0.097684234 0.058852784 -0.036643527 -0.10384389 0.040508047 0.06905551 0.03987218
-0.16754402 -0.39307645 -0.10718993 0.04374996 -0.19327106 -0.024953892 -0.048666395 0.010771694
0.077728026 -0.24070062 0.13623591 -1.2174284 0.028524017 0.12548256 0.17839997 0.087290466
-0.013015814 0.13765949 0.30661675 0.10776082 0.049874377 -0.4366325 0.09161979 -0.0404932
0.09296176 0.06405646 -0.18176796 -0.12653306 0.12925972 -0.0029024973 -0.004185883 -0.07725372
0.0662014 -0.090102166 0.15816894 -0.36283046 -0.07733841 0.074846275 0.3923991 -0.33509156

NN.output.bias f4 [10]
00000000: 5aaf 313e 75aa 663d ac7e 6dbe 74e3 9c3d
00000010: 12e3 e3ba 5751 78be 3da1 613e 2d1b ac3e
00000020: d25a 6bbe 9ca5 9ebe
0.17352048 0.056314904 -0.23192853 0.07660571 -0.0017386398 -0.24249779 0.22034164 0.33614483
-0.22983864 -0.30985725
