toy-model2/model_2stagepretrain.pth (torch, 3309 bytes, 4 tensors)

NN.hidden.weight f4 [32, 1]
0	0x3f750761	0.95714384
1	0xbf389ca2	-0.72114
2	0xbf461215	-0.7737134
3	0xbf2c8cb6	-0.6740221
4	0x3dc19210	0.09451687
5	0x3cc1c140	0.02365172
6	0xbf6d2b99	-0.9264465
7	0x3f0aeb85	0.54265624
8	0x3f4f8b50	0.8107195
9	0xbf5b04ca	-0.8555418
10	0xbf2c9e63	-0.6742918
11	0xbf1cb783	-0.61217517
12	0xbf64f7b2	-0.89440453
13	0x3cfa2280	0.030534029
14	0xbeabefaf	-0.33581302
15	0x3f405cbb	0.75141495
16	0x3f7408d2	0.9532596
17	0xbf5e5511	-0.8684855
18	0xbf2ca1c5	-0.6743434
19	0xbf24511b	-0.6418626
20	0xbf4db021	-0.80346876
21	0xbe0a6868	-0.1351639
22	0xbe26d405	-0.16291817
23	0xbfb58f2a	-1.4184315
24	0xbcef84c0	-0.029238105
25	0xbeaf15ce	-0.34196323
26	0xbeb2e6f8	-0.3494184
27	0x3ee488cc	0.44635618
28	0xbee16fb9	-0.4403055
29	0x3f481f7b	0.78173035
30	0x3f196836	0.5992464
31	0x3f431aa1	0.7621251

NN.hidden.bias f4 [32]
0	0x3ed7621f	0.42067048
1	0x3ec31f6d	0.38109913
2	0xbe75ff4f	-0.24023174
3	0x3f2eca14	0.68277097
4	0xbe6fdba8	-0.23423636
5	0xbdb63a90	-0.08897889
6	0x3cd89595	0.026438514
7	0x3f365e83	0.71237963
8	0x3f479ba0	0.7797184
9	0x3e4ebc72	0.20189074
10	0x3f1513a1	0.58233076
11	0xbecb4250	-0.3969903
12	0xbd8029c1	-0.06257964
13	0xbf5b215a	-0.85597765
14	0xbe010a83	-0.12601666
15	0xbe27bb31	-0.16380002
16	0x3fa5f596	1.2965572
17	0xbd9dc2cf	-0.077031724
18	0x3f11c5f0	0.56942654
19	0xbd22b385	-0.039721984
20	0x3ed9530d	0.42446175
21	0xbf0be79c	-0.5465028
22	0xbdf1f9d6	-0.118152305
23	0x3f05c60f	0.5225534
24	0xbe5f9c08	-0.21836865
25	0xbe048661	-0.12941886
26	0xbf6c8b8a	-0.9240042
27	0xbf4ec0a6	-0.8076271
28	0xbe79e812	-0.24404934
29	0x3e2b79dd	0.16745706
30	0xbf57ddee	-0.8432301
31	0x3f3eb2a2	0.7449132

NN.output.weight f4 [10, 32]
0	0xbe17f60c	-0.14839953
1	0x3e0416c3	0.12899308
2	0x3eb5afdb	0.3548573
3	0x3e37eb24	0.17960793
4	0x3de3c370	0.11121261
5	0xbd04f742	-0.032462366
6	0xbdc41a79	-0.09575362
7	0xbe43a97d	-0.19107623
8	0xbc3d22d0	-0.0115439445
9	0x3d156a95	0.036478598
10	0xbc25c47b	-0.010117645
11	0xbf3033c5	-0.68828994
12	0xbd49b277	-0.049242463
13	0x3e152e1b	0.14568369
14	0x3e1db80f	0.15402244
15	0xbc958a43	-0.018254405
16	0xbdbde43e	-0.09272049
17	0x3d2fdb63	0.042933833
18	0xbe76cfc5	-0.24102695
19	0x3d15a1c1	0.036531214
20	0x3d4775d5	0.048696358
21	0x3d20dbd2	0.039272137
22	0xbecfa2ca	-0.40553886
23	0x3df7617b	0.1207914
24	0x3d0fc685	0.035101432
25	0x3e285a9f	0.16440819
26	0xbca5b115	-0.02022604
27	0x3c92ebb7	0.017934663
28	0xbd8616b4	-0.06547299
29	0x3def1ba2	0.116751924
30	0x3e1cd9f5	0.15317519
31	0x38b2c792	8.524874e-05
32	0x3d1e99bb	0.038720828
33	0xbc85bc93	-0.01632527
34	0xbe66a8c9	-0.22525324
35	0xbdb99416	-0.09061448
36	0xbe29f839	-0.16598596
37	0xbe0181da	-0.1264719
38	0x3d918941	0.07106257
39	0x3de0d65d	0.109783866
40	0x3dc5ee56	0.096645996
41	0xbe8ce5cd	-0.27519074
42	0xbe5e03df	-0.21681164
43	0xbf1a0400	-0.60162354
44	0x3db8e0de	0.09027265
45	0x3dbe5873	0.09294214
46	0xbdb8306e	-0.08993612
47	0xbc2a4a80	-0.010393739
48	0x3e9d83eb	0.30764708
49	0x3e4f3add	0.20237298
50	0xbe0fce46	-0.14043531
51	0xbd61ee3a	-0.05515883
52	0xbe3b357e	-0.18282124
53	0xbda17d76	-0.07885258
54	0xbe8fda78	-0.28096366
55	0xbeb77524	-0.3583156
56	0xbe25e064	-0.1619888
57	0xbd80031b	-0.06250592
58	0x3e1c3e88	0.15258229
59	0x3deda281	0.11603261
60	0xbedf01fb	-0.43556198
61	0x3da4060b	0.08008965
62	0xbdba0232	-0.0908245
63	0x3dfef663	0.12449338
64	0x3f3457ff	0.7044677
65	0x3d570b12	0.05250079
66	0xbe59a8bf	-0.21255778
67	0x3d01ec87	0.03171971
68	0x3d0e522f	0.034746345
69	0xbe027102	-0.12738422
70	0xbd898b26	-0.067159936
71	0x3e9b9f1e	0.30394834
72	0x3e05f6cc	0.13082427
73	0xbebe3c8d	-0.37155572
74	0xbe4f5f9c	-0.20251316
75	0xbb9790d6	-0.00462542
76	0xbe8f2436	-0.27957314
77	0x3de43c0e	0.11144267
78	0xbd869290	-0.06570923
79	0x3dafbd4c	0.085810274
80	0x3e851a42	0.25996596
81	0xbe883bdb	-0.26608166
82	0xbe96ab7f	-0.29427716
83	0xbf07cfc8	-0.53051424
84	0xbdaa919e	-0.083285555
85	0xbcdedc34	-0.02720461
86	0xbe5bdb78	-0.2147044
87	0xbe1a4b24	-0.15067726
88	0x3db24953	0.08705392
89	0xbcf9438e	-0.03042772
90	0xbdfc5d9e	-0.123225436
91	0xbde80213	-0.113285206
92	0x3d3b936d	0.045794893
93	0xbdd68478	-0.10474485
94	0xbd90b5bc	-0.07065913
95	0xbd697af6	-0.05700203
96	0x3f037d7b	0.51363343
97	0x3bbfb2f6	0.005850191
98	0xbd5f0210	-0.054445326
99	0x3e9d974b	0.3077949
100	0x3db9f1d2	0.09079327
101	0x3c0fda79	0.008780115
102	0x3d23f0d6	0.0400246
103	0xbecad557	-0.3961589
104	0xbedf9c6e	-0.43674034
105	0x3eb70e8a	0.3575328
106	0x3ed201f5	0.41017118
107	0xbe6d0712	-0.23147228
108	0x3dd8f5d1	0.10593761
109	0x3d9a89e8	0.07545835
110	0x3d89bb22	0.06725146
111	0xbdffef76	-0.124968454
112	0xbea43ad7	-0.3207614
113	0x3c187985	0.009306316
114	0xbe21d970	-0.15805602
115	0x3ee13030	0.43982077
116	0x3e8dd54f	0.27701804
117	0xbe163f32	-0.14672545
118	0x3e32e4db	0.17470114
119	0x3ee8ae91	0.45445684
120	0xbd5a546a	-0.05330316
121	0xbbd69d90	-0.0065495446
122	0xbe0b2de8	-0.1359173
123	0x3e036c98	0.12834394
124	0xbd0ae064	-0.0339054
125	0xbe3c1dfc	-0.18370813
126	0x3d3e392f	0.046441253
127	0xbe9d1c5a	-0.30685693
128	0x3e1ce850	0.15322995
129	0xbcb5f4f7	-0.022211535
130	0x3e686101	0.22693254
131	0x3cd6000e	0.026123073
132	0xbc281372	-0.010258542
133	0xbdcf482d	-0.10121188
134	0xbe283189	-0.16425146
135	0xbeb94b41	-0.36190227
136	0xbe2d4fb7	-0.1692494
137	0xbe8b3cba	-0.27194768
138	0x3ea20c36	0.3164994
139	0x3e2145cc	0.15749282
140	0x3d63a894	0.05558069
141	0x3d9f1c58	0.07769078
142	0x3d29fe2e	0.04150217
143	0x3dcc3e12	0.099727765
144	0xbe763e1b	-0.24047129
145	0x3e13b11e	0.14423034
146	0xbebe5654	-0.37175238
147	0xbe0d2e8d	-0.13787289
148	0x3d059279	0.03261039
149	0x3de152fa	0.11002155
150	0x3ebe4372	0.37160832
151	0x3d3a0657	0.045416202
152	0x3b62e275	0.0034619842
153	0xbd8d07dc	-0.06886265
154	0xbe028722	-0.12746862
155	0xbd66604e	-0.056244187
156	0xbeb5ff14	-0.35546172
157	0xbc22569f	-0.009908347
158	0x3e0a95f6	0.13533768
159	0xbe23c7ad	-0.15994139
160	0x3de633a6	0.1124032
161	0x3dde36e0	0.1085031
162	0x3b0102b8	0.0019685458
163	0x3de9c202	0.11413957
164	0x3cad9daf	0.021193353
165	0xbccb9570	-0.02485153
166	0xbe34a3c2	-0.17640594
167	0xbede33ce	-0.433989
168	0xbece1414	-0.40249693
169	0x3e310e7a	0.17290679
170	0x3e6e91b9	0.23297776
171	0x3d66a12e	0.056306057
172	0xba8465f8	-0.001010119
173	0xbe1ae841	-0.1512766
174	0xbdcab62f	-0.0989803
175	0xbdd4a966	-0.10383873
176	0xbebbea37	-0.3670213
177	0x3e42cf60	0.1902442
178	0x3d5cf251	0.05394203
179	0x3dec2118	0.1152975
180	0xb9133833	-0.00014039948
181	0x3e1197dc	0.14218086
182	0xbe8e9cee	-0.27854103
183	0x3da515a4	0.08060768
184	0xbe2c6032	-0.1683357
185	0xbe18129d	-0.1485085
186	0x3c884be0	0.016637743
187	0x3d962678	0.07331556
188	0x3ec008a6	0.37506598
189	0x3daf8e47	0.08572059
190	0xbdae9d04	-0.08526042
191	0xbec2b2a6	-0.38026923
192	0x3e047849	0.1293651
193	0x3d947afd	0.07250021
194	0x3e021e53	0.1270688
195	0xbeb27c77	-0.34860584
196	0x3df134a1	0.11777616
197	0x3e0d9add	0.13828607
198	0x3d4f6984	0.050637737
199	0x3e9019f0	0.2814479
200	0x3ee2da6d	0.4430727
201	0xbe9ede73	-0.3102909
202	0xbe45c04d	-0.19311638
203	0xbe973a10	-0.29536486
204	0x3de97e7d	0.11401079
205	0xbe1c59f5	-0.15268691
206	0x3e06e5b2	0.1317356
207	0x3dec23ca	0.11530264
208	0x3eb3019f	0.34962174
209	0x3d96b95b	0.073595725
210	0x3e8835d3	0.26603565
211	0x3d76b15b	0.060227733
212	0xbed54db7	-0.41660854
213	0xbe27fc9c	-0.16404957
214	0xbbf5b1d3	-0.007498005
215	0xbe2e9c8f	-0.1705191
216	0x3bc8ee4e	0.0061319238
217	0x3db9a973	0.09065523
218	0x3dacdf24	0.08440998
219	0xbe24d58c	-0.16097087
220	0x3e86187e	0.2619056
221	0x3c045dd5	0.008079012
222	0x3e33fca5	0.17576845
223	0x3e9a885d	0.30182162
224	0xbeb6c1e6	-0.35694808
225	0x3e42e285	0.19031723
226	0xbe81933c	-0.25307643
227	0x3d9261ef	0.071475856
228	0x3d81849d	0.06324122
229	0x3d199608	0.037496597
230	0xbdb74144	-0.08947995
231	0xbe263cab	-0.1623408
232	0x3da7b8e9	0.08189566
233	0xbdf39fd8	-0.11895722
234	0xbde13345	-0.10996107
235	0xbda515c3	-0.08060791
236	0xbe6f26d0	-0.2335465
237	0x3e289852	0.16464356
238	0x3e59cf36	0.21270451
239	0x3df810e8	0.121125996
240	0xbe6f3837	-0.23361288
241	0x3d417550	0.04723102
242	0xbec02ba8	-0.37533307
243	0xbe86faa3	-0.26363096
244	0xbd933977	-0.07188695
245	0x3e059da6	0.1304842
246	0x3db9a05d	0.0906379
247	0xbe3b9870	-0.18319869
248	0x3e04e554	0.12978107
249	0xbd543829	-0.05181137
250	0xbd28ca74	-0.0412087
251	0xbdd13258	-0.102146804
252	0xbc811f1f	-0.01576191
253	0xbd94b529	-0.07261116
254	0xbdf0f443	-0.11765339
255	0xbca20887	-0.019779457

NN.output.bias f4 [10]
0	0x3dcfdd31	0.10149611
1	0x3c870b50	0.016484886
2	0xbdd7adfc	-0.10531232
3	0x3d80503a	0.06265302
4	0x3d5b765d	0.053579677
5	0xbedd0d77	-0.43174335
6	0xbddc2323	-0.10748889
7	0x3d191314	0.03737171
8	0x3eb0c1ab	0.34522757
9	0xbdf91632	-0.121624365
