sensor_case/outputs/experiment1/resnet_model.pth (torch, 148679 bytes, 92 tensors)

layer1.0.fc1.weight f4 [16, 5]
0	0xbe2fe60a	-0.17177597
1	0xbe0b103c	-0.13580412
2	0x3e5e5295	0.2171119
3	0x3d48d96a	0.049035467
4	0xbe0f03a7	-0.13966237
5	0xbe4695a4	-0.19393021
6	0x3ef91db5	0.48655477
7	0x3e90f77e	0.28313822
8	0xbea171c3	-0.31532106
9	0x3e9d3e67	0.30711672
10	0xbea50193	-0.32227764
11	0xbd98d336	-0.0746216
12	0xbdad624e	-0.08466016
13	0xbee25a8d	-0.4420971
14	0xbdb5289e	-0.08845638
15	0x3c80c66c	0.015719615
16	0xbde44ce3	-0.111474775
17	0x3e6f3706	0.23360834
18	0xbd27eb4a	-0.040995874
19	0x3e38f99e	0.18063971
20	0x3e4175f1	0.18892647
21	0x3e17a3c4	0.14808565
22	0x3d6f63b2	0.058444686
23	0xbef40a22	-0.4766398
24	0x3e48d1af	0.19611238
25	0xbe500656	-0.20314917
26	0x3e163af4	0.14670926
27	0x3e6eb6e6	0.23311958
28	0x3ebd24cf	0.36942145
29	0x3d75c54f	0.06000262
30	0x3e679ad1	0.22617652
31	0x3dab6128	0.083681405
32	0xbb8d6933	-0.0043155192
33	0x3e851411	0.25991872
34	0xbed398d7	-0.41327545
35	0x3ea9a1cd	0.33131257
36	0x3d313795	0.043265898
37	0xbeff4e66	-0.498645
38	0x3d9dda7a	0.07707687
39	0xbe7875e5	-0.24263723
40	0x3e239814	0.15975982
41	0x3e696ed3	0.22796182
42	0x3e8037f0	0.25042677
43	0x3c44e7ce	0.012018157
44	0x3e18d843	0.14926247
45	0xbe632912	-0.22183636
46	0x3e67a2a9	0.22620644
47	0x3d5e00d0	0.054199994
48	0x3e1ca43f	0.1529703
49	0x3df5120e	0.11966334
50	0x3e6989c6	0.22806463
51	0xbcf7ad6f	-0.030234067
52	0x3d697e46	0.05700519
53	0xbec656b7	-0.38738033
54	0x3e95bf51	0.29247525
55	0x3e452408	0.19252026
56	0x3f0e9f82	0.5571214
57	0xbc5c8f96	-0.013461968
58	0x3cd8ee76	0.026480895
59	0xbedbab29	-0.42904022
60	0xbea04257	-0.31300613
61	0xbe8189e4	-0.25300515
62	0xbeb9d546	-0.36295527
63	0x3d900020	0.07031274
64	0x3e26aacb	0.1627609
65	0x3ea597b2	0.32342297
66	0x3e8952e7	0.26821062
67	0xbee5c89c	-0.44879615
68	0x3e839905	0.25702682
69	0x3d790980	0.060800076
70	0xbedc96e2	-0.43083864
71	0x3d428ded	0.047498632
72	0xbe9a1907	-0.3009722
73	0x3e27c166	0.1638237
74	0x3e5a6cb6	0.21330532
75	0xbe1db6e5	-0.154018
76	0x3e9ef007	0.310425
77	0x3c923536	0.017847639
78	0x3eed3d67	0.4633591
79	0xbd5e9e05	-0.054349918

layer1.0.fc1.bias f4 [16]
0	0xbe96a2a9	-0.29420975
1	0xbeaedb39	-0.3415163
2	0x3f0078e2	0.5018445
3	0x3e531e01	0.20616914
4	0xbea83253	-0.32850894
5	0xbeb0d1b3	-0.34534988
6	0xbee68d58	-0.45029712
7	0x3dc4bb70	0.09606063
8	0xbeb252e2	-0.3482886
9	0xbdac803b	-0.084228955
10	0x3db41fa9	0.08795101
11	0xbddea286	-0.10870843
12	0xbf10b34e	-0.565236
13	0xbd670dab	-0.05640952
14	0xbe88e794	-0.2673918
15	0xbecaf1c3	-0.39637575

layer1.0.bn1.weight f4 [16]
0	0x3f803cae	1.0018518
1	0x3f5e9109	0.86940056
2	0x3f8b9796	1.0905635
3	0x3f62f38a	0.8865286
4	0x3f8ef587	1.1168679
5	0x3f7fe253	0.9995472
6	0x3f772176	0.9653543
7	0x3f9f604c	1.2451262
8	0x3f7236a4	0.94614625
9	0x3f59f33e	0.85136783
10	0x3f8442a8	1.0332842
11	0x3f8036bf	1.0016707
12	0x3f8665cb	1.0499815
13	0x3f6e62b1	0.9311934
14	0x3f72560d	0.94662553
15	0x3f87d175	1.0610796

layer1.0.bn1.bias f4 [16]
0	0x3dc2a192	0.09503473
1	0x3e243e55	0.16039403
2	0x3e3bf9d4	0.1835702
3	0xbddda924	-0.10823277
4	0x3d0819d9	0.033227775
5	0x3d856a02	0.0651436
6	0x3d355194	0.044267252
7	0xbaf17c84	-0.0018423949
8	0xbc96f665	-0.018428037
9	0xbe31a45f	-0.17347859
10	0xbe0f7a6f	-0.14011548
11	0xbe070f7d	-0.13189502
12	0x3de274e0	0.110574484
13	0xbd46f4da	-0.048573352
14	0xbe10dbcd	-0.14146347
15	0xbe37a57e	-0.17934224

layer1.0.bn1.running_mean f4 [16]
0	0xbef7177b	-0.48260102
1	0xbf089ff5	-0.53369075
2	0x3e3a8f92	0.1821883
3	0x3e5ccc5f	0.21562336
4	0xbe07c2a2	-0.1325784
5	0xbf0ef36a	-0.5584017
6	0xbe73b3e7	-0.23799096
7	0x3ee3418f	0.44385955
8	0xbe46b079	-0.19403256
9	0xbe9b6dfa	-0.30357343
10	0x3ea611c1	0.3243542
11	0x3d9970b3	0.07492199
12	0xbf5b8729	-0.85753113
13	0x3e959103	0.29212198
14	0xbf2d4203	-0.6767885
15	0xbf0d73d4	-0.55254865

layer1.0.bn1.running_var f4 [16]
0	0x3db0ed15	0.0863897
1	0x3ef63dcd	0.48094025
2	0x3e64820d	0.22315235
3	0x3dc7b15f	0.09750628
4	0x3e90da2b	0.2829145
5	0x3e61c4c9	0.22047724
6	0x3e6f51de	0.23371074
7	0x3e987f53	0.2978464
8	0x3e051c09	0.12998976
9	0x3dbf97ff	0.09355163
10	0x3e6c9ef0	0.23107505
11	0x3ef9be7a	0.48778135
12	0x3e5b79ed	0.2143323
13	0x3eadef83	0.33971795
14	0x3e24efff	0.16107176
15	0x3ea4ab92	0.32162148

layer1.0.fc2.weight f4 [16, 16]
0	0x3e226271	0.15857865
1	0xbdd1f612	-0.10252012
2	0x3e3daed2	0.1852372
3	0xbd991ec5	-0.07476572
4	0xbe1332ce	-0.14374849
5	0xbd89bfac	-0.06726012
6	0x3e02fd71	0.12791993
7	0x3e8b8170	0.2724719
8	0xbec73a02	-0.38911444
9	0x3d5a466c	0.053289816
10	0xbd1aa905	-0.037758846
11	0xbd7ec1e7	-0.06219664
12	0xbe811ed9	-0.25218847
13	0x3e6eb589	0.23311438
14	0x3d39bf2e	0.04534834
15	0xbdcb033f	-0.099127285
16	0x3c47aef4	0.012187708
17	0xbdeae7f8	-0.11470026
18	0x3d63179d	0.05544244
19	0xbcb46b4b	-0.022023818
20	0x3e529bd0	0.2056725
21	0x3cb732ea	0.022363145
22	0xbe6c59a9	-0.23081078
23	0xbe91c748	-0.28472352
24	0xbe44de1a	-0.1922535
25	0x3e56d357	0.20979057
26	0x3eb60b0d	0.35555306
27	0x3d43f734	0.047843173
28	0x3d97662c	0.073925346
29	0xbb98fd4a	-0.0046688663
30	0x3dca612d	0.09881816
31	0xbdb7387f	-0.08946323
32	0xbe24e20e	-0.16101858
33	0x3e56f0cf	0.20990299
34	0xbdcb75de	-0.09934591
35	0x3e7ccc30	0.24687266
36	0x3d5b764c	0.053579614
37	0x3e2247d3	0.15847711
38	0xbe2d759e	-0.16939399
39	0xbcdbc9b0	-0.02682957
40	0x3d87064e	0.065929994
41	0x3ddc5d45	0.10759977
42	0x3e7a138c	0.24421519
43	0xbebceaf8	-0.36898017
44	0x3db37f6b	0.087645374
45	0xbaad5542	-0.0013224261
46	0x3d0fb1b3	0.035081577
47	0x3d11e668	0.035620123
48	0xbdd9717d	-0.10617349
49	0x3df11f6b	0.117735706
50	0x3d3a9048	0.045547754
51	0xbe4e5523	-0.20149665
52	0x3e189732	0.14901426
53	0xbe021fa1	-0.12707378
54	0x3e28e688	0.1649419
55	0xbe66f140	-0.22552967
56	0x3dac722a	0.084202126
57	0x3e3e91ac	0.18610257
58	0xbe568758	-0.20950067
59	0x3e943851	0.28949216
60	0x3c6917c6	0.014226859
61	0xbd8d5179	-0.06900305
62	0x3db668d8	0.08906716
63	0x3e4373ca	0.19087139
64	0xbd724540	-0.059148073
65	0xbd4a0fda	-0.049331523
66	0x3dc662b2	0.096867934
67	0x3e5feba5	0.21867235
68	0x3eda9028	0.42688107
69	0xbdcde6f1	-0.10053814
70	0x3d7af03c	0.06126426
71	0x3e3f3a97	0.18674694
72	0xbd33824b	-0.04382543
73	0x3dd85b96	0.10564344
74	0xbc66c84e	-0.014085842
75	0xbe3fd517	-0.18733631
76	0xbe0c6abe	-0.13712594
77	0xbe2a4b5f	-0.16630314
78	0xbc9ae947	-0.018910063
79	0xbdcd6318	-0.10028666
80	0x3e8301a7	0.25587198
81	0x3e0adbc5	0.13560398
82	0xbe60db70	-0.21958709
83	0xbd33adf5	-0.04386707
84	0x3dab82b8	0.08374542
85	0xbcd3035e	-0.025758442
86	0xbd3c230f	-0.045931872
87	0x3e836dba	0.25669652
88	0x3cba8932	0.022770498
89	0xbd0b83b0	-0.034061134
90	0xbe86f43f	-0.2635822
91	0xbe571925	-0.21005686
92	0xbe508f20	-0.20367098
93	0x3e7d4e65	0.24736936
94	0xbd96e77c	-0.07368371
95	0xbecaadc1	-0.3958569
96	0xbddbb183	-0.10727217
97	0xbdb6f896	-0.08934133
98	0x3e80e3d4	0.2517382
99	0x3ded89df	0.115985624
100	0x3da191ce	0.07889138
101	0x3e6e4927	0.23270093
102	0xbe53deb4	-0.20690423
103	0x3e274f97	0.16338955
104	0x3d0ef272	0.034899183
105	0x3e5860bc	0.21130651
106	0x3e37d1b9	0.17951097
107	0xbe017754	-0.12643176
108	0xbb995fcc	-0.0046806093
109	0x3ce7705a	0.028251816
110	0x3d94ce47	0.07265907
111	0x3e9c7857	0.30560562
112	0x3d9d80b4	0.07690564
113	0x3e4e2706	0.20132074
114	0xbe326504	-0.17421347
115	0xbdc0f9f7	-0.09422677
116	0xbe5d4f1f	-0.21612214
117	0x3e92b904	0.2865678
118	0xbe149852	-0.1451123
119	0xbecfcf66	-0.4058792
120	0xbd327abc	-0.04357408
121	0x3e135eea	0.14391676
122	0xbe66dda3	-0.22545485
123	0x3d87ba07	0.06627279
124	0x3d59eeb6	0.053206168
125	0xbe7292fc	-0.23688883
126	0x3df977a9	0.121810265
127	0xbe3bf8f1	-0.18356682
128	0xbe020f7f	-0.12701224
129	0x3dc59e71	0.09649361
130	0xbdc10b31	-0.09425963
131	0xbe09c797	-0.13455044
132	0xbd11a50d	-0.035557795
133	0xbd8845a4	-0.06653908
134	0xbdb80466	-0.08985214
135	0x3e832dff	0.2562103
136	0xbe4477c5	-0.19186313
137	0xbd0bfe16	-0.034177862
138	0xbc495356	-0.012287935
139	0x3c9d4814	0.019199409
140	0x3e3d50eb	0.18487899
141	0x3d92a75c	0.071608275
142	0x3e94450b	0.28958926
143	0x3dec1013	0.115265034
144	0xbd7de44c	-0.0619853
145	0xbea43384	-0.32070553
146	0xbe85e93c	-0.26154506
147	0x3e444f0a	0.19170776
148	0xbb2bbab8	-0.0026203822
149	0x3a826b5b	0.0009950207
150	0xbe0a3893	-0.13498144
151	0xbe3e4d6c	-0.18584222
152	0xbda48630	-0.08033407
153	0xbe0ae500	-0.13563919
154	0xbe40f293	-0.18842535
155	0xbe5a9ef6	-0.21349701
156	0x3d0f2236	0.034944735
157	0x3d69a5af	0.057042774
158	0xbe628d53	-0.22124223
159	0xbe1974e8	-0.14986002
160	0xbcb65961	-0.022259416
161	0x3e5b1d8e	0.21397993
162	0x3bdd411a	0.0067521455
163	0x3da0e194	0.078555256
164	0x3e094bf8	0.13407886
165	0xbdb6226e	-0.08893286
166	0xbe2b0d8c	-0.16704386
167	0xbbd39c18	-0.006457817
168	0xbd67d8d5	-0.05660327
169	0xbe64b923	-0.22336249
170	0xbd7e73e3	-0.062122237
171	0xbe8dbc70	-0.2768283
172	0xbdaa68b6	-0.08320753
173	0x3e12fc4a	0.14354053
174	0x3ddd63f8	0.10810083
175	0xbe8f0225	-0.27931324
176	0x3d3ef807	0.046623256
177	0x3dd7df62	0.10540654
178	0x3d127596	0.03575667
179	0x3cf0c03c	0.02938854
180	0x3e478b11	0.19486643
181	0x3e1fec7b	0.15617554
182	0x3d498536	0.049199305
183	0x3eca8fdf	0.3956289
184	0xbda035b8	-0.07822746
185	0xbc17a222	-0.009254964
186	0xbd1ccbb2	-0.038280196
187	0xbe7b66f9	-0.24551
188	0x3e9a71fe	0.30165094
189	0xbdaef404	-0.08542636
190	0x3de9602f	0.11395299
191	0xbdb1dbe2	-0.086845174
192	0xbde6608d	-0.11248884
193	0x3d38663f	0.045019384
194	0xbc8503b9	-0.016237127
195	0x3c14688e	0.009058131
196	0x3e83e383	0.25759515
197	0xbc8e7c28	-0.017393187
198	0x3de4fc9d	0.11180995
199	0xbeaf51d3	-0.34242114
200	0x3c8cad3f	0.017172454
201	0xbdba20ea	-0.09088309
202	0x3e67637b	0.22596543
203	0x3d80ea46	0.06294684
204	0xbe0561b7	-0.13025557
205	0xbdbad579	-0.09122748
206	0x3d19cbe0	0.037547946
207	0x3e15e5c7	0.14638434
208	0x3e0cbb54	0.13743335
209	0x3d897573	0.06711855
210	0xbe691834	-0.22763139
211	0xbdb703b9	-0.08936257
212	0xbe655287	-0.22394763
213	0xbd6dcad5	-0.058054764
214	0xbe3edd51	-0.18639113
215	0xbe68e631	-0.22744061
216	0xbe638fe5	-0.2222286
217	0x3d8cdde1	0.068782575
218	0xbdd86839	-0.10566754
219	0xbe0ed3bb	-0.13947956
220	0xbe3f8cf1	-0.18706109
221	0x3d3e56bd	0.04646944
222	0xbe663bdc	-0.22483772
223	0xbe724084	-0.23657423
224	0xbe891100	-0.26770782
225	0x3c967218	0.018364951
226	0x3d89251f	0.066965334
227	0x3ccd86bd	0.025088662
228	0x3d2ba3ae	0.041904144
229	0xbe89f0d9	-0.26941565
230	0x3e740f52	0.23833969
231	0x3ddf4ca9	0.10903294
232	0x3de887b2	0.11354007
233	0xbd96e7e4	-0.073684484
234	0x3eae060d	0.3398899
235	0x3e16f93d	0.14743514
236	0x3d0e012a	0.03466908
237	0x3dff77bc	0.124740094
238	0x3db93b0e	0.09044467
239	0xbdf7f546	-0.12107329
240	0xbe9d7d1b	-0.3075951
241	0x3dbec777	0.09315389
242	0x3e226c83	0.15861706
243	0x3d220fb4	0.039565757
244	0xbe9c5bd4	-0.3053881
245	0xbe2f0b9d	-0.17094274
246	0xbd823939	-0.063585706
247	0x3eb6b3cd	0.35684052
248	0xbd9dca7f	-0.07704639
249	0x3e1bf91f	0.15231751
250	0xbc975ba4	-0.018476315
251	0xbe301db4	-0.17198831
252	0x3e125183	0.14288907
253	0xbd29a08b	-0.04141287
254	0x3dcbbd8e	0.09948264
255	0x3dba69a7	0.09102183

layer1.0.fc2.bias f4 [16]
0	0xbe831faa	-0.25610095
1	0x3db1517d	0.08658121
2	0xbd818059	-0.063233085
3	0xbec300b7	-0.38086483
4	0x3df14568	0.11780816
5	0xbd8588eb	-0.06520256
6	0x3da42f56	0.08016841
7	0xbe7e3ed8	-0.2482866
8	0x3e4a9197	0.197821
9	0x3e24c0cd	0.16089173
10	0x3b57fa73	0.0032955676
11	0xbd5df181	-0.054185394
12	0x3d0439ac	0.032281563
13	0xbe051924	-0.12997872
14	0x3e193293	0.14960699
15	0xbe96330b	-0.29335818

layer1.0.bn2.weight f4 [16]
0	0x3f748739	0.95518833
1	0x3f70a7e5	0.94006187
2	0x3f83bce5	1.0292021
3	0x3f80050f	1.0001544
4	0x3f5ef602	0.8709413
5	0x3f9411d7	1.1567944
6	0x3f750788	0.95714617
7	0x3f603fee	0.8759755
8	0x3f83bc4a	1.0291836
9	0x3f861d4a	1.0477688
10	0x3f842d5d	1.0326344
11	0x3f8a4457	1.0802106
12	0x3f685ab1	0.90763384
13	0x3f875df7	1.0575551
14	0x3f8636ad	1.0485436
15	0x3f8bd7c0	1.0925217

layer1.0.bn2.bias f4 [16]
0	0xbcaad964	-0.020855613
1	0xbd54c8ed	-0.05194943
2	0xbe137c10	-0.14402795
3	0xbcfcb304	-0.03084708
4	0xbdcfa657	-0.10139149
5	0x3d855166	0.06509666
6	0xbd7310fc	-0.05934237
7	0x3d43251d	0.047642816
8	0xbd1c7259	-0.038194988
9	0x3d9b2b02	0.075765625
10	0x3d42b134	0.047532275
11	0x3baf9e78	0.005359467
12	0xbd561a40	-0.052271128
13	0x3da434c7	0.08017879
14	0x3d845d34	0.064630896
15	0x3d5fc1c6	0.054628156

layer1.0.bn2.running_mean f4 [16]
0	0xbe9223c2	-0.28542906
1	0x3dbca0cb	0.09210356
2	0x3d831065	0.063996114
3	0xbe87ef1e	-0.2654962
4	0x3e723743	0.23653893
5	0xbe5d6686	-0.21621141
6	0x3f036c8c	0.51337504
7	0xbf18c1fb	-0.5967099
8	0x3e9a87b0	0.30181646
9	0xbf04ad69	-0.518271
10	0xbe365dd4	-0.1780923
11	0x3ed034b8	0.4066522
12	0x3d069ced	0.0328645
13	0xbf5ff039	-0.87475926
14	0x3ebed061	0.37268355
15	0xbe990298	-0.2988479

layer1.0.bn2.running_var f4 [16]
0	0x3e826011	0.25463918
1	0x3e56a488	0.20961201
2	0x3e8444a7	0.25833628
3	0x3e16ce30	0.14727092
4	0x3e2ad190	0.16681504
5	0x3dce1ca5	0.10064057
6	0x3e1a4b76	0.15067849
7	0x3e8f37f0	0.27972364
8	0x3e8977ff	0.26849362
9	0x3e468a23	0.19388632
10	0x3e427417	0.18989597
11	0x3e25af44	0.1618014
12	0x3e4ef54f	0.20210765
13	0x3e3fbaf3	0.18723659
14	0x3e4e18c2	0.20126632
15	0x3e7b47ef	0.24539159

layer1.0.shortcut.0.weight f4 [16, 5]
0	0xbeea1272	-0.45717198
1	0xbe4ecf1d	-0.20196195
2	0xbd1e7cf7	-0.038693395
3	0xbed2e6c2	-0.4119168
4	0xbe2e7a90	-0.17038941
5	0x3e99387d	0.2992591
6	0xbd50369a	-0.050833322
7	0xbdc583ca	-0.096442774
8	0xbeecdc82	-0.46261984
9	0x3e855dca	0.26048118
10	0x3e899a73	0.26875648
11	0x3e9bdcd7	0.30441925
12	0x3e70b514	0.23506576
13	0xbf018d47	-0.506062
14	0xbe148535	-0.1450394
15	0xbddea642	-0.10871555
16	0xbe54dce6	-0.20787391
17	0x3e6acfcb	0.22930829
18	0xbeac2d87	-0.33628485
19	0xbd1b2e05	-0.037885685
20	0x3ebfb73d	0.37444487
21	0x3d2388cb	0.039925378
22	0xbe53bf5c	-0.20678467
23	0xbe0541be	-0.1301336
24	0x3e81253f	0.2522373
25	0xbe7f7436	-0.24946675
26	0x3e828a09	0.25495937
27	0x3e90b6ac	0.28264368
28	0xbe559782	-0.20858577
29	0x3ee9dcdf	0.45676324
30	0xbe01a725	-0.12661417
31	0xbe8fa07f	-0.28052136
32	0xbe9fb709	-0.31194332
33	0x3a45d34e	0.00075464405
34	0x3e93f8e7	0.28900835
35	0x3e3f1ffb	0.18664543
36	0xbdd5e004	-0.10443118
37	0x3ec671c0	0.3875866
38	0x3db5da3f	0.08879518
39	0xbe0929c5	-0.1339484
40	0x3e8c1b56	0.27364606
41	0xbe3348a7	-0.17508183
42	0xbd057a44	-0.032587305
43	0xbd1b35ee	-0.03789323
44	0xbec43cff	-0.38327786
45	0xbe5be0fa	-0.2147254
46	0x3e824e8a	0.25450546
47	0x3e46fd5f	0.19432591
48	0x3e946329	0.28981903
49	0xbca7fbab	-0.020505747
50	0x3eb86388	0.36013436
51	0x3ec8266a	0.39091808
52	0xbdbdf2e5	-0.09274844
53	0xbe99cdee	-0.30039924
54	0xbde8b578	-0.113627374
55	0xbe181052	-0.14849976
56	0x3eec9d2c	0.46213663
57	0x3d9dd903	0.07707407
58	0xbe87f9c0	-0.26557732
59	0xbeaac298	-0.33351588
60	0xbe46912b	-0.19391315
61	0xbe5bc64b	-0.21462362
62	0x3e2808c8	0.164096
63	0xbf06118f	-0.5237054
64	0xbd625c65	-0.055263896
65	0x3e930fe7	0.2872307
66	0x3b60a413	0.0034277483
67	0x3e091733	0.13387756
68	0x3e824fec	0.254516
69	0x3dc19e8e	0.0945407
70	0xbeaf1b30	-0.3420043
71	0x3e06ee1c	0.13176769
72	0xbecd0e2a	-0.4004987
73	0xbe9bdc1c	-0.30441368
74	0x3bf737b3	0.0075444817
75	0x3e5e32e2	0.21699098
76	0x3ec95838	0.39325118
77	0xbcafb53f	-0.02144873
78	0xbdebed04	-0.115198165
79	0x3c8dd3e7	0.017312957

layer1.0.shortcut.0.bias f4 [16]
0	0xbe0987b9	-0.1343068
1	0xbe334b37	-0.17509161
2	0x3d2ada9e	0.041712396
3	0xbe89a4d0	-0.26883554
4	0xbec8b025	-0.39196888
5	0x3d65ee30	0.056135356
6	0x3d273425	0.040821213
7	0x3eada8a4	0.33917725
8	0x3e83285a	0.25616723
9	0x3e88180e	0.26580852
10	0x3edba847	0.42901823
11	0xbe0a458a	-0.1350309
12	0xbee613ae	-0.4493689
13	0xbe19bc12	-0.1501315
14	0x3e6c9c96	0.23106608
15	0xbe7a41d9	-0.24439181

layer1.0.shortcut.1.weight f4 [16]
0	0x3f84e548	1.0382471
1	0x3f7ae1e0	0.9800091
2	0x3f61c251	0.8818713
3	0x3f680634	0.90634465
4	0x3f8dd418	1.1080351
5	0x3f81762d	1.0114189
6	0x3f7cbcde	0.9872569
7	0x3f8077bf	1.0036544
8	0x3f720d32	0.94551384
9	0x3f808f0e	1.0043657
10	0x3f7341b8	0.95022154
11	0x3f63d855	0.8900197
12	0x3f792203	0.9731752
13	0x3f7b5185	0.98171264
14	0x3f95c3aa	1.1700337
15	0x3f6bd5b3	0.92122954

layer1.0.shortcut.1.bias f4 [16]
0	0xbcaad964	-0.020855613
1	0xbd54c8ed	-0.05194943
2	0xbe137c10	-0.14402795
3	0xbcfcb304	-0.03084708
4	0xbdcfa657	-0.10139149
5	0x3d855166	0.06509666
6	0xbd7310fc	-0.05934237
7	0x3d43251d	0.047642816
8	0xbd1c7259	-0.038194988
9	0x3d9b2b02	0.075765625
10	0x3d42b134	0.047532275
11	0x3baf9e78	0.005359467
12	0xbd561a40	-0.052271128
13	0x3da434c7	0.08017879
14	0x3d845d34	0.064630896
15	0x3d5fc1c6	0.054628156

layer1.0.shortcut.1.running_mean f4 [16]
0	0xbf185337	-0.59501976
1	0x3e0e7ce7	0.13914834
2	0x3e991a4f	0.29902884
3	0xbec7d174	-0.39026988
4	0x3af2b221	0.0018516221
5	0xbe419965	-0.18906172
6	0xbd81ba66	-0.06334381
7	0x3f00492e	0.50111663
8	0x3f047a3e	0.51749027
9	0x3d2ad0d5	0.041703064
10	0x3f4b6c49	0.79462105
11	0xbe961cf2	-0.2931896
12	0xbf270f69	-0.6525789
13	0x3e07b266	0.13251647
14	0xbdb55999	-0.0885498
15	0xbcb3bdb4	-0.021941043

layer1.0.shortcut.1.running_var f4 [16]
0	0x3e7fdb8b	0.24986093
1	0x3e94578e	0.2897305
2	0x3ed491b8	0.41517425
3	0x3e5943bd	0.21217246
4	0x3df74879	0.1207437
5	0x3ebd3b8a	0.36959487
6	0x3e7d89c2	0.24759582
7	0x3e3afb89	0.18260016
8	0x3e32ecda	0.17473164
9	0x3e414d1c	0.18877071
10	0x3e8827aa	0.2659276
11	0x3eca7556	0.39542645
12	0x3eb6ef4a	0.35729438
13	0x3dc0ef76	0.094206735
14	0x3e8acf79	0.27111414
15	0x3e2bef0d	0.1679041

layer1.1.fc1.weight f4 [16, 16]
0	0x3d5faaee	0.05460637
1	0x3db82c76	0.08992855
2	0xbd9e4443	-0.07727864
3	0xbe2cd008	-0.16876233
4	0xbdd1f635	-0.102520384
5	0xbe5b9d42	-0.21446708
6	0x3ddd36bb	0.10801455
7	0xbe863cf4	-0.2621838
8	0xbe27d510	-0.1638987
9	0xbb75289f	-0.0037408245
10	0xbe872cb0	-0.2640128
11	0xbe701bac	-0.23448056
12	0x3c1ff456	0.009762844
13	0xbcf78922	-0.030216757
14	0xbe8c6a4a	-0.27424842
15	0x3e09115d	0.1338553
16	0x3e410c37	0.18852316
17	0xbe306e72	-0.17229632
18	0xbd3c77d4	-0.046012715
19	0xbd3164f2	-0.04330916
20	0xbe950a2f	-0.29109332
21	0xbe61881e	-0.22024581
22	0x3d9bad91	0.076014645
23	0xbd82e926	-0.06392126
24	0x3e3441c9	0.1760322
25	0xbe2d1302	-0.16901782
26	0x3e155011	0.14581324
27	0x3d7337af	0.059379276
28	0x3d301fee	0.0429992
29	0xbe4d4e4a	-0.20049396
30	0xbe20b4f2	-0.15694025
31	0x3e8a95a4	0.27067292
32	0xbe91416a	-0.2837022
33	0x3e906fa1	0.28210166
34	0x3bef8a54	0.007310191
35	0x3d149588	0.036275417
36	0x3e5945b3	0.21217994
37	0xbd1d6578	-0.038426846
38	0x3d441b7a	0.047877766
39	0x3de6faa3	0.11278274
40	0xbe479e21	-0.19493915
41	0x3df4194c	0.119188875
42	0xbd9d1319	-0.07669658
43	0xbe57222b	-0.21009128
44	0x3de8ff45	0.11376814
45	0x3e10c66e	0.14138195
46	0x3e730887	0.23733722
47	0x3e4a87b2	0.19778326
48	0x3ddeb0c0	0.10873556
49	0xbe44e53c	-0.19228071
50	0x3cfb86ad	0.030703867
51	0x3e4177ae	0.1889331
52	0x3d6e4f4c	0.058181092
53	0xbe0b6ccc	-0.13615721
54	0x3e3dcef0	0.18535972
55	0x3e9f0fad	0.31066647
56	0x3de0b99e	0.10972904
57	0x3e905d52	0.28196198
58	0xbd32739a	-0.043567277
59	0x3d48ac5c	0.0489925
60	0x3e385712	0.18001965
61	0x3e6d471d	0.23171659
62	0xbe4b403e	-0.19848725
63	0xbe897c3d	-0.268526
64	0x3d93960a	0.07206352
65	0x3df3769b	0.118878566
66	0xbe5be1e8	-0.21472895
67	0x3d2eedaf	0.04270714
68	0xbd27773f	-0.040885206
69	0x3df58677	0.11988538
70	0xbe503ff7	-0.203369
71	0x3dedd00e	0.11611949
72	0xbe527993	-0.2055419
73	0x3ee8929d	0.45424357
74	0x3d22ca7f	0.039743897
75	0xbbe7514f	-0.0070592533
76	0xbe388817	-0.18020664
77	0x3ee51d6e	0.44749016
78	0xbdad545d	-0.08463357
79	0xbe1656e3	-0.14681582
80	0x3cfa8a40	0.0305835
81	0x3e497c2a	0.19676271
82	0x3e81af61	0.25329116
83	0x3c45ffae	0.012084885
84	0xbc88a22c	-0.016678892
85	0x3e0a6632	0.13515547
86	0xbdce5443	-0.100746654
87	0x3e97dc9f	0.29660508
88	0x3db82912	0.089922085
89	0x3e99e06d	0.30054036
90	0xbe685602	-0.2268906
91	0x3d5898fe	0.05288028
92	0xbdfb79e9	-0.12279112
93	0xbd427270	-0.047472417
94	0xbe527047	-0.20550643
95	0xbd48019a	-0.048829652
96	0xbea46db5	-0.3211495
97	0xbd02e4e0	-0.031956553
98	0x3c263ffe	0.010147093
99	0xbe3202fa	-0.17383948
100	0xbeb99ec7	-0.3625395
101	0x3c3d8689	0.01156772
102	0xbe3a0984	-0.18167692
103	0x3d6cd3b1	0.057819072
104	0xbe21112b	-0.15729205
105	0x3eb42782	0.35186392
106	0xbc76f670	-0.015073404
107	0xbdb8f08c	-0.09030256
108	0xbec37389	-0.38174084
109	0x3cd22ed3	0.025657093
110	0xbe038493	-0.12843542
111	0xbd054504	-0.03253652
112	0xbe8ba6dc	-0.2727574
113	0xbde3a7c6	-0.111159846
114	0x3cf06d77	0.029349072
115	0xbe704485	-0.23463638
116	0xbe44312d	-0.19159384
117	0x3be8645e	0.007092043
118	0xbda94f55	-0.082670845
119	0x3e689cf9	0.2271613
120	0xbd89be05	-0.067256965
121	0x3e0c983a	0.13729945
122	0x3ddf60e0	0.10907149
123	0xbd272ab4	-0.04081221
124	0xbe3c9d33	-0.18419342
125	0xbd2fbb07	-0.042902973
126	0xbd8d63ac	-0.069037765
127	0xbafd9040	-0.0019345358
128	0xbd3b48ce	-0.04572373
129	0xbe5cc45c	-0.2155928
130	0x3e2e6fca	0.17034832
131	0x3e26c313	0.16285352
132	0x3ea08309	0.31349972
133	0x3d976f9b	0.07394334
134	0x3e0ed51b	0.13948481
135	0x3e3cc85f	0.1843581
136	0x3d953203	0.072849296
137	0x3db3d236	0.08780329
138	0x3d625c2a	0.055263676
139	0x3e737161	0.2377372
140	0x3df24463	0.1182945
141	0xbc757c4d	-0.014983249
142	0x3eb56386	0.35427493
143	0x3d287149	0.041123662
144	0xbeb393ef	-0.35073802
145	0x3e7d0c17	0.24711643
146	0x3e82d878	0.25555778
147	0xbdd14af8	-0.10219377
148	0x3dd7c3b6	0.10535376
149	0x3e143c10	0.14476037
150	0x3df9cc48	0.12197167
151	0x3c8d2272	0.017228339
152	0xbcdbfa18	-0.026852652
153	0x3e765f1c	0.24059719
154	0x3dfb4778	0.12269491
155	0x3ccbae1b	0.024863293
156	0x3d0ee418	0.034885496
157	0x3d7f939a	0.062396623
158	0x3d9eb77f	0.07749843
159	0xbe76046d	-0.24025126
160	0x3e9544a3	0.29153928
161	0xbda35370	-0.07974899
162	0x3d972509	0.07380111
163	0xbc888b9f	-0.016668139
164	0x3e6930cd	0.22772522
165	0xbbc630a9	-0.006048281
166	0xbc9a4adb	-0.018834522
167	0xbd861b04	-0.065481216
168	0x3ead764d	0.3387932
169	0xbe044961	-0.12918617
170	0x3dd022a7	0.101628594
171	0xbb894c39	-0.0041899947
172	0xbcea89de	-0.028630193
173	0x3db1e288	0.086857855
174	0x3de4eb0a	0.11177643
175	0x3e41d008	0.18927014
176	0xbdf3c071	-0.1190194
177	0xbe7c463d	-0.24636169
178	0xbcf25205	-0.029580126
179	0xbdadd689	-0.08488185
180	0xbe2f139e	-0.17097327
181	0x3e75afb9	0.23992814
182	0xbeb0190e	-0.34394115
183	0xbe7d64a1	-0.24745418
184	0x3c5f9dde	0.013648478
185	0xbe40fbc8	-0.18846047
186	0xbdde9d8b	-0.10869893
187	0x3cc3dbed	0.02390858
188	0x3e453032	0.19256666
189	0xbdcdf93d	-0.10057304
190	0xbd39b9b0	-0.0453431
191	0x3e948c70	0.29013395
192	0xbcdca03b	-0.026931873
193	0xbd9b847f	-0.07593631
194	0xbe6e29eb	-0.23258178
195	0xbea95f5a	-0.3308056
196	0x3e185abe	0.14878365
197	0x3e89e9da	0.26936227
198	0x3d8e8412	0.06958784
199	0xbb273f20	-0.0025519803
200	0xbe2ee5a1	-0.17079784
201	0x3ec911f9	0.39271525
202	0x3e3bbcb6	0.18333706
203	0x3cadd92e	0.021221723
204	0x3e4fcd30	0.20293117
205	0x3e44883d	0.19192596
206	0xbe021582	-0.12703517
207	0x3e89daf8	0.26924872
208	0xbd79ac09	-0.06095508
209	0x3d1e51a2	0.03865207
210	0x3dee62b8	0.11639923
211	0xbe4297d3	-0.19003229
212	0xbe66d7c8	-0.22543252
213	0x3db1d551	0.08683265
214	0xbe4e3a14	-0.20139343
215	0x3cf3a787	0.02974297
216	0xbe394b40	-0.18095112
217	0x3e95e1ad	0.2927374
218	0x3e291ddb	0.16515295
219	0xbe8c4208	-0.27394128
220	0xbe7cd8d0	-0.24692082
221	0x3e2124b6	0.1573666
222	0xbd4aff84	-0.049560085
223	0xbe37a780	-0.1793499
224	0x3e1986d8	0.14992845
225	0x3ddf3a2e	0.10899769
226	0xbeb10175	-0.34571424
227	0x3d99bc7c	0.07506654
228	0xbe89d4ee	-0.26920265
229	0xbe533d58	-0.2062887
230	0x3e8e6002	0.27807623
231	0x3d8b0074	0.06787196
232	0xbc810d7c	-0.0157535
233	0x3c1b1a14	0.009466667
234	0xbe00af16	-0.1256679
235	0xbcad820d	-0.021180177
236	0x3dacd4ac	0.084390014
237	0xbbaf9431	-0.005358242
238	0xbdd0624b	-0.10174998
239	0x3dc5942d	0.09647403
240	0xbe0b4289	-0.135996
241	0x3e084bdc	0.13310188
242	0xbe21a64a	-0.1578609
243	0x3c6a7280	0.0143095255
244	0xbe7887e5	-0.2427059
245	0xbe556e8f	-0.20842956
246	0x3e321dc9	0.17394175
247	0x3e7a8a99	0.24466933
248	0xbe960c26	-0.29306144
249	0xbe83ef1a	-0.25768358
250	0xbe410828	-0.18850768
251	0xbec24a59	-0.37947348
252	0xbe4fa11c	-0.20276302
253	0x3dee4548	0.11634308
254	0xbe8e29ca	-0.27766258
255	0x3daa92d1	0.08328784

layer1.1.fc1.bias f4 [16]
0	0xbed50348	-0.41604066
1	0x3d1ba2c1	0.03799701
2	0xbd1e8e9d	-0.038710225
3	0x3e09955c	0.13435882
4	0xbe0c747a	-0.13716307
5	0xbd18eb59	-0.03733382
6	0x3e15f2b0	0.14643359
7	0xbe2ea684	-0.17055708
8	0x3ebe2a46	0.37141627
9	0x3e2bc564	0.16774517
10	0xbd0e3318	-0.034716696
11	0x3e379010	0.17926049
12	0x3be36769	0.0069398177
13	0xbd3c1ce9	-0.04592601
14	0xbd8c6341	-0.06854869
15	0xbca64d57	-0.02030055

layer1.1.bn1.weight f4 [16]
0	0x3f88f8fa	1.0700982
1	0x3f5ea2c8	0.86967134
2	0x3f8a858d	1.0822006
3	0x3f89644d	1.0733734
4	0x3f506ea6	0.81418836
5	0x3f80b166	1.0054138
6	0x3f75cd15	0.96016055
7	0x3f8601d9	1.0469314
8	0x3f8738f1	1.0564252
9	0x3f668555	0.900472
10	0x3f9563db	1.1671098
11	0x3f53967e	0.8265151
12	0x3f8085c5	1.0040823
13	0x3f8b061c	1.086124
14	0x3f503aee	0.8133992
15	0x3f814666	1.0099609

layer1.1.bn1.bias f4 [16]
0	0x3cbb1c2c	0.022840582
1	0xbdc3f7b6	-0.095687315
2	0x3aaef4be	0.0013348085
3	0x3da89823	0.08232143
4	0x3d620aea	0.05518619
5	0x3d96ca1b	0.07362767
6	0xbda84299	-0.082158275
7	0x3e2f28a4	0.17105347
8	0xbc8f1345	-0.017465243
9	0xbdaca612	-0.08430113
10	0x3d53de1a	0.051725484
11	0xbdfa3e33	-0.12218895
12	0x3dfad7c5	0.12248186
13	0xbcdd1066	-0.026985358
14	0xbc703a81	-0.014662386
15	0x3d8e6782	0.06953336

layer1.1.bn1.running_mean f4 [16]
0	0xbfa356d3	-1.2760872
1	0xbe9da729	-0.30791596
2	0x3f0e86bf	0.55674356
3	0x3f1893d4	0.5960057
4	0x3e5dbdf6	0.21654496
5	0x3e787b9a	0.242659
6	0xbf2154f7	-0.6302027
7	0xbf12b500	-0.57307434
8	0x3fb3c256	1.4043682
9	0x3f21d267	0.63211673
10	0x3f18f93d	0.5975531
11	0xbee09f22	-0.4387141
12	0x3f18354c	0.59456325
13	0xbeb08ec6	-0.34483927
14	0xbe281d3b	-0.164174
15	0xbf6284a6	-0.88483655

layer1.1.bn1.running_var f4 [16]
0	0x3eeb069f	0.4590349
1	0x3f136484	0.5757525
2	0x3f12ddc9	0.5736967
3	0x3f3e856c	0.74422336
4	0x3fa38c18	1.2777128
5	0x3ef431d0	0.47694254
6	0x3fe0cc4e	1.7562349
7	0x3f2ac812	0.66711533
8	0x3f4045ba	0.75106394
9	0x3f3785b7	0.7168841
10	0x3f1f5499	0.6223846
11	0x3ec31972	0.3810535
12	0x3eb61a34	0.35566866
13	0x3f80b87a	1.0056298
14	0x3ea7ed25	0.32798114
15	0x3f9b2f71	1.2123853

layer1.1.fc2.weight f4 [16, 16]
0	0x3d9b5517	0.07584589
1	0x3e677c4b	0.22606008
2	0xbd9ad852	-0.07560791
3	0xbcfd1eb4	-0.03089843
4	0xbe5ed634	-0.217614
5	0xbde8842b	-0.11353334
6	0xbeb90673	-0.36137733
7	0xbd104c9b	-0.035229307
8	0x3ccb672d	0.024829471
9	0xbe2593bf	-0.16169642
10	0xbe7fe053	-0.24987917
11	0x3d1f86a9	0.03894678
12	0x3d2930fd	0.041306484
13	0xbe94e36b	-0.29079756
14	0x3e66ab2a	0.22526231
15	0xbe0a44e3	-0.1350284
16	0xbe004de5	-0.12529714
17	0xbe077788	-0.13229191
18	0xbd5cb345	-0.053881902
19	0x3e13db85	0.14439209
20	0x3d99720d	0.074924566
21	0x3e50eca6	0.20402774
22	0xbc002cf8	-0.007823221
23	0x3e950342	0.29104048
24	0x3e65e03a	0.22448817
25	0xbe71a701	-0.23598863
26	0x3c903d7b	0.017607441
27	0x3c690183	0.014221552
28	0x3e06f37e	0.13178822
29	0x3c6aece0	0.014338702
30	0xbe4b4fb9	-0.1985463
31	0xbd919272	-0.0710801
32	0x3e8cc90a	0.2749713
33	0x3e2156ec	0.15755814
34	0x3d188b52	0.03724224
35	0xbe3801c6	-0.17969427
36	0xbd71c93c	-0.059029803
37	0xbe287bda	-0.16453496
38	0xbd34f545	-0.04417922
39	0xbd78c831	-0.060737792
40	0x3e8d8865	0.27643123
41	0xbe12f355	-0.14350636
42	0x3e94971a	0.2902153
43	0x3e4ecb7d	0.20194812
44	0xbda2f5c9	-0.07957036
45	0xbd69a1f8	-0.05703923
46	0x3ccf6dc9	0.025320904
47	0x3e78f43f	0.24311922
48	0x3de29635	0.11063806
49	0xbdc38bc8	-0.095481455
50	0xbd587e77	-0.05285498
51	0xbeb8f5ad	-0.36124936
52	0xbd890970	-0.06691253
53	0x3c8d9ad8	0.01728575
54	0xbe25001f	-0.16113327
55	0xbdb33cbe	-0.0875182
56	0xbe34402e	-0.17602608
57	0x3dbf144c	0.09330043
58	0xbd58e9e6	-0.052957438
59	0x3c868986	0.016422998
60	0x3e31e8f8	0.17374027
61	0x3cb08b41	0.021550776
62	0xbc5e61e3	-0.013573143
63	0x3e3f6467	0.18690644
64	0xbe0599c5	-0.1304694
65	0x3e1e92fb	0.15485756
66	0xbea904c7	-0.33011457
67	0xbe0f7a71	-0.14011551
68	0x3dee5b26	0.11638479
69	0x3d7b2089	0.061310325
70	0xbe4b0206	-0.1982499
71	0xbd94c610	-0.0726434
72	0x3dd76ffc	0.10519406
73	0x3d6d0506	0.05786612
74	0x3e63ccdf	0.22246121
75	0x3ea2050b	0.31644472
76	0xbe26d75a	-0.16293088
77	0x3dc62661	0.09675289
78	0x3e05c0b9	0.13061799
79	0x3d591e01	0.05300713
80	0xbd833116	-0.06405847
81	0xbe60cdca	-0.21953502
82	0x3bfd7f44	0.0077361185
83	0x3e4cc3bc	0.19996542
84	0xbbc72297	-0.0060771215
85	0x3e4777c4	0.1947928
86	0x3cade33c	0.021226518
87	0x3e42d093	0.19024877
88	0x3c1b18fe	0.009466408
89	0x3e1d2b98	0.15348661
90	0x3d8f3820	0.06993127
91	0xbcb268a4	-0.021778412
92	0x3e953d5b	0.29148373
93	0x3e4e19fb	0.20127098
94	0xbda1a4f3	-0.0789279
95	0x3cda6685	0.026660213
96	0xbddafae1	-0.106923826
97	0x3e53e4fb	0.20692818
98	0x3e508aae	0.20365402
99	0xbd0b0c62	-0.033947356
100	0x3dfc55e6	0.12321071
101	0x3ea47303	0.32118997
102	0xbd9d35f6	-0.07676308
103	0x3ce040e0	0.027374685
104	0x3e861f18	0.26195598
105	0xbb7e9092	-0.0038843495
106	0x3e9fcb67	0.3120987
107	0x3e4afe7b	0.19823639
108	0x3d7123f9	0.058872197
109	0xbd896411	-0.06708539
110	0xbe3f1b6f	-0.18662809
111	0x3d7364d5	0.059422333
112	0x3b00dbf1	0.0019662345
113	0xbdcfdfaa	-0.101500824
114	0x3def215e	0.11676286
115	0xbe27de91	-0.16393496
116	0x3e3eb6c3	0.18624406
117	0xbe91be6b	-0.2846559
118	0x3e66bb42	0.2253237
119	0x3e240479	0.16017331
120	0xbcc27a82	-0.023740057
121	0x3de92f51	0.11385978
122	0x3d8585e5	0.06519679
123	0x3d050381	0.032474045
124	0xbc18e46d	-0.009331805
125	0x3ecdc8f5	0.4019238
126	0x3df3541a	0.118812755
127	0xbd529657	-0.051412906
128	0x3e55a867	0.20865022
129	0xbd1bf266	-0.038072966
130	0xbd8e4fa0	-0.06948781
131	0xbcc72cbd	-0.024313325
132	0xbe3765a4	-0.17909867
133	0xbe0acd14	-0.13554794
134	0xbdd41ebf	-0.10357427
135	0xbd4a99ee	-0.049463205
136	0x3da1f899	0.07908744
137	0x3de00101	0.109376915
138	0xbe8842a1	-0.26613334
139	0x3e335dc7	0.17516242
140	0xbdf553a6	-0.11978845
141	0xbebed8de	-0.37274832
142	0xbe22acb5	-0.15886195
143	0x3d841f05	0.06451229
144	0xbde5b0e8	-0.11215383
145	0x3d270981	0.040780548
146	0xbe5936e7	-0.2121235
147	0x3e43459e	0.19069526
148	0xbc9d642a	-0.019212801
149	0x3e9cb9b9	0.30610445
150	0x3e8ceebe	0.27525896
151	0x3e7c7339	0.24653329
152	0x3e7c2424	0.24623162
153	0x3d6cd8df	0.057824012
154	0x3d984b60	0.07436252
155	0x3de4e32c	0.11176142
156	0x3e5057da	0.20346013
157	0x3e1c52ca	0.15265957
158	0xbdd37a21	-0.103260286
159	0x3e591f10	0.21203256
160	0xbe533a41	-0.20627691
161	0x3d67d9e8	0.056604296
162	0x3e53eff9	0.20697011
163	0xbe62d4fe	-0.22151563
164	0x3d72b333	0.05925293
165	0xbd88f3d7	-0.06687134
166	0x3e7ff9b3	0.24997596
167	0xbe8d883e	-0.27643007
168	0xbe3eec3f	-0.18644808
169	0x3e6b85ce	0.23000261
170	0xbe1c3513	-0.15254621
171	0x3deef003	0.11666872
172	0xbca56fa6	-0.02019484
173	0x3e1fc8d5	0.15603955
174	0xbe15ae8d	-0.14617367
175	0xbea8c15b	-0.3296002
176	0x3e18261f	0.14858292
177	0x3e4346c4	0.19069964
178	0xbe83fdfa	-0.25779706
179	0xbca86769	-0.020557122
180	0x3e3a3ec9	0.18188013
181	0xbe027acb	-0.12742154
182	0x3e1a427b	0.15064423
183	0xbe6fadfc	-0.23406214
184	0x3caa6b7b	0.020803204
185	0xbe8cfe51	-0.27537778
186	0x3e151885	0.14560135
187	0xbde31aad	-0.110890724
188	0x3b8bd153	0.0042668968
189	0x3d27d40d	0.04097371
190	0x3e4b03f4	0.19825727
191	0xbd0802d5	-0.033205826
192	0x3cd0703f	0.025444148
193	0xbe45ad42	-0.19304374
194	0x3d40678a	0.046973743
195	0x3e26d765	0.16293104
196	0xbd21aab9	-0.039469454
197	0xbd26a539	-0.040684912
198	0xbdb7355e	-0.08945726
199	0x3e444b41	0.19169332
200	0xbe1be5b7	-0.15224348
201	0xbe1b5d82	-0.15172389
202	0xbe7b1079	-0.24518003
203	0xbdf65603	-0.12028124
204	0xbed5b414	-0.4173895
205	0x3ccf80ad	0.025329912
206	0x3dc56553	0.09638467
207	0xbde02e70	-0.10946357
208	0xbde7a698	-0.11311072
209	0xbe76c198	-0.24097288
210	0xbe048504	-0.12941366
211	0xbd8a283d	-0.06745956
212	0x3c1dbc97	0.009627483
213	0x3e4f1650	0.20223355
214	0x3e99e119	0.30054548
215	0x3e964ada	0.29353982
216	0xbe125410	-0.1428988
217	0x3e02b965	0.12766035
218	0xbd8a415c	-0.067507476
219	0x3e0cea39	0.13761224
220	0x3e3f5b51	0.18687178
221	0x3e358da4	0.17729813
222	0xbe34a681	-0.17641641
223	0xbe8ba2f4	-0.2727276
224	0xbea1e6a0	-0.31621265
225	0x3db8c410	0.09021771
226	0x3dbc9402	0.09207918
227	0xbd09102b	-0.033462685
228	0xbe03d5f1	-0.12874581
229	0xbd1f4702	-0.038886078
230	0xbce9344c	-0.02846732
231	0x3e540215	0.20703919
232	0x3d2e79cc	0.042596623
233	0x3d11b839	0.03557608
234	0x3ed278d9	0.41107824
235	0x3cd4a32e	0.025956716
236	0x3e8993e0	0.26870632
237	0xbb864aa2	-0.0040982524
238	0x3ddef2c4	0.108861476
239	0x3dd013dd	0.101600386
240	0xbdefc68e	-0.11707793
241	0x3d598399	0.053104017
242	0x3c3c920f	0.011509432
243	0xbb8b98c3	-0.004260154
244	0x3c9ad048	0.018898144
245	0xbe0c2fd1	-0.13690116
246	0xbdfcf248	-0.12350899
247	0xbd6ca2ed	-0.057772566
248	0xbe69f22a	-0.22846285
249	0xbe19b59e	-0.15010688
250	0x3da3c540	0.07996607
251	0xbe62c9bb	-0.22147267
252	0x3e03bccf	0.12864994
253	0x3e9f58bc	0.31122386
254	0xbcdd3d14	-0.027006663
255	0xbeb8a481	-0.36063007

layer1.1.fc2.bias f4 [16]
0	0x3e0969f7	0.13419329
1	0x3e901a06	0.28144854
2	0x3eb82b9b	0.35970768
3	0xbd9d8420	-0.076912165
4	0xbe8577b3	-0.26067886
5	0x3db7144e	0.0893942
6	0xbdaa4bb4	-0.083152205
7	0xbe477ee4	-0.19481999
8	0xbd8bc6b7	-0.06825011
9	0xbe525d63	-0.20543437
10	0xbe4a97e7	-0.19784509
11	0x3d8eb04e	0.06967221
12	0x3e764728	0.24050581
13	0x3e3192e7	0.17341195
14	0xbe6a1db0	-0.22862887
15	0xbe24e82f	-0.16104196

layer1.1.bn2.weight f4 [16]
0	0x3f82afbe	1.0209882
1	0x3f8d9f9e	1.1064336
2	0x3f79c31c	0.9756334
3	0x3f85bbe9	1.0447971
4	0x3f8226d2	1.0168097
5	0x3f807b3e	1.003761
6	0x3f93d274	1.15486
7	0x3f7d4a31	0.9894133
8	0x3f899313	1.0748008
9	0x3f7f1ec2	0.9965631
10	0x3f85feb1	1.0468351
11	0x3f7059f2	0.93887246
12	0x3f82a4c6	1.0206535
13	0x3f6e1449	0.929997
14	0x3f813413	1.0094017
15	0x3f9d6059	1.2295028

layer1.1.bn2.bias f4 [16]
0	0x3b1f4d6a	0.0024307617
1	0xbcd76427	-0.026292874
2	0x3b76422f	0.003757607
3	0xbde469a4	-0.11152962
4	0xbe2d669f	-0.16933678
5	0x3bdb9241	0.0067007844
6	0x3e219cca	0.15782467
7	0x3d942b78	0.072348535
8	0x3cf9fdc2	0.030516509
9	0x3dc47942	0.095934406
10	0xbdc78bcd	-0.09743462
11	0xbcad04e8	-0.021120504
12	0xbd0fe880	-0.03513384
13	0x3ce64b51	0.028112086
14	0x3de79e0d	0.11309443
15	0xbc7f70c4	-0.01559085

layer1.1.bn2.running_mean f4 [16]
0	0xbea7fb65	-0.32808986
1	0x3f0314e3	0.51203746
2	0x3f1e67cb	0.61877126
3	0xbe874196	-0.26417226
4	0xbe66f803	-0.22555546
5	0x3f13aaa1	0.57682234
6	0x3ee15d41	0.4401646
7	0x3daa4624	0.083141595
8	0xbef1429e	-0.47121137
9	0x3f073d79	0.52828175
10	0xbf0c9511	-0.5491496
11	0x3d75076c	0.05982153
12	0xbe09b369	-0.13447346
13	0x3e95bad2	0.29244095
14	0x3e1684e4	0.14699131
15	0xbee371cb	-0.44422755

layer1.1.bn2.running_var f4 [16]
0	0x3e9e070a	0.30864745
1	0x3e736507	0.23769008
2	0x3ee4ebee	0.4471125
3	0x3d84bc20	0.064811945
4	0x3e653ec0	0.22387218
5	0x3ee3afc0	0.44470024
6	0x3eaaacf5	0.3333508
7	0x3d94b381	0.072608
8	0x3e7665fe	0.24062344
9	0x3f08e382	0.5347215
10	0x3e1ffc54	0.156236
11	0x3e512589	0.20424475
12	0x3e4806bf	0.19533823
13	0x3edde801	0.43341067
14	0x3e6d94b7	0.23201261
15	0x3d4be637	0.049780097

layer2.0.fc1.weight f4 [32, 16]
0	0x3e5c89a6	0.21536884
1	0x3e86f157	0.26356003
2	0xbdef75a7	-0.11692362
3	0x3df6895a	0.120379165
4	0x3d86fa88	0.06590754
5	0xbdc847f9	-0.09779353
6	0x3e4b4c0d	0.1985323
7	0xbdde9bd3	-0.10869565
8	0x3bfe0ccd	0.007752991
9	0x3d07c47b	0.033146363
10	0x3e82b7cf	0.2553086
11	0xbcb4e8ba	-0.022083629
12	0x3e344459	0.17604198
13	0xbdfe2c9a	-0.12410851
14	0x3e874eb7	0.26427242
15	0xbe196ffe	-0.14984128
16	0xbd9f9435	-0.0779194
17	0xbe7745f5	-0.2414778
18	0x3b5531a9	0.003253082
19	0x3e70e5c1	0.23525144
20	0xbc73cf82	-0.014881017
21	0xbe934cf0	-0.28769636
22	0x3c0b2de1	0.008494825
23	0xbe944cca	-0.28964835
24	0xbe47a506	-0.19496545
25	0xbebbdf9f	-0.36694047
26	0xbe16c30f	-0.14722846
27	0xbe007416	-0.12544283
28	0xbd776d5e	-0.060407035
29	0xbd1eb598	-0.0387474
30	0xbdc692d2	-0.096959725
31	0x3d9e8b34	0.07741395
32	0xbe65543c	-0.22395414
33	0xbbb83d44	-0.005622538
34	0x3e5a8538	0.21339881
35	0x3e30ebf4	0.17277509
36	0xbd56f8ee	-0.05248349
37	0x3db56023	0.08856227
38	0xbdaac6e4	-0.083387166
39	0xbeae4587	-0.3403742
40	0x3e39624b	0.18103902
41	0xbc3979eb	-0.011320571
42	0xbae62542	-0.0017558711
43	0xbe505cce	-0.20347902
44	0x3d603173	0.05473466
45	0xbec830e1	-0.39099792
46	0xbe18abba	-0.14909258
47	0xbc6099a8	-0.0137085095
48	0x3cde6d25	0.027151654
49	0xbcb5391d	-0.02212196
50	0x3d5453da	0.05183778
51	0x3cd22e59	0.025656866
52	0xbd882eee	-0.06649576
53	0x3d1fbf95	0.039001066
54	0xbe175293	-0.14777593
55	0x3ebb9bab	0.36642203
56	0xbeae92f2	-0.34096485
57	0x3e5fbeb2	0.21850088
58	0x3dc0b9e8	0.09410459
59	0xbbc396d1	-0.0059689065
60	0x3e22df2e	0.15905449
61	0x3e28a4d7	0.16469131
62	0x3d59fba7	0.05321851
63	0xbda12770	-0.0786885
64	0x3dfe8472	0.12427606
65	0xbd38d486	-0.045124553
66	0xbd3a5495	-0.04549082
67	0x3e6ff688	0.23433888
68	0x3e9ebd1a	0.31003648
69	0x3d7cb754	0.061698273
70	0xbe032ab1	-0.12809254
71	0xbe89e912	-0.2693563
72	0x3e0cdb9c	0.1375565
73	0x3cca076f	0.024661748
74	0x3e236e73	0.15960102
75	0x3e1d398d	0.15353985
76	0xbe0794c2	-0.1324034
77	0xbda76dd2	-0.081752434
78	0x3de179b2	0.1100954
79	0xbde8f0f6	-0.11374085
80	0xbd3f2436	-0.046665393
81	0x3e142da8	0.14470541
82	0x3e80991d	0.25116816
83	0xbccaaad2	-0.024739657
84	0x3dddc965	0.108294286
85	0x3e8eea30	0.27913046
86	0xbdb81daa	-0.08990033
87	0x3a2209a9	0.0006181249
88	0xbe63ee34	-0.22258836
89	0x3e49d0f4	0.19708616
90	0xbcd304d8	-0.025759146
91	0x3d873107	0.06601148
92	0x3e53f5d0	0.20699239
93	0xbcc89ffa	-0.024490345
94	0xbdefdb09	-0.117116995
95	0xbe465be8	-0.19370997
96	0x3cbbf3c7	0.02294339
97	0xbdb95a6b	-0.09050449
98	0xbe91dd4b	-0.28489146
99	0x3e95ebf8	0.29281592
100	0xbddde062	-0.10833813
101	0xbd8a47f4	-0.06752005
102	0x3c5fd158	0.013660751
103	0xbea46b28	-0.32113004
104	0xbd21484a	-0.03937558
105	0xbe5b4f82	-0.21417049
106	0xbe24dbf9	-0.16099538
107	0xbca72a22	-0.020405833
108	0x3d32e4e9	0.043675337
109	0xbe31cd7f	-0.17363547
110	0xbdcd2e0e	-0.1001855
111	0x3da5d43f	0.08097123
112	0x3e1158fe	0.14194104
113	0xbe2fb354	-0.17158252
114	0x3dc84c6e	0.09780203
115	0x3e592721	0.21206333
116	0xbe57b145	-0.21063717
117	0xbe457c99	-0.19285811
118	0xbdc59bb9	-0.09648842
119	0xbdc3f81e	-0.09568809
120	0x3e275c62	0.16343835
121	0xbea31a35	-0.31855932
122	0x3e86c2fe	0.26320642
123	0xbd3d9ff2	-0.046295114
124	0xbd628ea9	-0.055311833
125	0xbe2c64c0	-0.16835308
126	0x3dab7571	0.083720095
127	0xbea6ebb6	-0.32601708
128	0xbe7c66ad	-0.24648543
129	0x3cf9687d	0.030445332
130	0xbec8dc34	-0.39230502
131	0x3dc79e52	0.09746994
132	0xbddbc2fb	-0.10730549
133	0xba9c7753	-0.0011937417
134	0xbe403b8f	-0.1877272
135	0x3e23f67e	0.16011998
136	0xbcda9bc1	-0.026685597
137	0x3dbadc59	0.09124059
138	0x3eb2b2ab	0.34901938
139	0xbe052946	-0.13004026
140	0x3debbaaf	0.115102164
141	0xbd4d5a6e	-0.05013507
142	0x3d63ac4f	0.05558425
143	0x3eb95f1f	0.36205384
144	0xbeb8f195	-0.36121812
145	0xbeaeec3d	-0.3416461
146	0xbe9b2422	-0.30301005
147	0xbdf15843	-0.11784413
148	0x3e5cb4a5	0.21553285
149	0xbd098dd4	-0.033582523
150	0xbdcffb4e	-0.101553544
151	0xbe04376f	-0.12911771
152	0xbeaf6c71	-0.34262422
153	0xbd9e7fa7	-0.077391915
154	0x3da39c61	0.07988811
155	0xbd5fdc6f	-0.05465358
156	0xbde9a68b	-0.11408719
157	0x3e70bac8	0.23508751
158	0x3da17740	0.07884073
159	0xbd821b5d	-0.063528754
160	0xbe2e0eaa	-0.16997781
161	0x3cbf4e5d	0.023352796
162	0x3e184178	0.14868724
163	0x3e1581ae	0.1460025
164	0xbe70f175	-0.23529609
165	0xbe669133	-0.22516327
166	0xbe9d3942	-0.30707747
167	0x3e2e0f1e	0.16997954
168	0xbb8d05fd	-0.0043036924
169	0x3e14b9fa	0.1452407
170	0x3d8c91d4	0.06863752
171	0x3e7ddf8b	0.24792306
172	0x3db2f251	0.087376244
173	0xbbfad9e9	-0.0076553714
174	0x3d96f01b	0.07370015
175	0xbd1ed83d	-0.03878044
176	0x3e5b86ed	0.21438189
177	0x3bd0d0b5	0.006372536
178	0xbe09c2d5	-0.13453229
179	0x3e948de6	0.2901451
180	0x3d4f1847	0.050560262
181	0xbe02be38	-0.12767875
182	0x3dd08434	0.10181466
183	0xbe81fd63	-0.2538863
184	0x3e2de18b	0.16980569
185	0xbe51687a	-0.20450011
186	0xbe4c90ee	-0.19977161
187	0xbea637fb	-0.32464585
188	0x3d80e36f	0.062933795
189	0xbdd133cb	-0.10214957
190	0xbe86776f	-0.26262996
191	0xbdb0a2df	-0.08624815
192	0xbe159b00	-0.14609909
193	0xbe312bb0	-0.17301822
194	0xbe0cffc8	-0.13769448
195	0xbda10be6	-0.078635976
196	0x3e35fe10	0.17772698
197	0xbe044c25	-0.12919672
198	0xbe378fc3	-0.17925934
199	0x3de45931	0.111498244
200	0x3e0fb43e	0.140336
201	0x3dcffaa5	0.101552285
202	0xbd3220ef	-0.04348844
203	0x3e93dd91	0.2887998
204	0xbe5a8469	-0.21339573
205	0x3e28fe82	0.16503337
206	0xbe3b3425	-0.1828161
207	0x3e9ddf00	0.30834198
208	0xbeaad36a	-0.3336442
209	0xbd264005	-0.040588398
210	0x3c986873	0.018604493
211	0xbe732169	-0.23743214
212	0x3df0d25d	0.117588736
213	0xbe1d67ed	-0.15371676
214	0x3df24782	0.11830045
215	0x3e1e527c	0.15461153
216	0xbde45886	-0.11149697
217	0x3e9c45e5	0.30522075
218	0xbe22af73	-0.15887241
219	0x3d56381b	0.0522996
220	0x3ddabe60	0.106808424
221	0xbcb33226	-0.021874499
222	0xbe34a533	-0.17641144
223	0xbe4ae7d9	-0.19815005
224	0xbb158bb2	-0.002281886
225	0x3eb9b9c5	0.36274543
226	0xbe2a0b97	-0.16605984
227	0xbd97b01c	-0.07406637
228	0x3deb8f45	0.11501936
229	0x3e2bba3f	0.16770266
230	0x3e54545e	0.20735309
231	0xbe090597	-0.13381039
232	0xbe4310fa	-0.19049445
233	0x3e77aaab	0.24186198
234	0xbd426702	-0.047461517
235	0x3e2e7503	0.17036824
236	0x3e0609e0	0.13089705
237	0xbba7b119	-0.005117547
238	0x3db01716	0.08598153
239	0xbd9ccf52	-0.07656731
240	0xbd83f93b	-0.06444021
241	0xbe430733	-0.19045715
242	0xbd90758c	-0.0705367
243	0xbbcad054	-0.0061893854
244	0x3e0752c0	0.1321516
245	0x3ec62609	0.38700894
246	0x3d9177de	0.07102941
247	0x3e3a971d	0.18221708
248	0x3e7458ee	0.23862049
249	0x3d8baf31	0.068205245
250	0x3de46307	0.111517005
251	0x3e462254	0.19349033
252	0x3e039ad3	0.1285203
253	0x3e6cbc9d	0.23118825
254	0xbd8c4bcb	-0.06850394
255	0x3e60a9c3	0.21939759

layer2.0.fc1.bias f4 [32]
0	0xbdf1b98c	-0.118029684
1	0xbe464fa4	-0.19366318
2	0x3da55f41	0.08074809
3	0xbdea9631	-0.11454428
4	0x3e525fdf	0.20544384
5	0x3e91e57c	0.28495395
6	0xbdf01ffc	-0.117248505
7	0x3ea0f0f7	0.31433842
8	0x3d74fb9b	0.059810262
9	0x3e2976c0	0.16549206
10	0xbb52375f	-0.003207646
11	0x3e53a3e1	0.20667984
12	0xbe9a251f	-0.30106446
13	0xbe80022f	-0.25001666
14	0x3e6ef901	0.23337175
15	0x3ea601b3	0.3242317
16	0x3e2cbe28	0.16869414
17	0xbdec29c0	-0.11531401
18	0xbe1d8feb	-0.15386932
19	0x3be18a95	0.0068829753
20	0xbe60c4fe	-0.21950147
21	0xbc6d4292	-0.014481204
22	0x3d412c02	0.04716111
23	0xbd171e97	-0.036894407
24	0x3e62b5b4	0.22139627
25	0xbd60bc22	-0.054866917
26	0xbe9a5be6	-0.30148238
27	0x3e989ea4	0.29808533
28	0x3cc5baab	0.024136862
29	0x3eb05ecd	0.34447327
30	0xbcd16ea8	-0.02556546
31	0xbe440238	-0.19141471

layer2.0.bn1.weight f4 [32]
0	0x3f82f989	1.0232402
1	0x3f75d8f9	0.960342
2	0x3f7fd24e	0.99930274
3	0x3f5edef3	0.87058944
4	0x3f71f4f5	0.945144
5	0x3f711162	0.9416715
6	0x3f667571	0.9002295
7	0x3f7adcab	0.9799296
8	0x3f552e51	0.832738
9	0x3f8aff50	1.0859165
10	0x3f626a0a	0.8844305
11	0x3f7bcbaa	0.9835764
12	0x3f8054b5	1.002585
13	0x3f821d10	1.0165119
14	0x3f8bedf1	1.0931989
15	0x3f889c0b	1.067262
16	0x3f8862d0	1.0655155
17	0x3f92142f	1.141241
18	0x3f712c6c	0.9420841
19	0x3f57099f	0.83999056
20	0x3f7ebde8	0.99508524
21	0x3f7d010a	0.9882971
22	0x3f8f7267	1.1206788
23	0x3f933fb7	1.1503819
24	0x3f8355f2	1.0260603
25	0x3f9daaaf	1.2317713
26	0x3f956bc7	1.1673516
27	0x3f6fdfb7	0.93700737
28	0x3f58e2dd	0.84721166
29	0x3f85b41a	1.0445588
30	0x3f6ea49e	0.93219936
31	0x3f7df662	0.99204075

layer2.0.bn1.bias f4 [32]
0	0x3cfc0ad0	0.030766875
1	0xbd1a167f	-0.03761911
2	0x3c807b53	0.015683806
3	0xbdbabd16	-0.091180965
4	0xbe18b334	-0.1491211
5	0xbb8d098a	-0.0043041157
6	0xbe2012dd	-0.15632196
7	0xbdebaeb8	-0.11507934
8	0xbe2894d4	-0.16463023
9	0x3e361f24	0.17785317
10	0xbdc5a9cc	-0.09651527
11	0xbd3fe241	-0.046846632
12	0x3e244912	0.16043499
13	0x3b6d46b1	0.0036205465
14	0x3ca7af86	0.020469438
15	0x3d4399a0	0.04775393
16	0x3d901c73	0.07036676
17	0x3cd0c1b2	0.025482986
18	0xbdd32bd4	-0.10311094
19	0xbdb9d347	-0.09073501
20	0xbc8e2136	-0.01734982
21	0x3cdb151a	0.02674346
22	0xbd039480	-0.032124043
23	0x3debeaa3	0.11519363
24	0x3d265640	0.0406096
25	0x3a4c8530	0.0007801829
26	0x3da48411	0.08033002
27	0x3cc86904	0.024464138
28	0xbe0be02c	-0.13659734
29	0x3d175ca3	0.03695358
30	0xbe5b9073	-0.21441822
31	0xbdab7a63	-0.08372953

layer2.0.bn1.running_mean f4 [32]
0	0x3f511443	0.8167154
1	0xbfe856a3	-1.815144
2	0xbf5dd9bd	-0.8666037
3	0x3ef9e177	0.4880483
4	0x3f04612f	0.5171079
5	0x3f1c5e91	0.61081797
6	0xbfa2f8d1	-1.2732183
7	0xbed1b823	-0.40960798
8	0x3e9a0b2a	0.30086643
9	0xbf816446	-1.0108726
10	0x3d7d62a9	0.061861668
11	0xbf2e883f	-0.68176645
12	0xbea90508	-0.3301165
13	0xbf4616ef	-0.77378744
14	0x3f78bb98	0.97161245
15	0x3fde1545	1.7350241
16	0x3e4972ab	0.19672649
17	0xbfba7e6c	-1.4569831
18	0x3efddf46	0.49584407
19	0xbf92c25b	-1.1465563
20	0xbf22302f	-0.6335477
21	0xbfb7be3d	-1.4354931
22	0x3ec256e3	0.37956914
23	0x3f914e79	1.1352073
24	0x3f697c7e	0.91205585
25	0x3f6cb521	0.9246388
26	0xbe44c2d5	-0.19214948
27	0xbc2d5426	-0.010579145
28	0x3d03300b	0.03202824
29	0x3f3080a1	0.6894627
30	0xbeb23142	-0.34803206
31	0x3da63d3f	0.081171505

layer2.0.bn1.running_var f4 [32]
0	0x3fd1b116	1.6382167
1	0x3fd375c2	1.6520312
2	0x3f8c6cd9	1.0970718
3	0x3fc98b08	1.5745554
4	0x3f7cb911	0.9871989
5	0x3f430bfe	0.76190174
6	0x3fb171ac	1.3862815
7	0x4005bdc3	2.0897071
8	0x3f416ed2	0.75559723
9	0x3ef7ef06	0.48424548
10	0x3e7536a2	0.23946622
11	0x3fc316dd	1.5241352
12	0x3f5af9b4	0.85537267
13	0x3f85e219	1.0459625
14	0x3f5bde81	0.8588639
15	0x3f3cc6a2	0.7374059
16	0x3f254d25	0.6457084
17	0x3fd308fc	1.6487117
18	0x3f0b652c	0.5445125
19	0x3ffbae7a	1.9662621
20	0x3ecea79c	0.4036225
21	0x3fbffda8	1.4999285
22	0x3f038973	0.51381606
23	0x3f3e53b9	0.743465
24	0x3ea2cf0c	0.3179859
25	0x3fa4692f	1.28446
26	0x3fc74497	1.5567807
27	0x3f40ba9e	0.75284755
28	0x3f55d76f	0.8353185
29	0x3e9eb7e8	0.30999684
30	0x3faa91ae	1.3325708
31	0x3ed8a601	0.4231415
