sensor_case/outputs/experiment1/resnet_model.pth (torch, 148679 bytes, 92 tensors)

layer1.0.fc1.weight f4 [16, 5]
000000 3f 19 48 be f1 d3 f6 bd 95 a8 8c bc 4c fb 41 3d
       -0.1954088 -0.12052143 -0.01717023 0.047358796
000010 d8 a9 86 be 05 31 d6 bd 88 53 c8 3e a9 cb d1 3e
       -0.26301455 -0.104585685 0.3912623 0.40975693
000020 e0 08 67 be 74 76 a6 3e 5a 36 c2 be 8b f6 5b be
       -0.2256198 0.32512248 -0.37932092 -0.21480767
000030 11 59 20 be 09 05 0b be 7c c6 7e be 3a db 1d bd
       -0.15658976 -0.1357614 -0.24880403 -0.03853915
000040 b2 47 f7 bd e1 ba eb 3d 67 3e 41 3e d0 b7 04 3e
       -0.12074222 0.11510254 0.18871461 0.12960744
000050 6f 0f 22 3d 97 76 a1 3d 57 0a 16 3e af 26 09 bf
       0.0395655 0.07883947 0.14652382 -0.5357465
000060 6e c3 fe 3c 88 5e 3c be 50 04 68 3d ac 30 4e 3e
       0.031099048 -0.18395436 0.056644738 0.20135754
000070 ad cc cf 3e 90 81 b7 bd c0 61 24 3e 05 54 8d bd
       0.40585843 -0.08960259 0.16052914 -0.06900791
000080 ff 6d 10 3d 59 c9 aa 3e 6f b4 a8 be e8 e0 94 3e
       0.03526115 0.3335674 -0.3295016 0.2907784
000090 5e ab e8 3c b2 10 09 bf 13 ce 7a 3c 28 6c 5c be
       0.028402027 -0.535411 0.015307921 -0.21525633
0000a0 fb 48 fa 3d 65 5d 83 3b 22 ab 48 3e 80 ed 09 be
       0.12220951 0.004008936 0.19596532 -0.13469505
0000b0 77 de 8c 3e 9e 04 7a be 86 63 53 3e 22 b8 28 be
       0.27513477 -0.24415824 0.20643434 -0.16476491
0000c0 db 78 89 3d c0 34 00 3e cb 17 f8 3d 94 78 cf 3c
       0.067125045 0.12520123 0.12113913 0.02532605
0000d0 0e bd c7 3e 3f db 89 be d2 a5 d8 3d 19 90 95 3e
       0.39011425 -0.26925084 0.10578503 0.292115
0000e0 63 c0 ca 3e e4 81 7b be 4e 1e f8 3d 50 32 ee be
       0.39599904 -0.24561268 0.12115155 -0.4652276
0000f0 5d 4d 2d be aa 7b b7 be b6 29 0c be 28 ec 57 3e
       -0.16924043 -0.35836536 -0.13687786 0.2108618
000100 bc 32 ba 3d e9 d0 a3 3e e6 b2 c0 3e b0 04 b6 be
       0.09091708 0.31995323 0.3763649 -0.3555045
000110 e4 64 59 3e 8d bb 02 3e d8 a4 f2 be 0c 2d 55 bd
       0.21229893 0.12766857 -0.4739139 -0.052044913
000120 62 16 16 be 2d b7 ca 3e 13 78 83 3d 93 0a 05 be
       -0.14656976 0.39592877 0.06419387 -0.12992315
000130 8a 12 04 3e 85 83 35 3d 12 ed 11 3f d9 1a 03 be
       0.12897697 0.04431488 0.57002366 -0.1280321

layer1.0.fc1.bias f4 [16]
000000 be 27 96 be f9 27 99 be b7 66 a7 3e 21 f3 80 3e
       -0.29327196 -0.2991331 0.32695553 0.25185493
000010 60 72 aa be 3d 34 5f be 11 96 e6 be 14 26 9a 3c
       -0.33290386 -0.21797271 -0.45036367 0.018816985
000020 06 e1 63 be f3 0e 20 3d c6 26 a1 3d 74 79 38 be
       -0.22253808 0.039076757 0.078687236 -0.1801508
000030 1c 95 d2 be 47 44 5e bd d7 90 88 be 53 e0 a4 be
       -0.41129386 -0.054264333 -0.26673004 -0.32202396

layer1.0.bn1.weight f4 [16]
000000 64 32 8d 3f ec 9d 78 3f 05 63 7d 3f f0 0a 66 3f
       1.1031003 0.9711597 0.98979217 0.8986044
000010 f6 9b 83 3f a2 db 81 3f d6 11 80 3f 95 0b 7e 3f
       1.028197 1.0145152 1.0005443 0.9923642
000020 bf 1e 80 3f 23 6a 81 3f 6d 2f 84 3f a2 d9 80 3f
       1.0009383 1.0110515 1.0326973 1.0066416
000030 86 67 7f 3f 6f f5 82 3f a5 ed 81 3f 39 4d 67 3f
       0.9976734 1.023115 1.0150648 0.9035221

layer1.0.bn1.bias f4 [16]
000000 a2 77 81 3d 96 9d 4c 3d 91 9e 46 3d 88 1c ea bd
       0.06321646 0.049954973 0.048491064 -0.11431223
000010 49 33 04 3d 2c 3b 60 3c 51 3a 8f bc aa 5e dd 39
       0.03227547 0.013685983 -0.017483862 0.00042222935
000020 df 1f c6 3c c2 69 2d bd 89 48 48 3d f8 55 80 3d
       0.02418512 -0.042337187 0.0488973 0.06266397
000030 70 83 0c bd 67 85 fe 3c 13 f2 8d 3c 3e 84 a4 bd
       -0.034305036 0.03106947 0.017327344 -0.08033036

layer1.0.bn1.running_mean f4 [16]
000000 50 ed f7 be 31 8c d8 be 10 9b 2d bd a6 1a 56 3e
       -0.48423243 -0.42294458 -0.042384207 0.20908603
000010 79 43 98 be f9 4a d1 be 79 3d 93 be b2 db a7 3e
       -0.29738978 -0.40877512 -0.28757837 0.32784802
000020 33 12 df bd 47 95 50 be ab d9 3f 3e ce 1f f6 3d
       -0.10892143 -0.20369445 0.18735377 0.12017785
000030 71 0b 13 bf ef 9c 8a 3e b5 cc 3c bf 86 db e8 be
       -0.57439333 0.27072856 -0.7374986 -0.45479983

layer1.0.bn1.running_var f4 [16]
000000 bc 38 b3 3d e7 30 f8 3e f0 6e 1a 3e 46 e9 a2 3d
       0.087510556 0.4847481 0.15081382 0.079546496
000010 04 d2 a0 3e 5b 82 55 3e 74 d7 67 3e 6b 01 aa 3e
       0.3141023 0.20850508 0.22640783 0.33204207
000020 ba 3d 0b 3e d8 97 b7 3d 7c 20 72 3e 4b 94 e9 3e
       0.13597766 0.08964509 0.23645204 0.4562095
000030 2d c9 4a 3e 47 7d a8 3e 60 9f 3a 3e ec 3b b5 3e
       0.19803305 0.3290808 0.18224859 0.3539728

layer1.0.fc2.weight f4 [16, 16]
000000 bd 34 86 3d 92 c5 a6 bb f9 38 b4 3d 65 b3 3b be
       0.06553028 -0.00508947 0.08799929 -0.18330152
000010 97 1e 2c be 15 48 9e bd f4 53 08 bb 0d 37 89 3e
       -0.16808544 -0.07728592 -0.0020801993 0.26799813
000020 7c 59 77 be ad f5 11 bd ed c8 e7 bd 2a b9 42 be
       -0.2415523 -0.035634685 -0.113176204 -0.19015947
000030 16 43 84 be 37 ee 44 3e 34 0f 8e 3d e5 a8 43 be
       -0.25832433 0.19231497 0.069364935 -0.19107397
000040 f8 70 09 3e 58 d5 c9 bd eb d5 8c 3d d5 0b b1 bd
       0.13422 -0.09855145 0.06876739 -0.08644835
000050 13 60 3b 3e 6b 76 b7 3d 17 91 26 be 8a a8 10 be
       0.18298368 0.08958133 -0.16266285 -0.14126793
000060 2b 72 6c be 14 36 7b 3e 50 ae 94 3e e5 02 5f 3e
       -0.23090427 0.24532348 0.2903924 0.21778448
000070 fa ca 9a 3d a0 50 4d 3d bc dc a2 3d fd 3b 82 bc
       0.07558246 0.050125718 0.07952258 -0.015897745
000080 13 97 4f be 94 95 4c 3e 9d 0f f4 bc 26 f3 31 3e
       -0.20272474 0.19978935 -0.029792601 0.1737791
000090 b4 4f 4c bd 19 e3 67 3d 3c 9e b2 be 31 3a 6d be
       -0.0498807 0.05661306 -0.34886348 -0.2316673
0000a0 92 58 34 bd e6 f6 3c 3e 28 52 b7 3d 54 7f 70 be
       -0.04402978 0.1845356 0.08951217 -0.23486072
0000b0 1f 22 9a bd b4 46 5a 3d 8d db 87 bd 05 e7 fa 3c
       -0.07526039 0.053290084 -0.06633673 0.030627737
0000c0 d6 1f b9 bc fc 0c c1 bc ea 77 af 3b e5 6d 84 bd
       -0.022598188 -0.023565762 0.005354871 -0.06466273
0000d0 34 fc 35 3d df 1b ae bc ad 1d 8a 3e 9c df da bd
       0.044429973 -0.021253524 0.26975766 -0.10687181
0000e0 c8 6c 01 bd 2d ab d8 3d 30 34 6c be 92 2b 43 3e
       -0.031597883 0.10579524 -0.23066783 0.1905959
0000f0 81 14 ce 3d 90 97 87 bd 31 dc 68 3e 6e 69 9a 3e
       0.100625046 -0.06620705 0.22740246 0.3015856
000100 05 e2 d8 bc 0a 77 32 be 4c fe 0a bd 21 37 70 3e
       -0.026474962 -0.17428222 -0.033933923 0.2345853
000110 d0 2b 38 3e 6e 8c 16 bd 8a a8 8b 3d c9 59 83 3c
       0.17985463 -0.036755018 0.06819256 0.016034024
000120 c7 50 83 be a8 6e 69 3e ea ef 8d be 72 ad 30 be
       -0.25647566 0.22796118 -0.27722102 -0.17253664
000130 cc 16 f4 bd 72 71 a8 bd f5 d7 5f 3d c4 98 a2 bc
       -0.11918411 -0.08224763 0.054649312 -0.019848235
000140 ec 25 9d 3e 7f 5f 6f 3e 58 c6 f8 3b 2d 23 86 bd
       0.30692995 0.23376273 0.007592004 -0.06549678
000150 f2 e0 56 3e 19 d9 94 3c 05 9d f7 3c 44 d3 6c 3e
       0.20984247 0.018169926 0.03022624 0.23127466
000160 46 49 78 3d eb 08 0f 3e 34 a4 2e be c8 d5 04 bd
       0.060616754 0.13968246 -0.17054826 -0.03243044
000170 ca e9 2b be 92 19 a1 3e 1b bd 70 bd 3f c7 4f be
       -0.16788402 0.3146482 -0.058774095 -0.2029085
000180 c0 26 ba 3c cf c1 6c be 14 3a 16 3e e0 99 8d bc
       0.022723556 -0.23120807 0.14670593 -0.017285287
000190 15 0a 74 be c5 53 03 3e 4a 14 65 be 48 61 3a 3e
       -0.23831971 0.12824924 -0.22371021 0.18201172
0001a0 23 c3 17 be 97 8c 11 bc 0f 8a 99 bd 82 64 7d be
       -0.14820533 -0.008883617 -0.07497036 -0.24745372
0001b0 ab c4 82 ba 85 88 ee bd 71 14 83 bc 3c 04 4b 3e
       -0.0009976825 -0.11647133 -0.016000958 0.19825834
0001c0 4a 54 4a 3e fb 13 56 3e 18 48 b0 3d 69 42 c4 bd
       0.19758716 0.2090606 0.08607501 -0.09582979
0001d0 95 2a 36 be a0 90 96 3e 13 f0 8a 3d de 81 28 be
       -0.17789681 0.29407215 0.06784072 -0.1645579
0001e0 ee d9 91 bd bb f7 46 3e 93 d2 6d be 28 79 47 3e
       -0.07121645 0.19430439 -0.23224859 0.19479811
0001f0 77 12 41 3e 01 bc 11 be 99 d2 61 3e 31 98 90 bd
       0.188547 -0.14231874 0.22052993 -0.07060278
000200 f7 d9 0b be c6 4b 4d 3e 45 3e 56 be 76 49 37 be
       -0.13657366 0.20048437 -0.20922191 -0.17899117
000210 07 fb 55 bd ff 73 85 bd 8a 7a 89 be 8b 5c 8e bd
       -0.05224135 -0.06516265 -0.26851302 -0.06951245
000220 8a 1d 64 bd 99 0c ee bd d1 60 84 3d e0 93 f1 bd
       -0.055692233 -0.116234966 0.06463779 -0.11795783
000230 c3 f2 c7 3a 0a 01 96 bd c8 22 33 3e 83 ce a0 bc
       0.0015254844 -0.07324417 0.17493737 -0.019629722
000240 40 9f 85 3d 40 f2 2b be 6a d6 44 3e a1 ff d0 3d
       0.06524515 -0.1679163 0.19222417 0.10205007
000250 41 5f 86 3e 26 f2 0d be d7 b7 08 be 04 70 af bd
       0.26244548 -0.13861904 -0.1335138 -0.08566287
000260 1e c0 be bc d1 b8 e7 3c a3 a5 b8 bc 39 ea 59 3d
       -0.023284968 0.02828637 -0.02253992 0.053201888
000270 2d 95 4c 3d c2 52 46 3e f1 9d 7c be 7c 6a 1c be
       0.049946953 0.19367507 -0.24669625 -0.15274996
000280 4f 85 a4 bd a4 ae ab 3e 12 17 b8 bd 8a d1 e9 3d
       -0.08033239 0.33531678 -0.08988775 0.114169195
000290 65 f8 44 3d 14 68 03 3e e9 ee 1f 3d c6 3b 00 be
       0.04808845 0.12832671 0.0390462 -0.12522802
0002a0 f2 22 0d 3e 82 8e d0 bd 30 b0 03 bd fa 99 d9 bd
       0.13782862 -0.10183431 -0.032150447 -0.10625072
0002b0 41 34 e1 bd e7 53 07 3e 7e bf fc 3d 42 2c b1 ba
       -0.10996295 0.132156 0.12341212 -0.0013517218
0002c0 55 66 07 3e 09 b9 f4 3d 7e 95 fd 3d 01 fe c0 3d
       0.1322263 0.11949355 0.12382029 0.094234474
0002d0 37 e7 0f 3e be f8 27 3e 46 c6 71 3c 55 e2 3f 3e
       0.14053045 0.16403481 0.014756745 0.18738683
0002e0 36 be 17 bd f9 03 21 be 93 e5 45 3d 9e 38 80 be
       -0.037046634 -0.15724172 0.048314642 -0.25043195
0002f0 15 c9 e7 3d 90 73 a5 be a5 bd c8 bd 6e 7e 43 be
       0.1131765 -0.3231473 -0.09801797 -0.19091198
000300 3b a3 bb bd f5 22 23 be 62 ed ad bd fc 95 3a 3d
       -0.09161993 -0.15931304 -0.08492543 0.045553192
000310 d8 99 50 bd 9d ca f3 3c 9c cb 55 3d 11 5f 97 be
       -0.050927967 0.0297597 0.05219613 -0.29564717
000320 66 f9 3c be 25 22 57 be 9b 07 f7 3d 3a 9b 86 bb
       -0.18454513 -0.21009119 0.120619975 -0.00410786
000330 28 ca 23 be 2c bc 07 be 65 bf 99 bd 81 a0 fe 3d
       -0.15995085 -0.13255376 -0.07507209 0.124329574
000340 b7 0c e7 3d 36 53 79 3e 4b c9 b4 3c d8 4f 87 bd
       0.11281722 0.24348149 0.02206864 -0.06607026
000350 ec b4 1c 3b 9b 4e d1 bd e8 f2 65 be 94 6c 7b be
       0.0023911549 -0.10220071 -0.22455943 -0.24553138
000360 02 60 07 3c 1c ac fe 3d ad 4d ef 3d c9 fb 32 be
       0.008262636 0.12435171 0.11684737 -0.17478861
000370 79 4e 3d bd a1 d7 51 3d 6e 2a 4c be 46 f3 91 be
       -0.046217415 0.05123103 -0.1993806 -0.28505915
000380 4a 70 6d be 65 9e 2a 3d f3 d1 8a ba 5d cb 9f 3d
       -0.23187366 0.041654963 -0.0010591134 0.0780246
000390 82 37 72 bd a7 9a 3d be 48 d4 19 3e ba 90 ea bd
       -0.059134968 -0.18516026 0.15022385 -0.11453386
0003a0 07 2f 55 3e 27 92 43 bd 71 3d a1 3e 80 fc 12 3e
       0.20818721 -0.047746804 0.3149219 0.14354134
0003b0 64 6d b1 bb 08 fa 1e 3d ad 6f 92 3b 13 9b 33 be
       -0.0054146517 0.038812667 0.004468879 -0.17539625
0003c0 f1 d9 84 be 36 fe 36 3d 2e 61 27 3e 8c c2 34 3c
       -0.25947526 0.04467603 0.16345665 0.011032712
0003d0 62 b4 98 be b4 c2 24 be 6b 44 18 bd 1f fc 57 3e
       -0.2982512 -0.16089898 -0.037174623 0.2109227
0003e0 e9 af 16 be dd 1b 20 3e d4 f0 f2 3c 99 4d f9 bd
       -0.14715542 0.15635629 0.029655851 -0.12173004
0003f0 cb d6 ec 3d 02 3c 08 bd 97 a4 6b 3e 66 00 26 3e
       0.11564406 -0.033260353 0.23012005 0.1621109

layer1.0.fc2.bias f4 [16]
000000 7a 67 96 be 05 19 9d 3c d9 23 1a 3d 25 25 97 be
       -0.2937582 0.01917697 0.037631843 -0.29520527
000010 ef 8a 26 3e b1 66 e3 3d 52 2e 8c bd 32 0d 16 be
       0.16263936 0.11103571 -0.068447724 -0.14653471
000020 e4 97 12 3e b4 39 89 3e d6 56 b4 bd bb 2c 90 3d
       0.14315754 0.26801836 -0.08805625 0.07039782
000030 44 cb 2b 3e 11 3c 2d bd c5 70 ae 3e 00 82 4c be
       0.16776758 -0.042293612 0.3407041 -0.19971466

layer1.0.bn2.weight f4 [16]
000000 41 92 88 3f 62 cc 8c 3f b3 65 6d 3f 5d 4a 7d 3f
       1.0669633 1.0999873 0.92733306 0.98941594
000010 b3 8e 79 3f 54 4a 8e 3f e8 71 6e 3f 66 4d 86 3f
       0.97483367 1.1116433 0.9314256 1.049237
000020 ce 33 76 3f 82 f3 6c 3f e0 a4 82 3f fc 0d 6a 3f
       0.961728 0.92559063 1.0206566 0.9142759
000030 d4 32 72 3f e1 83 78 3f 61 9c 80 3f 59 f4 75 3f
       0.9460881 0.9707623 1.0047723 0.9607597

layer1.0.bn2.bias f4 [16]
000000 3f 08 97 bc 91 88 a7 3d a5 59 e9 3c 70 c1 d3 bd
       -0.01843655 0.08180345 0.028485129 -0.1033963
000010 33 45 b9 3c a6 7c 17 3e 10 98 77 bc 3c 33 0b 3d
       0.022616005 0.14793643 -0.015111938 0.033984408
000020 de bc 18 3d 27 b2 35 3d af 96 ff 3d 25 0f ea bb
       0.037289493 0.044359352 0.124799125 -0.0071429187
000030 05 0c 18 bd b0 52 2a bd 79 ac b4 bb a8 11 c1 3c
       -0.037120838 -0.041582763 -0.0055137244 0.02356799

layer1.0.bn2.running_mean f4 [16]
000000 12 32 14 bf 1b df ad 3e 3a be 48 be ee c1 48 bd
       -0.578889 0.33959278 -0.19603816 -0.04901307
000010 b9 a3 4e bd 08 af 01 3f 2e 7c b8 be ee 9d 1f 3e
       -0.050449107 0.506577 -0.36032242 0.15587589
000020 8c 0e 5f be a3 ee 8c 3e 05 32 92 3d 8d fc e4 3d
       -0.21782893 0.27525815 0.07138447 0.11180983
000030 4c 73 91 be dd 7c 89 be 8b 0c d3 3e ff f4 62 be
       -0.28408277 -0.26853076 0.41220507 -0.22163771

layer1.0.bn2.running_var f4 [16]
000000 ac 29 3b 3e af b9 73 3d e1 9d a9 3e bf d5 80 3e
       0.18277615 0.059503254 0.33128265 0.25163075
000010 32 57 ba 3d 87 58 2b 3e eb 97 20 3e 48 cc 79 3e
       0.090986624 0.16732989 0.15682952 0.24394333
000020 50 4c 20 3e f7 6b 0e 3e 39 a1 2c 3e 8b 93 6e 3e
       0.15654111 0.13908373 0.16858377 0.2329847
000030 ba ce f3 3d 7f 81 ad 3e 01 8e 20 3e 8b 4a 1d 3e
       0.11904664 0.3388786 0.1567917 0.15360467

layer1.0.shortcut.0.weight f4 [16, 5]
000000 d1 e3 5e be 64 d4 3d be 6b f6 06 be f8 42 d3 be
       -0.21766593 -0.18538052 -0.13179938 -0.4126203
000010 f7 79 ea bd ef ca 76 3e 4d e1 70 bd 70 83 e6 bd
       -0.11449044 0.2410085 -0.058808614 -0.112555385
000020 d0 7e 09 bf 23 1b b5 3d ca 8e d5 3e 50 14 aa 3e
       -0.53709126 0.088430665 0.41710502 0.33218622
000030 2f 01 3f 3e 9f cf d4 be ab b4 ad be e1 06 fa 3a
       0.18652795 -0.41564652 -0.339269 0.0019075536
000040 f0 f1 b0 be 07 de 6e 3e bb 7f 18 be 47 29 65 bd
       -0.34559584 0.23326884 -0.14892475 -0.05594757
000050 db 7f ba 3e 36 a6 89 3d 5f 88 2e be 58 73 b7 bd
       0.3642567 0.06721155 -0.17044209 -0.08957547
000060 e3 4a 8e 3e 53 d3 61 be b3 10 92 3e ae 80 91 3e
       0.2779151 -0.2205327 0.28528365 0.28418487
000070 79 83 9e be 40 35 aa 3e ef a4 72 be 70 1b c3 be
       -0.3095968 0.33243752 -0.2369573 -0.3810687
000080 c8 e0 83 be 39 08 09 3e a8 cd c8 3d cd 7b 89 3e
       -0.25757432 0.13382043 0.09804851 0.26852265
000090 8f d9 8a bd 05 89 51 3e 36 ab ba 3d 20 e4 a9 be
       -0.06779777 0.20462425 0.09114687 -0.33181858
0000a0 2a 54 c3 3e fc 05 0e be 33 f7 88 3e cf 31 a9 bd
       0.3815015 -0.1386947 0.26751098 -0.08261453
0000b0 48 6a 6a be 35 15 b1 bd 27 63 e5 3e 84 f9 43 3d
       -0.22892106 -0.08646623 0.4480221 0.04784538
0000c0 6d df 49 3c 23 56 10 be d9 8b 56 3e a3 67 fb 3e
       0.012321335 -0.14095359 0.20951785 0.49102506
0000d0 a2 c9 79 3d 97 fd ca bd 81 a0 33 be 77 48 59 be
       0.060983308 -0.0991165 -0.17541696 -0.2121905
0000e0 3b d4 c9 3e 05 4a 87 3e eb 65 78 be 81 d0 a3 be
       0.39419731 0.2642366 -0.24257629 -0.31995013
0000f0 9d dc 6b ba 4c a0 a1 be ab 77 8e 3e e2 66 af be
       -0.00089974125 -0.3156761 0.27825674 -0.3425818
000100 68 ef 0e be c2 1e 84 3e 98 83 80 bd cc 5d 27 3e
       -0.13958514 0.25804716 -0.062750995 0.16344374
000110 28 b5 cb 3d d4 86 23 3e ab a8 c7 be 90 ad 33 3e
       0.09946662 0.15969402 -0.3899587 0.17546678
000120 5c b7 8c be f7 d5 c8 be 38 67 00 3d d5 41 cf 3e
       -0.27483642 -0.39225742 0.031348437 0.40479913
000130 ed 1a a7 3e 83 07 c6 3d 1e 31 93 bd fd f2 72 bd
       0.3263773 0.096694015 -0.07187103 -0.059313763

layer1.0.shortcut.0.bias f4 [16]
000000 28 00 7e 3d 0d dc 92 be 41 06 cb 3b fd b3 83 be
       0.062011868 -0.2868351 0.006195814 -0.25723258
000010 90 08 f2 be 62 1e 6c 3d 28 30 c9 bd 18 b6 a8 3e
       -0.47272158 0.057646163 -0.09823638 0.32951427
000020 e0 fe 81 3e 75 32 f3 3e 0e f2 8e 3e 91 5a 2a be
       0.25389767 0.47499433 0.27919048 -0.16636111
000030 10 5e d3 be c8 3a 39 be c8 1b c0 3e 4f 42 72 3d
       -0.41282701 -0.1808883 0.37521195 0.059145268

layer1.0.shortcut.1.weight f4 [16]
000000 4b 23 73 3f f9 86 85 3f eb f4 83 3f 38 2b 71 3f
       0.9497573 1.0431815 1.0309118 0.9420657
000010 f3 3f 77 3f 7f 37 7f 3f 98 ef 80 3f 30 a6 80 3f
       0.96581954 0.99694055 1.0073118 1.0050716
000020 53 24 87 3f 85 ad 89 3f 58 44 82 3f 91 2f 86 3f
       1.055796 1.0756079 1.0177107 1.0483266
000030 af 7a 6e 3f 72 08 7a 3f e3 ab 79 3f a3 65 83 3f
       0.9315595 0.97669137 0.97527903 1.0265392

layer1.0.shortcut.1.bias f4 [16]
000000 3f 08 97 bc 91 88 a7 3d a5 59 e9 3c 70 c1 d3 bd
       -0.01843655 0.08180345 0.028485129 -0.1033963
000010 33 45 b9 3c a6 7c 17 3e 10 98 77 bc 3c 33 0b 3d
       0.022616005 0.14793643 -0.015111938 0.033984408
000020 de bc 18 3d 27 b2 35 3d af 96 ff 3d 25 0f ea bb
       0.037289493 0.044359352 0.124799125 -0.0071429187
000030 05 0c 18 bd b0 52 2a bd 79 ac b4 bb a8 11 c1 3c
       -0.037120838 -0.041582763 -0.0055137244 0.02356799

layer1.0.shortcut.1.running_mean f4 [16]
000000 b7 ee 16 be 2e 07 29 bd bc a0 d6 3e 68 0e 84 be
       -0.147395 -0.041266613 0.41919506 -0.2579224
000010 ff 96 da bd 7a 56 35 be bf 69 a6 be fb 89 18 3f
       -0.106733315 -0.1770877 -0.32502553 0.5958554
000020 d4 a2 21 3f 6f a9 c4 3e 3b e2 f7 3e 87 cd c5 be
       0.6313908 0.38410518 0.48414788 -0.38633367
000030 57 43 d5 be bb 04 91 3d b3 31 f2 bb 42 ce ea 3e
       -0.4165294 0.070809804 -0.0073911785 0.45860487

layer1.0.shortcut.1.running_var f4 [16]
000000 15 12 6a 3e bf 48 9c 3e 17 68 d7 3e d6 d5 4d 3e
       0.2285846 0.3052425 0.42071602 0.20101103
000010 c4 5f eb 3d 20 50 c1 3e aa 85 6e 3e 45 d5 22 3e
       0.11492875 0.37756443 0.23293176 0.15901668
000020 4e 4f 14 3e 83 d4 63 3e 44 a9 91 3e 77 96 be 3e
       0.14483377 0.22249036 0.28449452 0.3722417
000030 1d bf 9f 3e 8e 33 87 3d 41 e6 82 3e 02 8c fd 3d
       0.31200495 0.0660163 0.25566295 0.1238022

layer1.1.fc1.weight f4 [16, 16]
000000 e9 e3 ed bc 20 1b 86 bc 37 ff 4a bd 92 8a 72 be
       -0.02903934 -0.016370356 -0.049559798 -0.23685673
000010 aa 01 0f bd 35 91 9e be 1c 2b 4f bd 94 51 51 be
       -0.034913696 -0.3097016 -0.05057822 -0.20441276
000020 d5 0e 1a be 57 b0 91 3d 30 68 30 be b2 19 83 be
       -0.1504472 0.07113712 -0.17227244 -0.2560554
000030 67 e7 50 3d 67 04 d7 3c 27 2b 99 be 31 b6 11 bd
       0.051001932 0.026247216 -0.29915735 -0.035574142
000040 15 30 21 3e 46 8b 82 be e6 80 51 3d 83 e1 9c bd
       0.15740998 -0.25496882 0.051148318 -0.076602004
000050 2c 57 89 be 83 02 e4 bd 8e 8f 11 be 62 b9 52 3d
       -0.2682432 -0.111332916 -0.14214918 0.051446326
000060 68 a3 c7 bd ac 7b 5b 3b c2 6e 69 3e 2a da 61 3d
       -0.09747964 0.0033490462 0.22796157 0.055139698
000070 f4 b0 c4 3d 60 d4 bb bd cd 6f 36 be 9e 1f 8c 3e
       0.09604064 -0.09171367 -0.17816086 0.27367872
000080 b0 14 90 be a1 06 84 3e 80 24 d6 bb 01 34 eb 3d
       -0.28140783 0.25786307 -0.006535113 0.11484528
000090 77 a0 b7 3c ea 7e 6c bd 22 b2 06 3e 12 98 89 3e
       0.022415383 -0.057738222 0.1315389 0.26873833
0000a0 e9 cc 08 be f7 f7 da 3d 92 20 f3 bd 14 41 fe bd
       -0.13359417 0.10691827 -0.11871447 -0.124147564
0000b0 50 33 b0 3c a2 0e ac 3d 6a f6 46 3e 6d c6 10 3e
       0.021508843 0.084012285 0.19429937 0.14138193
0000c0 98 87 7e 3e ff a8 82 be 1c c0 ae bd 07 25 97 3d
       0.24856412 -0.2551956 -0.08532736 0.07380109
0000d0 2f 0e ba 3d 1b 77 3e be d3 16 38 3e 5c 7a 0b 3e
       0.090847366 -0.18600123 0.17977457 0.13620895
0000e0 f1 c5 80 3c 55 7d e0 3d 5f 39 10 bd b7 c5 d2 3d
       0.015719386 0.10961405 -0.035210963 0.10291617
0000f0 50 77 8c 3e a5 49 33 3e 92 04 78 be ca 56 eb bd
       0.27434778 0.17508562 -0.24220493 -0.11491163
000100 13 3d e9 3c b3 17 20 3e da f6 57 bd cc 9d 0d 3e
       0.028471505 0.1563404 -0.05272565 0.13829726
000110 4b 5b 8a 3d 40 c1 9c 3e cc ea 91 bd 6c b8 1b 3e
       0.06755694 0.30616188 -0.07124862 0.1520707
000120 29 63 29 be b6 13 69 3e 50 ea 5c 3e c3 e5 51 3d
       -0.16541733 0.22761425 0.21573758 0.05124451
000130 59 aa c8 bd 99 c1 c1 3e fa 07 5d 3e 2e 11 12 be
       -0.09798116 0.37843016 0.21585074 -0.14264366
000140 67 70 3d 3e ac cd aa 3e 7d eb 3d 3e e7 02 35 3c
       0.1849991 0.3336004 0.18546863 0.011048055
000150 c6 f7 49 bd 8f 6c 29 3e af 27 bb bd 73 d8 07 3e
       -0.04930856 0.16545318 -0.091384284 0.13266163
000160 b9 f1 f5 3d 48 cd 40 3e 7d 45 3e be ff fb 53 3d
       0.120089956 0.18828309 -0.18581195 0.051753994
000170 16 37 14 be fc eb f8 bd 1d 24 2c be 27 cd ac 3d
       -0.14474139 -0.121543854 -0.16810651 0.08437567
000180 78 b9 9d be 7f 6b 37 be 55 6f d3 3d ce 75 3c bd
       -0.30805564 -0.179121 0.10323969 -0.046010785
000190 77 43 89 be 9c 4a d0 3d 78 f2 ac be 6f d9 29 3e
       -0.26809284 0.101704806 -0.3377874 0.1658685
0001a0 ed b6 82 be 03 2b 0d 3d b0 0f 89 3d 58 c3 4b 3c
       -0.25530186 0.034464847 0.06692445 0.01243671
0001b0 3c a8 5d be df d4 61 bd e1 83 28 3d 2d 37 08 3e
       -0.21646208 -0.05513465 0.041141395 0.13302298
0001c0 70 9b be bd 10 9d 05 bd 35 c3 82 bd ee 21 62 bd
       -0.09306991 -0.03262049 -0.06384889 -0.05520814
0001d0 93 d3 c4 bd 5e 51 fa bd 8c 3c 1c 3d ce 52 75 3e
       -0.09610667 -0.12222551 0.03814368 0.23957369
0001e0 bb b5 d2 bd e5 45 fb bd ca 18 a3 bb 51 43 17 be
       -0.102885686 -0.12269191 -0.0049773203 -0.14771773
0001f0 f0 c0 a6 bd be bf 6e be 27 67 ec bd 4b bd 18 bc
       -0.08142269 -0.23315331 -0.11543112 -0.009322475
000200 88 18 dc bd dc c7 36 bd 8d a1 8a 3e e5 8b 73 3d
       -0.107468665 -0.044624195 0.27076378 0.059459586
000210 2d 28 80 3e 93 89 0d 3c 67 ec 91 3d 58 54 05 3e
       0.25030652 0.008638757 0.07125168 0.13020456
000220 50 6e e1 3d b9 02 8f 3e 1e 3b d8 3d f8 45 90 3e
       0.110073686 0.27931765 0.10558151 0.28178382
000230 20 cf 2b 3e 77 52 13 be a6 08 73 3e 11 f6 b8 3d
       0.1677823 -0.14386927 0.23733768 0.090313084
000240 ab 86 41 be f9 2f 9b 3e 77 f9 75 3e 40 23 86 bc
       -0.18899028 0.30310038 0.24020945 -0.01637423
000250 22 fa 5a bd 1e ed 99 3d ee c5 8c 3d ba f6 61 bc
       -0.0534612 0.0751593 0.068736896 -0.013791734
000260 8f 2a 03 3e f4 9c 8d 3e da 25 e4 3d 22 99 c1 3d
       0.12809204 0.27658808 0.11140032 0.09453036
000270 1d f3 8b 3d 38 a8 b8 3d 3f 15 e9 3d 00 7f 17 be
       0.068334796 0.0901646 0.113810055 -0.1479454
000280 b5 08 66 3e 9b 0c 26 3d 58 03 62 3e 9d e2 62 3d
       0.22464259 0.040539365 0.22071588 0.055391897
000290 0f b1 59 3e 8e 77 8c 3d 63 61 a7 bd dc 7f 59 3b
       0.21258949 0.06858741 -0.08172872 0.0033187782
0002a0 6d d5 ed 3d d4 bc 68 3d 52 6f 55 3e 12 05 86 ba
       0.11612973 0.056820706 0.20843247 -0.00102249
0002b0 79 5c 2d 3c 7b 39 e3 3d c3 c4 50 3d 83 02 51 3e
       0.010581129 0.11094948 0.050968897 0.20411114
0002c0 47 f6 61 be e4 94 35 be 5c 75 e2 bc 4f c3 1e be
       -0.22066604 -0.17732579 -0.027643852 -0.15504192
0002d0 f7 72 0b be 5d 4d 10 3e bb e6 ac be 7f ca 9b be
       -0.13618074 0.14092012 -0.33769783 -0.3042793
0002e0 73 12 22 3e cb e5 67 be b8 7e 14 be 13 9e 03 bd
       0.1582735 -0.22646253 -0.14501464 -0.032133173
0002f0 b6 4f 0b 3e 8c 95 8c bd 62 78 73 bd 42 3a 6c 3e
       0.13604626 -0.06864461 -0.059440978 0.23069099
000300 52 dc 56 3d 37 96 cd 3d 16 b6 21 be 9f 8f 06 be
       0.052456208 0.10038417 -0.15792117 -0.13140725
000310 b4 dc e8 3d 02 4f 7a 3e f4 01 1d 3e d3 95 47 bc
       0.11370221 0.24444202 0.15332776 -0.012181717
000320 73 55 ce bd 3c 65 8a 3e 28 c9 7c 3e a6 85 06 3e
       -0.10074892 0.2703036 0.2468611 0.1313692
000330 a9 41 a0 3e ef 40 35 3d b0 0d 18 bd f1 c4 a7 3e
       0.31300095 0.04425138 -0.03712243 0.32767442
000340 46 4b b3 3a 55 4b 00 bd 3c f2 83 3d 53 95 1b 3e
       0.001367905 -0.031321842 0.06442687 0.15193681
000350 80 e9 7f be 01 15 ea 3c 3f fc 1f be 7c fe 44 3e
       -0.24991417 0.028574469 -0.15623568 0.19237703
000360 33 0f 8e be c4 33 1b bd 00 ea fe 3c e7 f3 a1 be
       -0.2774597 -0.037891164 0.03111744 -0.31631395
000370 f1 4e 58 be 21 66 d8 bc fb 16 a4 3d bb 03 46 be
       -0.21123864 -0.026415886 0.08012196 -0.1933736
000380 56 cd a9 3c ee 0c d7 bc fe 26 57 be b6 9a d6 3d
       0.020727795 -0.026251283 -0.21010968 0.104787275
000390 17 d2 8f be f6 5e 23 be 9f bc 89 3e b1 58 4e 3e
       -0.28089973 -0.15954193 0.2690172 0.2015102
0003a0 a1 de 5e bd d6 fe e0 bc 00 64 7e bd 46 4b 83 3d
       -0.054411534 -0.027465265 -0.062107086 0.06410842
0003b0 aa 24 ee 3d ca c7 c8 3d 77 87 45 be bd 68 00 bd
       0.11628087 0.09803732 -0.19289957 -0.031349886
0003c0 86 04 96 be f2 a5 0f 3e 74 ec af bd 65 f3 a6 3d
       -0.29300326 0.14028147 -0.08590022 0.081518926
0003d0 35 c7 10 be 8f 24 c1 bd 08 b3 5a 3e 42 f6 9f 3e
       -0.14138491 -0.09430801 0.21357358 0.31242567
0003e0 b8 75 83 be 48 83 17 be 4b 2b f1 bd 8f 48 52 be
       -0.2567575 -0.14796174 -0.117758356 -0.20535491
0003f0 dc 0c 38 be 26 5f 28 3e ea ef 47 be 23 4a bd 3c
       -0.17973655 0.16442546 -0.19525114 0.02310664

layer1.1.fc1.bias f4 [16]
000000 d1 66 3d be c0 e6 a7 bc 1a d6 69 bd f1 81 3a 3e
       -0.18496253 -0.020495772 -0.05708895 0.18213631
000010 d5 20 f0 bd eb 2f 4e bc ce 17 87 b9 c5 4f da bd
       -0.11725012 -0.012584667 -0.00025766942 -0.10659746
000020 59 69 61 3e f9 e1 ba 3d c3 f6 22 be 0c 5c 0c bd
       0.22012843 0.09125132 -0.15914445 -0.03426747
000030 5c ee 90 3d 4d 68 09 3d 98 bb bf bd 8b d4 51 bd
       0.070767134 0.033546735 -0.093619525 -0.051228087

layer1.1.bn1.weight f4 [16]
000000 c0 7a 85 3f 30 61 83 3f dc ed 76 3f 9d a3 83 3f
       1.0428085 1.0264034 0.96456695 1.0284306
000010 1a 95 72 3f cc d0 90 3f 6e 40 75 3f 98 72 79 3f
       0.9475876 1.131372 0.95801437 0.9744048
000020 5b f7 75 3f e1 43 79 3f 14 67 7a 3f 96 74 7d 3f
       0.9608056 0.973692 0.97813535 0.9900602
000030 72 82 84 3f aa d7 7d 3f 3f ba 7e 3f 10 30 81 3f
       1.0352309 0.991572 0.9950294 1.0092793

layer1.1.bn1.bias f4 [16]
000000 c8 fe 00 3e a7 c4 37 3c 67 b4 1a 3c e4 19 41 3d
       0.12597191 0.011216319 0.009442425 0.04714383
000010 94 78 d0 bd fc 50 05 3e 5a 60 99 3c 3b 8c 96 3c
       -0.101792485 0.13019174 0.018722702 0.018377414
000020 e0 ed 7f 3b 77 73 c8 3d dd c5 20 3c 9b 78 33 bd
       0.0039051697 0.09787648 0.009812799 -0.04381619
000030 19 29 9a 3d 03 bb bc bd 32 c4 c3 bb 33 ea 02 be
       0.0752737 -0.09215357 -0.005974316 -0.12784652

layer1.1.bn1.running_mean f4 [16]
000000 81 47 9c bf df 88 6a be 52 8f a0 3e 8f 2b de 3e
       -1.2209321 -0.22903775 0.31359345 0.43392608
000010 97 61 4e 3f 42 8e db 3e ab f6 1b bf de 52 27 bf
       0.8061766 0.42881972 -0.6092326 -0.6536082
000020 7d df 9f 3f 2b bc 57 3f d9 4f 38 3f c5 ed 59 bf
       1.2490078 0.84271497 0.7199684 -0.8512843
000030 95 fb 8a 3f 09 c4 fd be d8 99 4a be a4 c3 f6 be
       1.0858027 -0.49563625 -0.19785249 -0.48196137

layer1.1.bn1.running_var f4 [16]
000000 9f 88 17 3f cf e7 85 3e f2 17 4b 3e ee 95 18 3f
       0.5919284 0.26153418 0.19833353 0.59603775
000010 af 70 53 3f 62 d2 01 3f 14 0f 06 3f f2 92 ff 3e
       0.82593817 0.50711644 0.5236676 0.49916798
000020 b5 24 04 3f ef 9a 60 3f c6 93 db 3e f1 6c e3 3e
       0.5161851 0.8773641 0.4288618 0.44419053
000030 31 a1 02 3f 1e aa 85 3e 3a 62 45 3f c5 cd 4b 3f
       0.5102721 0.26106352 0.77103007 0.79610854

layer1.1.fc2.weight f4 [16, 16]
000000 23 40 05 3e 43 f8 31 3e 25 25 43 be e4 1e 2e bc
       0.13012747 0.1737986 -0.19057138 -0.010627482
000010 7a b9 0a be 86 47 4e be d8 8d 7c be b5 3f 02 3d
       -0.13547316 -0.20144472 -0.24663484 0.031799037
000020 4c f4 84 3d 34 95 70 be dc e6 c6 bd 96 7b 9d bc
       0.064919084 -0.23494416 -0.09712002 -0.01922397
000030 e9 b2 65 3d 4e 81 f2 bd 28 83 4c 3e 57 e2 1f be
       0.056078825 -0.11841069 0.19971907 -0.15613686
000040 f2 45 35 bd 5f 32 4d 3c 3f 41 f6 bc f1 77 67 bd
       -0.04425616 0.012524216 -0.030060409 -0.05651087
000050 f3 d8 67 3d b0 41 82 3e d3 4a 82 bd 0c 37 1a 3e
       0.056603383 0.2544074 -0.06361928 0.15060061
000060 9c 26 9b 3e 1f cf cd bd ec f8 a2 3d e7 c8 73 bd
       0.30302894 -0.10049271 0.07957634 -0.059517767
000070 21 da 81 3e 62 c8 c6 3c dc 55 10 be eb 3d a4 bd
       0.25361732 0.024265472 -0.14095253 -0.080196224
000080 b4 47 81 3e fd 30 f7 3d 37 b2 2d bd ce f4 9d be
       0.25250018 0.12069891 -0.042406287 -0.30850834
000090 21 14 48 be 77 6e 18 be b0 84 80 bd 53 98 f1 bd
       -0.19538929 -0.14885889 -0.06275308 -0.11796632
0000a0 36 bb c4 3d c3 80 85 be c6 22 0e 3e 96 4f e9 3d
       0.0960602 -0.260748 0.13880453 0.11392133
0000b0 07 61 a9 be b8 1c 5c bd f4 09 15 be f9 c1 bc 3d
       -0.33081838 -0.053738326 -0.14554578 0.09216685
0000c0 1d 53 19 bd 31 29 36 be 18 88 7b bd c4 91 c4 bd
       -0.03743278 -0.17789151 -0.061409086 -0.09598115
0000d0 b2 f2 89 bd f0 a4 4e 3e 24 b8 db bd 63 a4 ce 3b
       -0.067357436 0.20180106 -0.107284814 0.0063062175
0000e0 23 cd 42 be 9e 86 8a 3c 36 50 6a 3c 6e fa 7f 3d
       -0.19023566 0.016909894 0.01430135 0.062494688
0000f0 10 8e 9d 3d ac 0f 08 3e 45 2d 87 3d cb ce 5c 3e
       0.07693112 0.13287228 0.06600431 0.2156326
000100 73 22 71 be 20 fa 84 bb 48 3f 2d be 9a 4b b1 be
       -0.23548298 -0.0040581375 -0.16918671 -0.34627992
000110 91 57 85 3d ec f8 7b 39 8f 46 0f be b4 8a 59 be
       0.065108426 0.00024029956 -0.1399176 -0.21244317
000120 50 fa 0f 3e ad c5 4b 3e 53 11 37 3e 28 d0 71 3e
       0.1406033 0.19899626 0.17877702 0.23614562
000130 5d 47 0d be f7 2e 5f 3d 9d d0 b4 bd fb 6e 79 bd
       -0.13796754 0.05448815 -0.08828852 -0.060896855
000140 27 9a 0d be 5f 38 63 be 06 30 2f 3d 2c ff 03 3d
       -0.13828336 -0.22189473 0.042770408 0.032225773
000150 27 45 14 be 2a 85 a2 3e 62 2e bf bd ce 57 56 3c
       -0.14479505 0.3174222 -0.09335019 0.013082458
000160 71 12 7e bb 40 2e 2c 3e 39 3e 88 bb e9 c4 86 bd
       -0.0038768316 0.16814518 -0.004157808 -0.065805264
000170 b3 ed 10 3e a7 73 12 3c b8 10 61 bd 9c 7d 69 bd
       0.14153175 0.0089387065 -0.054947585 -0.057004556
000180 5e de 1f bd c2 ec 50 3e cf 46 2c 3e 96 68 5a be
       -0.039030425 0.20402816 0.16823886 -0.21328959
000190 09 61 a7 3d c6 5e a5 3e ea 4f e7 bd d8 d9 8c bd
       0.08172805 0.3229887 -0.11294539 -0.06877488
0001a0 96 d7 61 3e 20 53 43 bc f3 74 8a 3e 27 ee 4c 3d
       0.22054896 -0.011921674 0.2704235 0.050031807
0001b0 f6 a7 4c bd 4f b9 ce bd 8b 03 8b be 56 55 03 bd
       -0.049964868 -0.100939386 -0.2715114 -0.032063805
0001c0 5b 1b e7 bd c7 c3 d6 bd 9f 9c 08 3e 52 a3 29 3d
       -0.112845145 -0.1048656 0.13340996 0.04141552
0001d0 13 35 47 3e 9e 4a bc bd 99 3a 85 3d d2 51 8f 3e
       0.1945384 -0.091939196 0.06505317 0.2799211
0001e0 44 2a 8e 3d b8 56 0b 3e a8 95 f8 3d d9 ff 34 3e
       0.06941655 0.136073 0.1213792 0.17675723
0001f0 ea 82 a3 b9 16 f8 92 3e b2 6c 3b 3e b6 b2 b5 3d
       -0.0003118732 0.287049 0.18303183 0.08871977
000200 5e bc 06 3e e5 9a ca bd 8d 49 e7 bd f3 54 cc bd
       0.13157794 -0.09892825 -0.112933256 -0.0997714
000210 cf 41 39 be 08 c1 0b be d4 1d ea 3d 72 77 af 3d
       -0.1809151 -0.13647854 0.114314705 0.08567704
000220 02 38 a7 3d da 22 f8 3d a5 d4 2e be fa 24 84 3e
       0.081649795 0.121160224 -0.17073305 0.2580946
000230 f3 6e 20 be bc 9c e8 bd fd 91 9d be 5c 69 80 bd
       -0.15667324 -0.1135802 -0.30775443 -0.06270096
000240 99 5d 44 be 08 81 7f 3e bf d3 46 be 73 bc 01 3e
       -0.1917633 0.24951565 -0.19416712 0.12669544
000250 b7 fa cb bd b1 f9 a1 3e d7 36 8c 3e 17 3a ca 3d
       -0.099599294 0.31635812 0.2738559 0.09874361
000260 53 ab d7 3d 0a a7 ce 3c 88 0c a5 bc ec 97 c7 3d
       0.105307244 0.025226135 -0.020147577 0.09745774
000270 45 e7 39 3e 27 c7 12 3d 28 49 25 be 69 0f 33 bb
       0.18154629 0.035834458 -0.16141188 -0.0027322418
000280 64 5a 77 be 9c c9 06 3e fe ce 24 3e cd a1 33 be
       -0.24155575 0.13162845 0.16094586 -0.17542191
000290 1b 8c 23 3a e6 91 53 3d a5 67 86 3e 6b 65 68 be
       0.0006238834 0.05165281 0.2625095 -0.22694938
0002a0 0a 2d 43 be 08 5f 18 3e bc 53 57 be 42 89 99 3e
       -0.1906015 0.14880002 -0.21028036 0.29987532
0002b0 d2 db 23 be 56 5a 48 3e ab 3b 17 be c1 6e b2 bd
       -0.16001824 0.1956571 -0.14768855 -0.08712531
0002c0 5a 77 90 3c 74 1b 7c 3e c7 df e8 bd 66 e5 2a bd
       0.017635036 0.24619848 -0.11370807 -0.041722678
0002d0 9f f1 f3 3d 2d e5 2b be 08 05 44 3e b5 fe 58 be
       0.1191132 -0.16786642 0.19142544 -0.21190913
0002e0 7b b4 fc bc 04 0f 86 be d2 a6 af bb a6 3f d9 bd
       -0.030847779 -0.2618333 -0.0053604627 -0.10607843
0002f0 58 49 8c bd c7 e7 fb 3d 8d 36 a8 3d 66 71 68 bd
       -0.06849927 0.123000674 0.0821353 -0.05674877
000300 38 95 3d 3e 23 2e d4 bd 08 d3 92 3b f6 f1 01 3e
       0.18513954 -0.103603624 0.0044807233 0.12689957
000310 ab 99 c6 bd 2a ad 4d be 58 be 32 be fd cf 64 3d
       -0.096972786 -0.20085588 -0.17455423 0.055862416
000320 df 73 28 be 10 88 3d be 54 f0 99 bd b4 aa 0a be
       -0.16450451 -0.18508935 -0.07516542 -0.1354168
000330 66 c3 aa be 0f 11 a6 bc 6c 60 19 3e 4c d4 45 be
       -0.33352202 -0.020271806 0.14978188 -0.19319266
000340 5d 99 cc bc d1 bd 5d be 77 76 12 bd 97 07 d1 bd
       -0.024975473 -0.2165444 -0.035757508 -0.10206526
000350 87 27 e0 bc a1 08 22 3e b1 fb ca 3d 5b 6e 20 3d
       -0.027362598 0.15823604 0.099112876 0.039167743
000360 ce f0 a7 bd ad 45 5b 3e 60 96 d8 bc 4b da 8f 3e
       -0.08200227 0.21413298 -0.026438892 0.28096232
000370 a6 b6 71 3e ce 09 a1 bd e5 fd 2b be 24 fb a1 be
       0.23604831 -0.07863198 -0.16796072 -0.31636918
000380 8c a1 40 be c0 9d e8 bc 25 98 10 3e 55 d3 7e bc
       -0.18811625 -0.028395534 0.14120539 -0.015553315
000390 0b a0 33 be e6 ee e0 3d c1 1e 7c bd d0 53 7d 3e
       -0.1754152 0.10983066 -0.061552767 0.24739003
0003a0 6b f1 98 bb 6b b6 11 3d 78 2d 2a 3e 3a a2 98 bd
       -0.004667451 0.035574358 0.16618907 -0.07452817
0003b0 f0 5b 6d 3e 18 c9 bd bd 50 73 24 3e a8 86 a3 3e
       0.23179603 -0.09266871 0.16059613 0.31938672
0003c0 bb e5 cf 3d 39 5f 05 3e a3 60 83 bb 20 48 0e be
       0.101512395 0.13024606 -0.0040093227 -0.13894701
0003d0 e2 b0 09 be 3b 73 34 be 38 87 65 be 44 86 eb bd
       -0.13446382 -0.17622082 -0.22414863 -0.115002185
0003e0 3c ee 83 be 8f 12 6d be 62 95 e1 bd d9 90 0d bd
       -0.25767696 -0.23151611 -0.11014821 -0.034561966
0003f0 e0 c0 ad bc 8d 34 36 3e 67 7d fd bc f7 1b 6f be
       -0.021210134 0.17793484 -0.030943586 -0.23350511

layer1.1.fc2.bias f4 [16]
000000 75 b1 bc bb 4b 8f 74 3e 0c 0e 82 3e 7a 91 d2 bd
       -0.005758459 0.23882787 0.25401342 -0.10281654
000010 1e 97 d7 bd 02 c8 38 3d 51 ac 84 bd 51 bf 33 be
       -0.1052687 0.045112617 -0.06478179 -0.1755345
000020 ac df 09 be 5f 4b 30 bd a6 83 41 3d 5a c2 ad bd
       -0.1346423 -0.04304063 0.04724469 -0.08484335
000030 02 7a 3c 3e a8 c8 34 3e b4 31 6c be c5 5c 83 bd
       0.18405917 0.1765467 -0.23065835 -0.06414179

layer1.1.bn2.weight f4 [16]
000000 91 4d 8b 3f 82 26 8d 3f c4 80 80 3f 2a 27 7c 3f
       1.0883046 1.1027377 1.0039296 0.9849726
000010 23 aa 78 3f 4e a6 80 3f 1b 18 88 3f 57 a9 74 3f
       0.9713461 1.0050752 1.0632356 0.9557089
000020 a8 2b 95 3f a0 b4 7d 3f af 26 88 3f c7 2d 72 3f
       1.1653948 0.99103737 1.0636805 0.946011
000030 94 5b 80 3f 7d d7 67 3f b9 da 84 3f fa 27 7d 3f
       1.0027947 0.90563184 1.0379249 0.98889124

layer1.1.bn2.bias f4 [16]
000000 03 22 05 3d 4a dc 03 3d f9 3f 67 3a b9 d4 a7 bd
       0.03250314 0.032192506 0.00088214834 -0.081948705
000010 e4 c9 9e 3d 8a d8 e0 3d 50 04 f1 3d d7 02 25 bd
       0.07753351 0.109788015 0.11768401 -0.04028591
000020 e2 07 36 3e c9 5a b6 3d af 26 3a 3d 68 33 09 ba
       0.17776445 0.08904035 0.045447048 -0.00052337954
000030 85 e1 9a bc 28 55 a1 bd a6 c1 8d 3d 60 a5 33 bd
       -0.018906364 -0.078775704 0.06921701 -0.043858886

layer1.1.bn2.running_mean f4 [16]
000000 4d 61 93 be ad 3f f4 3e 17 24 c0 bd f0 51 9a bd
       -0.28785172 0.4770483 -0.093818836 -0.075351596
000010 51 76 b4 be cc c5 7f 3d ff fc e7 3d 66 73 b0 3e
       -0.35246518 0.062444493 0.11327552 0.34463042
000020 b5 d9 c3 be f5 c7 a2 3e f7 3d 6f bd 3b 03 69 be
       -0.38252035 0.3179318 -0.058408704 -0.22755139
000030 fd b9 86 be a9 12 4b 3e 90 eb 9b 3d 23 fb 12 bf
       -0.26313773 0.19831337 0.07613289 -0.57414454

layer1.1.bn2.running_var f4 [16]
000000 ec be 8b 3e e9 bf b9 3e 70 e0 a9 3e ae c1 7b 3d
       0.272941 0.36279228 0.33179045 0.061464004
000010 a3 bc c9 3e 5e d7 6e 3e 04 47 03 3f ac 02 92 3e
       0.3940173 0.23324344 0.51280236 0.28517663
000020 db 18 69 3e 8f ab 87 3e 78 0a 1a 3e 54 a6 1a 3e
       0.22763388 0.26498076 0.15043056 0.15102512
000030 31 d1 31 3f ad c1 c1 3e c5 86 71 3e 7e c0 c6 3e
       0.69459826 0.37843075 0.23586567 0.38818735

layer2.0.fc1.weight f4 [32, 16]
000000 de 34 1f 3e 45 e3 70 3e 37 9d ef bd cb 8d 0c 3e
       0.15547511 0.23524196 -0.11699908 0.13725965
000010 c8 6f 74 bc 7a 40 6b bd e3 3c 36 3e 6e d1 05 be
       -0.014919229 -0.057434537 0.17796664 -0.13068172
000020 e3 d1 97 3d 49 3f ec 3d 00 8a ad 3e c1 17 1a bd
       0.074130796 0.11535508 0.33894348 -0.03762031
000030 72 1a 81 3d f8 85 4d bd 8d bd 8e 3d 8c a6 4e be
       0.06303872 -0.05017659 0.06969748 -0.2018072
000040 b3 14 64 bd 5d 59 44 be 21 45 ed 3c eb 8e 8b 3d
       -0.055683803 -0.19174714 0.028963627 0.06814369
000050 a8 f9 33 3e 0a 95 96 be 9e 15 7f 3d 96 47 44 be
       0.17575705 -0.29410583 0.062276475 -0.19167933
000060 ed 93 43 be f8 3e 09 be ca f0 7b be f3 74 8e 3d
       -0.19099398 -0.13402927 -0.24603572 0.069559
000070 65 fd 22 bd 27 da 5d bb 30 56 37 3d 8f fb 66 3e
       -0.039792437 -0.0033851953 0.04475993 0.225569
000080 8c 55 83 be 94 81 8b 3b 8c 1c 4d 3e ec 9a f2 3d
       -0.25651205 0.0042573903 0.20030421 0.11845955
000090 ea 60 3b bd a9 88 12 3d 76 0f f8 bd 73 dd 92 be
       -0.04574672 0.03577486 -0.12112324 -0.28684577
0000a0 00 20 4f 3e cb ea 27 3d 09 56 9c 3d 55 26 43 be
       0.20227051 0.0409954 0.076335974 -0.19057591
0000b0 8a 18 e3 3d b7 b9 5a be 97 c5 18 be 73 43 0e 3e
       0.11088665 -0.21359907 -0.14919125 0.13892917
0000c0 91 d2 17 3e 83 a5 1e 3d ae bd d1 3d fd 8c 76 3d
       0.14826418 0.038732063 0.10241257 0.06019305
0000d0 b8 09 90 3d 7a 05 02 3d fc b3 70 3d 63 d2 73 3e
       0.07033104 0.031743504 0.058765396 0.23810725
0000e0 f5 7b 9d be cb a4 7a 3e a3 b5 7d bd 42 87 81 3c
       -0.30758634 0.24476926 -0.0619408 0.015811566
0000f0 c3 c9 dd 3d c0 d5 05 bd 46 8a 24 3e 1a 90 5f be
       0.108294986 -0.03267455 0.16068372 -0.21832314
000100 12 4d 23 3d 3d 71 05 be ff 00 f2 bc 37 f7 1d 3e
       0.03986842 -0.13031478 -0.02954149 0.15426336
000110 54 f9 27 3e 5d f5 14 3d 53 2b 7e be 19 b0 4c be
       0.16403705 0.03636681 -0.24821214 -0.19989051
000120 7d 1f 68 3e 00 ad 35 3d 7d 04 64 3e 52 b9 25 3e
       0.22668262 0.04435444 0.22267337 0.16183975
000130 82 06 9e bd 69 f2 32 3d 4d b8 4e bd b1 9c 42 be
       -0.07716085 0.04368821 -0.05046873 -0.19005086
000140 40 f6 d2 3c 14 60 e1 3d 5c 3e 89 3e 91 bc ad 3c
       0.025752187 0.110046536 0.2680539 0.02120808
000150 5e b2 1c 3d 88 95 2d 3e 49 6d 43 be dc 2f 4c bd
       0.03825604 0.16951573 -0.19084658 -0.04985033
000160 12 06 4a be fa a0 02 3e 43 4a 00 3e da bc 2c 3e
       -0.19728878 0.1275672 0.12528329 0.16868916
000170 6b 8e 19 3e e9 b8 1e be 79 d6 27 be df a3 4a bd
       0.14995734 -0.15500225 -0.16390409 -0.049472686
000180 ab c2 11 3d f7 fb 8d bd bd 67 17 be c5 95 06 3e
       0.03558604 -0.06932824 -0.14785667 0.1314307
000190 7d 9c fc bc 70 39 f8 bd 68 a9 01 bd f6 7f 80 be
       -0.030836338 -0.1212033 -0.0316557 -0.25097626
0001a0 36 85 1c 3c c3 0a 92 bd c4 0e a3 be a6 a7 a1 3d
       0.009553244 -0.07130959 -0.31847203 0.078933045
0001b0 b5 fc cd 3d 28 0c 49 be 0a 36 03 bd 10 84 8c 39
       0.10057966 -0.19633543 -0.032033958 0.00026801275
0001c0 11 d6 fc 3c c2 5f 56 be 0d 9b 9e 3d 1f 34 28 3e
       0.030863794 -0.20934966 0.07744417 0.16426133
0001d0 29 7c 13 be d1 33 6d be 5a ef 53 be 6e 5b bb bd
       -0.14402832 -0.23164298 -0.20696774 -0.09148298
0001e0 cd 24 4a 3e 0d 22 89 be 98 82 32 3e ff 11 7f bd
       0.19740601 -0.2678379 0.1743263 -0.06227302
0001f0 5c 84 d6 bd e5 30 d4 bc 9d 44 1f 3e 70 e0 85 be
       -0.10474464 -0.025902221 0.15553518 -0.26147795
000200 2d 6b 88 be 5e 7f d4 3d 39 5b 66 be 0d 01 de 3d
       -0.2664427 0.10375856 -0.22495736 0.10840044
000210 85 3a a9 3d 0e b8 7b 3d 6f 6b bb bc 98 fe 40 3e
       0.08263115 0.061454825 -0.022878377 0.1884712
000220 53 d4 78 bc 05 4a 57 3e 45 62 9c 3e b8 2c c1 bd
       -0.015187341 0.2102433 0.30543724 -0.094323575
000230 2b 89 0c 3d b9 dd e2 bd 05 6f dc 3d 8b 7e 6a 3e
       0.0343105 -0.110774465 0.10763363 0.22899835
000240 6f 31 82 be 6c 40 77 be d5 23 50 be b7 6c 53 be
       -0.2542834 -0.24145669 -0.20326169 -0.2064694
000250 f2 00 41 3e b4 06 32 3d 7d 9e 25 3d 4d fd d2 bd
       0.18848017 0.043463424 0.04043435 -0.103022195
000260 8c b7 97 be b7 fa c7 bd 56 ec 20 3e 33 42 83 bd
       -0.29632223 -0.09764617 0.15715155 -0.06409111
000270 13 9a 90 bd de 64 9d 3e 1a 77 1f 3e 82 f8 21 bd
       -0.07060637 0.30741018 0.15572777 -0.039543636
000280 c4 d6 20 be 49 9d 5a 3d 70 e4 02 3e dc ee 05 3e
       -0.15706927 0.053372655 0.12782454 0.13079399
000290 42 16 75 be cf b0 45 be 11 ad 79 be 8c 1d 7e 3e
       -0.23934272 -0.19305728 -0.24382426 0.24815959
0002a0 d2 0d 01 bc 52 db 0d 3e 13 06 8a 3c 6d a7 0e 3e
       -0.00787683 0.13853195 0.0168486 0.13931055
0002b0 af 61 fd bd 77 40 18 ba b0 b7 d9 3c a8 85 94 bd
       -0.12372147 -0.0005807946 0.026576847 -0.072520554
0002c0 de 0e e0 3d 14 6a d6 3d ce 51 17 be 81 14 82 3e
       0.10940336 0.104694515 -0.147773 0.25406268
0002d0 b5 bc 3f 3e 48 98 9a bd e2 d4 28 3e 39 0e 54 be
       0.1872433 -0.075485766 0.16487458 -0.2070855
0002e0 02 9c 85 3e 8a ba 3e bc 1e d8 11 be 59 7f 63 be
       0.26095587 -0.011641154 -0.14242598 -0.22216548
0002f0 8d b2 9b 3d 92 b7 f3 3d 04 5e 3a be c0 d7 15 be
       0.07602415 0.11900248 -0.18199927 -0.14633083
000300 16 55 42 be 10 42 92 bd f7 af d5 bd c5 91 f2 bd
       -0.1897777 -0.07141507 -0.10433953 -0.118442096
000310 18 5d 84 3d fd 61 4f bd 92 e4 88 bd a2 3e 2f 3e
       0.06463069 -0.05063056 -0.06684221 0.17113736
000320 c6 cc 34 3d 76 0c 64 3e ba 70 59 3b e1 72 81 3e
       0.0441406 0.22270378 0.0033178763 0.25282958
000330 b1 2b 5c be c7 7b 58 3e c6 b4 4c be ab e8 93 3e
       -0.21501042 0.21140967 -0.19990835 0.2888845
000340 e9 0d 5a be 52 f3 31 be f3 c8 39 bc 9f 42 16 be
       -0.21294369 -0.17377976 -0.011339414 -0.14673851
000350 b6 23 76 3d b3 af 93 be f0 1d 97 3d 5b b4 5c 3d
       0.06009265 -0.28844985 0.07378757 0.053882938
000360 76 5f 02 be 83 1f 0b 3e 9d ee 61 be f5 dd 32 3e
       -0.12731728 0.1358624 -0.2206368 0.17467482
000370 07 b1 d6 3d f3 ed 15 be b2 c6 61 be ff 70 b8 bd
       0.10482984 -0.14641552 -0.22048452 -0.09005927
000380 36 71 f1 bc 6a 02 87 3e 37 c6 21 be 57 04 0e 3e
       -0.029472928 0.2636903 -0.15798269 0.13868843
000390 07 ab bd 3b 72 3d 02 3e f2 bd 18 3e da ec 44 be
       0.0057882103 0.12718752 0.14916208 -0.19230977
0003a0 1a 08 2f be f7 da 6d 3e c0 df 58 3d 91 77 5a 3e
       -0.17092934 0.2322806 0.05294776 0.21334673
0003b0 35 f4 24 3d 0b ac b9 bd 17 10 14 bd 1d 89 33 bd
       0.040271956 -0.09066018 -0.036148157 -0.043831933
0003c0 34 7d a6 bd 54 80 8f be c9 b3 f6 3d a0 b8 94 3b
       -0.08129349 -0.28027594 0.1204601 0.0045386106
0003d0 ef 9a ba 3d a9 00 1a 3e 02 34 8c ba c3 27 c6 bc
       0.091115825 0.15039314 -0.0010696652 -0.024188882
0003e0 4f b6 ca 3e 30 fd be bd 26 29 09 3e e4 5d c7 3d
       0.39592215 -0.093256354 0.13394603 0.09734705
0003f0 04 60 93 3d 5b 0c e6 3d c1 53 47 be af 7f 3f 3e
       0.07196048 0.11232825 -0.19465543 0.18701051

layer2.0.fc1.bias f4 [32]
000000 bc f3 83 3d ed 0c 5d be a1 69 6c bd 77 8e 61 be
       0.06442973 -0.21586962 -0.057717923 -0.22027002
000010 90 d6 0b 3e 2f ce 6a 3e 0d f8 23 be 15 9b 9d 3e
       0.13656068 0.22930215 -0.16012593 0.3078238
000020 05 25 18 be 0d 80 24 3c 7b a5 89 bd 2b 7e 82 3e
       -0.14857872 0.010040295 -0.06721016 0.25486884
000030 f5 ac 16 be ad c1 fc bd 69 fa e3 3d 8a ca 2a 3e
       -0.14714415 -0.12341628 0.11131746 0.16678825
000040 a7 6e 5a 3e 61 31 a2 3c 29 a6 c3 bd d2 b3 fe bc
       0.21331273 0.019798936 -0.09553177 -0.031091604
000050 65 85 00 3b 64 59 f1 3c 75 61 00 3e 8d da 78 bc
       0.001961076 0.02946157 0.12537177 -0.015188825
000060 f4 dd 88 3e 05 0f 24 be 86 7b 9b be 50 80 89 3e
       0.26731837 -0.16021354 -0.30367678 0.26855707
000070 3c 66 0a 3e 56 08 57 3e a1 76 45 be 87 9b 8b be
       0.13515562 0.20999274 -0.19283535 -0.27267095

layer2.0.bn1.weight f4 [32]
000000 68 57 8b 3f 85 78 85 3f 12 9d 87 3f 84 5a 70 3f
       1.0886049 1.0427405 1.0594809 0.93888116
000010 ba c8 87 3f 4b de 61 3f a2 38 78 3f ef 0b 83 3f
       1.0608132 0.8822982 0.96961415 1.0238017
000020 72 84 6e 3f ac 2e 88 3f e0 f0 78 3f 30 7f 74 3f
       0.93170846 1.0639243 0.97242546 0.9550657
000030 e8 1e 5c 3f 2f 43 79 3f 7b 0c 8c 3f 8c 5a 87 3f
       0.8598466 0.9736814 1.0941309 1.0574508
000040 e1 d3 8c 3f 71 7c 87 3f fb cf 62 3f a2 38 66 3f
       1.100216 1.0584852 0.88598603 0.89930165
000050 4f 30 87 3f 1a 31 86 3f 21 8b 76 3f d0 85 83 3f
       1.0561618 1.0483735 0.96306044 1.0275211
000060 88 0d 8d 3f 58 52 91 3f 51 8e 7e 3f a0 0e 77 3f
       1.1019754 1.1353254 0.9943591 0.9650669
000070 98 1a 4e 3f ce 61 79 3f fe 6e 69 3f 32 4d 87 3f
       0.8050933 0.97414863 0.91184986 1.0570433

layer2.0.bn1.bias f4 [32]
000000 c2 a5 1d 3e 57 b6 4a 3d a5 ab 91 3d bd 78 98 bc
       0.15395263 0.0494903 0.07112817 -0.01861226
000010 9a 72 60 bd 8a a3 fc 3c b5 a7 11 bc 35 70 2d bc
       -0.054796793 0.0308397 -0.008890082 -0.010585834
000020 1f 69 ee 3c 91 7b bd 3b 63 2f 8d bd 07 b0 25 bd
       0.02910286 0.0057825525 -0.06893804 -0.040451076
000030 97 6c ee bd 39 d5 43 3b 8c bd c1 3d 05 28 3f bd
       -0.116418056 0.002988173 0.09459981 -0.046669025
000040 e7 fd a2 ba 22 3a e9 3d 52 64 91 bd ad 4c 86 bd
       -0.0012435288 0.11388041 -0.07099213 -0.065575935
000050 1b dd 68 bc b5 b8 a9 3d 61 50 2d 3c 87 46 a0 3d
       -0.014212872 0.08287183 0.010578246 0.07825952
000060 0e 5f e3 3d 7f 89 36 3d 45 a8 a7 3d 3e 76 01 3d
       0.111021146 0.04456472 0.08186392 0.031606905
000070 cd 6e 98 bd ad 6b 31 bd 81 19 96 bd 60 36 89 3c
       -0.074430086 -0.04331558 -0.07329083 0.01674956

layer2.0.bn1.running_mean f4 [32]
000000 17 3d 67 3f 98 41 90 bf fc 82 bc be 91 1c c3 3e
       0.9032759 -1.1270018 -0.36818683 0.38107732
000010 16 ed a4 3e 02 39 15 3f 0a b3 91 bf bd 19 da be
       0.32212132 0.5829011 -1.1382763 -0.42597762
000020 9b 61 12 3f 56 ce 17 bf 99 f7 8a be 53 42 d2 3e
       0.57180184 -0.5929922 -0.27142027 0.41066226
000030 6d 17 62 bb e6 44 95 bf 07 0f 0f 3f 27 5c 41 3f
       -0.0034498826 -1.1661651 0.55882305 0.7553124
000040 60 2f e0 3e 4f dc 8c bf 4c 40 35 3e 8e 96 53 bf
       0.43786144 -1.1004733 0.17700309 -0.82651603
000050 07 2f 18 bf 36 32 e7 be f5 52 1c bf f4 8b 75 3f
       -0.5944676 -0.45155495 -0.6106408 0.95916677
000060 54 2b c2 3e 78 90 8e be 7a ee d0 be 79 b2 cf bd
       0.37923682 -0.27844596 -0.40806943 -0.10141463
000070 7e a0 cd bd 86 eb 13 bd a8 4d 25 be 7f c3 f7 bd
       -0.10040377 -0.036113285 -0.16142905 -0.12097835

layer2.0.bn1.running_var f4 [32]
000000 b4 a9 1f 3f 41 fb 82 3f 81 d3 10 3f e9 fe 79 3f
       0.6236832 1.0232927 0.5657273 0.9765459
000010 9a 67 02 3f c2 0d 88 3e 57 65 7b 3f 7f 4d b9 3f
       0.50939333 0.26572996 0.9820151 1.4476775
000020 32 c9 97 3f 7d ec 01 3f 08 35 33 3f 48 15 0d 3f
       1.1858275 0.5075148 0.70002794 0.551106
000030 a6 08 d9 3e 40 99 68 3f 2b a9 ac 3f cd 82 87 3f
       0.4238941 0.9085884 1.3489126 1.0586792
000040 b8 45 27 3f 55 26 01 40 42 cf 0d 3f 3e 87 18 40
       0.6534076 2.0179646 0.55394375 2.3832545
000050 66 9d 61 3f d1 0c 3f 3f 7c 11 6d 3f 36 6b d0 3f
       0.88130796 0.7462893 0.92604804 1.6282718
000060 73 f4 fb 3e 0d ef 17 3f 69 21 4a 3f 89 5c 58 3f
       0.49209937 0.5934914 0.7895723 0.845162
000070 45 c6 a4 3f 64 ac 3c 3f 24 46 e1 3e 12 85 ff 3e
       1.2873007 0.7370055 0.43998826 0.49906212
