sensor_case/outputs/experiment1/resnet_model.pth (torch, 148679 bytes, 92 tensors)

layer1.0.fc1.weight f4 [16, 5]
00000000: 1636 71be ea81 33be e3c9 56bd 035e 88bc
00000010: ecd9 2cbe 4331 d3bd e769 e43e 228e c43e
00000020: d406 85be c9ef 8f3e f758 bbbe 220d 46be
00000030: 6893 14be 6338 48be a78f 4cbe baa9 ec3b
00000040: 0b21 22be 3aa8 0d3e 5629 1b3e 336e ab3d
00000050: 9d91 983d ef7a 8abc 5b42 363e 5ef3 d4be
00000060: 957b 3e3e e3a9 45be c2ab 0e3e 291d 4c3e
00000070: 9a94 b73e feff 7c3b d581 153e a64b 44bc
00000080: 4c2a a63d 4867 813e a787 cbbe ca44 a43e
00000090: 2a6e 6dbc d361 e9be c6f4 f23d 6b07 83be
000000a0: 0ca4 c13d 276c ee3d 5794 673e eea6 0abe
000000b0: d2a3 4a3e f906 64be 5061 5e3e b33d 63bd
000000c0: 154b fd3d 0ba9 ce3d af63 603e 16e8 a5bd
000000d0: 8bfc a33e 6ef7 87be ec0d 2c3e 3f38 403e
000000e0: 698e e73e 9846 82be 3766 7c3b 8d31 d3be
000000f0: 117d 0abe 8b89 9dbe c931 d7bd 7fe0 3b3e
00000100: 661d 573e c267 a63e a652 8d3e dc47 bfbe
00000110: 2603 923e 5ecf 0f3e a0c9 debe 6c00 47bd
00000120: 1792 18be 911d 813e 5269 693e 8a39 f8bd
00000130: 726d 823e bb0a 8b3d 0ea5 d33e 0425 48be
-0.23555788 -0.17530027 -0.052438628 -0.01664639 -0.16880006 -0.1031213 0.44612047 0.3838969
-0.25981772 0.2811263 -0.36591312 -0.19340947 -0.14509356 -0.1955276 -0.19976674 0.0072223814
-0.15832917 0.13833705 0.15152487 0.08370628 0.074496485 -0.016904322 0.1779875 -0.41591924
0.1860183 -0.19303088 0.13932708 0.19932999 0.35855561 0.0038604732 0.14600308 -0.011980927
0.08113536 0.2527411 -0.39751932 0.32083732 -0.014491597 -0.45582446 0.11863093 -0.25591597
0.094551176 0.11641722 0.22615181 -0.13540241 0.19789055 -0.22268285 0.2171681 -0.055478763
0.123678364 0.10090836 0.21913026 -0.081009075 0.32028612 -0.2655596 0.16802186 0.18771456
0.45225838 -0.25444484 0.0038513073 -0.41248742 -0.13524272 -0.30769 -0.10507543 0.18347357
0.21007308 0.32501036 0.27602118 -0.37359512 0.28518027 0.14043948 -0.43513203 -0.048584387
-0.14899479 0.2521787 0.22794083 -0.1212035 0.25474125 0.06789156 0.41336864 -0.1954537

layer1.0.fc1.bias f4 [16]
00000000: 4de1 bdbe 5bf3 a0be f5d3 cc3e c17f 893e
00000010: 0740 a8be e8cd a0be bfc5 d3be 5944 e23d
00000020: 224d a3be a2eb 6bbd 7f54 d03d 044f 39be
00000030: 9eee c3be a719 febd b24f 4bbe 305a 82be
-0.37085953 -0.31435665 0.4000546 0.2685528 -0.3286135 -0.31407094 -0.41361806 0.110481925
-0.31894785 -0.057597764 0.10172366 -0.18096548 -0.38267988 -0.124072365 -0.1985462 -0.25459433

layer1.0.bn1.weight f4 [16]
00000000: cec7 7e3f f366 7f3f 40f2 7e3f 7e59 7e3f
00000010: a23c 823f 6306 803f 02ea 803f 6bf4 803f
00000020: 9bae 7e3f 921c 7f3f 2e15 803f 67fd 7f3f
00000030: 24e7 7e3f d8b6 7f3f a14e 7f3f 0263 803f
0.9952363 0.99766463 0.99588394 0.99355304 1.0174754 1.0001949 1.0071414 1.007459
0.99485177 0.9965297 1.0006464 0.99996036 0.9957144 0.9988837 0.99729353 1.0030215

layer1.0.bn1.bias f4 [16]
00000000: 904f 83ba 93b5 17bc d24b 153c 29dc 73bc
00000010: 311f 863a e09c e3ba 6f86 ff3b 5d95 403c
00000020: 1ae1 fcbb 1848 ff3a 88d0 4ebb 4762 5e3b
00000030: acfc 2f3a 66f2 2ebb e083 34bc ada4 ad3b
-0.0010018218 -0.009259599 0.009112315 -0.014884033 0.0010232684 -0.0017365478 0.007798008 0.011754361
-0.007717264 0.0019476442 -0.00315574 0.003393309 0.0006713371 -0.0026694774 -0.01101777 0.005299172

layer1.0.bn1.running_mean f4 [16]
00000000: 9ad6 17bf 2d52 dfbe 328f 4e3d 2f24 8c3e
00000010: eba2 81be f0d7 04bf 113a 86be 6f07 e33e
00000020: 48ec 70be 7be4 93be b834 9d3e b27f c53c
00000030: 6e33 04bf d8c7 4b3e 89ed 21bf fc12 c3be
-0.5931183 -0.43617383 0.05042953 0.27371356 -0.2531961 -0.51891994 -0.26216176 0.4434161
-0.23527634 -0.28885254 0.30704284 0.024108741 -0.51640975 0.19900453 -0.63253075 -0.3810042

layer1.0.bn1.running_var f4 [16]
00000000: b5c6 8e3d 2505 f93e 9e93 163e 5ab8 aa3d
00000010: 221a 733e f40a 463e cd3c 633e da6f 903e
00000020: 01ca fc3d 1245 b03d fb73 543e 59eb eb3e
00000030: 3376 423e 9cd0 a53e d836 133e c783 8f3e
0.06971494 0.48636737 0.14704749 0.083359435 0.23740438 0.19340116 0.22191162 0.28210336
0.12343217 0.08606924 0.20747368 0.46077994 0.18990402 0.3238572 0.1437639 0.28030226

layer1.0.fc2.weight f4 [16, 16]
00000000: 7e2b 423d fde7 f33a 159b de3d 161b 55be
00000010: 1867 84bd 2963 97bd 9dfa 0abd a718 553e
00000020: c5a1 79be 090a d5bd 72a3 b1bd a4cf 66be
00000030: 9633 76be 9dfb 003e f2f2 303d b7e6 4ebe
00000040: 3b2c 573d 9c58 1ebe fbcc d33c 436e ebbd
00000050: 5c62 1a3e 699f 0cbc e2e4 74be b123 33be
00000060: 9ba1 71be 46cb 443e 802b 853e d114 123e
00000070: 3fe3 b53d 837f 16bc 34a4 853d bfa8 dabd
00000080: b16d 25be 3c4f 4c3e 607a d3bd f381 803e
00000090: 8d14 aebd bf77 093e b377 29be 8bdd 28be
000000a0: b424 b7bc 7685 143e 46b3 063e dd60 72be
000000b0: 9c73 9b3c 81d7 533c 5197 59bd 06d8 ac3d
000000c0: aea3 94bd c0b8 d4bc 786f 283c a2eb f53b
000000d0: 9d16 433d 9abb e5bc f9cb 4d3e d173 5fbe
000000e0: da04 a7bb f198 1c3e e622 3cbe 2061 4b3e
000000f0: 3fbd e13d a577 11bd ea02 4b3e 6b9d 683e
00000100: 9623 0b3c 58c2 32be b2e4 8b3c 931c 653e
00000110: 4543 1e3e bac4 89bd b744 bd3d 0c20 393d
00000120: bb10 44be 83c8 123e f4d9 7cbe 76ce 43be
00000130: 500d a8bd 4447 48be 61cb d2bb 57e3 39bd
00000140: 34f4 693e 046a 783e d2bb cb3b b71f cebd
00000150: f5ff 443e 275a 8c3c a973 0f3c 84e9 623e
00000160: 4a9c d63d a1c4 c03c bbce 4dbe e3e9 1bbe
00000170: 4832 19be c2f2 703e 72b3 a7bd 39f3 73be
00000180: 39fe 0b3d e553 0dbe e57b 143e cfac 1f3c
00000190: cb5d 44be 843f 273e ef7d 70be 4937 1e3e
000001a0: 5c47 69bd a70b 263d 367c dfbc 84bf 6abe
000001b0: 86ca 0fbd cce7 b7bd 8331 d7bb 6960 5a3e
000001c0: 5346 0d3e 7510 5f3e 0f5c 913d d3cd 0dbe
000001d0: 7417 16be 64f0 753e e25e 8bbd 9450 3dbe
000001e0: 87e0 82bd 4d2f 5d3e b701 53be 184e 513e
000001f0: caf5 e73d 1c3c 0abe 91a4 453e d39f 36be
00000200: 2aa4 9abd 0efb 193e 26e7 4cbe 11f0 32be
00000210: db94 46bd 62b3 a13c 01da e2bd ce86 133d
00000220: f9dc b4bd ddc3 b6bd 31d1 d23b 3e39 e7bd
00000230: e08f b03d 4b6c f7bc 2100 893e 9e41 eb3d
00000240: e798 d8bd 2620 3abe 9b79 003c 657a 4d3e
00000250: 1e4c 5d3e e250 94bd b56b 36be 02ca 1dbe
00000260: 2241 fa3c e79b 89bd 31b9 c53b c036 efbd
00000270: bb2e ef3d 36d9 073e 4e96 1fbe 3c6e 0bbe
00000280: d223 babb ac75 6f3e 656e ae3d def8 cd3d
00000290: 826a 083e eaa6 193c 1d16 a53c 9a3c 96bd
000002a0: 8d5f a03c 1d84 68be 9375 cbbd 9560 10be
000002b0: 5cef b4bb da19 823c 6535 803d 40b1 e2bd
000002c0: 7670 af3d c62e e83d bd8b b83d 3320 ba3d
000002d0: 0476 4a3e 8739 213e e058 86ba c30e 423e
000002e0: 8e02 9abd 4734 eebd 1dad 91bc b4fc 5ebe
000002f0: 591c 3a3e 19aa 7fbe 1beb ddbc d238 25be
00000300: 4e3e cabd ad7d 5dbe d3ab f6bc 2e8f 573d
00000310: 4112 c63c a656 10bd 1d5b 1a3c e4cb 46be
00000320: 4ce1 48be bb50 4ebe a64b f13d 3d88 04ba
00000330: 2f41 8cbd 55e9 c9bd 5b6c 46bc 26cc be3d
00000340: 4905 e13d 385a 523e 7684 9a3c 7eba e8bd
00000350: dbd9 04be 33af e8bc 77e8 4dbe d36a 75be
00000360: 666a c7bd 4430 583e 6835 e4bc d3cc b0bd
00000370: 1343 c6bd 70d4 0d3e b6a9 0fbe 4ea1 2fbe
00000380: b5bc 30be 2b4f 27bd 2783 1a3d 965f cf3d
00000390: 1ae8 1cbe 7dc5 4abe c826 723e 8ccd 20bc
000003a0: 8bda f33d cfb7 e0bd ffab 513e 0ae1 283e
000003b0: 9a01 43bc cf60 893b cf62 c83c d5ca 3cbe
000003c0: f77e 3bbe 66ed 8f3d 55e7 483e 47f7 9e3d
000003d0: c35e 81be 1949 3ebe c3a8 ccbc 708e 213e
000003e0: 6ad3 c6bd c09b e13d 8adf c43d b557 21be
000003f0: c09c 123e fec8 f3bd 2cb1 393e 0396 eb3d
0.04740476 0.0018608567 0.10869423 -0.20811114 -0.06464976 -0.0739196 -0.03393041 0.20810185
-0.24378116 -0.10402305 -0.08673753 -0.22540146 -0.24043116 0.12595983 0.04320044 -0.20205198
0.052532416 -0.1546349 0.025854578 -0.1149564 0.15076584 -0.008582928 -0.23915437 -0.17494084
-0.23596804 0.19218168 0.2600975 0.14265753 0.088812344 -0.009185675 0.0652546 -0.10676717
-0.16155125 0.199521 -0.103260756 0.25099143 -0.085000135 0.13424586 -0.16549568 -0.16490762
-0.022356369 0.14504036 0.13154325 -0.23669763 0.018976025 0.012929798 -0.053122822 0.08439641
-0.07257782 -0.025967002 0.0102804825 0.0075048963 0.047628988 -0.028043557 0.2009734 -0.21821524
-0.005097014 0.15292718 -0.18372688 0.19861269 0.11022424 -0.035514493 0.1982533 0.227163
0.008492371 -0.17456949 0.017076824 0.22374181 0.15455349 -0.06726976 0.09241622 0.045196578
-0.19147007 0.14334302 -0.24692518 -0.19121727 -0.08205664 -0.19558436 -0.006432936 -0.045382824
0.22847062 0.24259192 0.0062174583 -0.10064643 0.19238265 0.017132832 0.008755603 0.22159392
0.104790285 0.02353126 -0.20098393 -0.1522594 -0.14960587 0.23530105 -0.08188523 -0.23823251
0.034177992 -0.13801534 0.14500387 0.009745791 -0.19176404 0.16332823 -0.2348554 0.15450777
-0.05695282 0.040538456 -0.027280908 -0.2292462 -0.03510525 -0.089797586 -0.0065671816 0.2132584
0.13796358 0.21783622 0.07097637 -0.13848047 -0.14657384 0.24017483 -0.06805207 -0.1848777
-0.063904814 0.21600075 -0.20606123 0.20439947 0.113261774 -0.13499492 0.19301058 -0.17834406
-0.07550843 0.15037176 -0.20010051 -0.1747439 -0.048481803 0.019738857 -0.11076737 0.03601723
-0.0883121 -0.08924077 0.006433629 -0.11290215 0.08621192 -0.030203005 0.2675791 0.11487125
-0.10576039 -0.18176326 0.007841493 0.20066221 0.21611068 -0.0724199 -0.17814524 -0.15409091
0.030548636 -0.06719189 0.0060340394 -0.116803646 0.11678835 0.13266453 -0.1558468 -0.1361627
-0.0056805396 0.23384732 0.0851715 0.10057233 0.1332188 0.009378174 0.020152146 -0.073357776
0.019576812 -0.22706647 -0.09934535 -0.14099343 -0.005521698 0.015881468 0.06260184 -0.11068964
0.08566372 0.11337046 0.09011028 0.09088173 0.19771582 0.15744601 -0.0010249875 0.18950944
-0.075200185 -0.11631065 -0.017782742 -0.21776086 0.18174876 -0.24967231 -0.027089646 -0.16134956
-0.09875165 -0.21629973 -0.030111229 0.05262678 0.024178626 -0.035238884 0.009421137 -0.19413716
-0.19617194 -0.20147984 0.11782007 -0.00050557015 -0.0684837 -0.09858958 -0.012110795 0.09316282
0.10987336 0.20542228 0.01886199 -0.113636956 -0.1297373 -0.028403854 -0.2010821 -0.23966531
-0.09737091 0.21112162 -0.027857497 -0.08632817 -0.09680762 0.1385057 -0.14029583 -0.17151377
-0.17259486 -0.040846985 0.037722733 0.101256534 -0.15322915 -0.19801898 0.23647606 -0.009814631
0.11906918 -0.10972559 0.20475768 0.16492096 -0.011902237 0.0041924487 0.024461178 -0.1843675
-0.18310152 0.07027702 0.19619496 0.07762008 -0.2526761 -0.18582572 -0.024982816 0.15776992
-0.09708293 0.11016035 0.09612949 -0.15756114 0.14317608 -0.119035706 0.18133992 0.11503222

layer1.0.fc2.bias f4 [16]
00000000: c9ab 5abe ea06 b83d 17b0 2ebd 7284 6fbe
00000010: 9189 113e 767e 7dbc 8fd3 45bd 4d1a 4fbe
00000020: 08f9 0d3e ff80 023e 3837 93bd 3f1d e23d
00000030: f74e 1a3e b4ea 45bd b27a 763e ae58 3abe
-0.21354593 0.08985694 -0.0426484 -0.23390368 0.14212634 -0.015472045 -0.04829746 -0.20224877
0.13864529 0.1274452 -0.071882665 0.110407345 0.15069185 -0.048319533 0.24070242 -0.18197891

layer1.0.bn2.weight f4 [16]
00000000: 6faa 803f b5e6 7d3f 1f89 7f3f 4d01 7f3f
00000010: b481 7e3f 494f 803f 3bb2 7d3f 0743 813f
00000020: b14f 7f3f a054 813f c949 7c3f 2e5f 803f
00000030: 3045 803f 3671 803f f2f1 7e3f 6155 803f
1.0052012 0.99180156 0.99818605 0.9961136 0.9941666 1.0024196 0.99100083 1.009858
0.99730974 1.010395 0.9855009 1.0029047 1.0021114 1.0034549 0.9958793 1.0026056

layer1.0.bn2.bias f4 [16]
00000000: ecb5 713c 083b 54bc 7039 a9bb 4e22 c6ba
00000010: 6bec 8f39 8af4 533c 6253 3ebc 6e95 6d3c
00000020: 8c60 dbb9 8e4d 983c 1cda c33a 7c86 513a
00000030: c7de c23a c2cd 743b 2d65 06bc 9156 25bc
0.014752846 -0.012953527 -0.005164318 -0.0015116425 0.0002745123 0.012936721 -0.01161656 0.014500959
-0.00041842868 0.018591668 0.0014942321 0.0007992757 0.0014867418 0.0037354087 -0.008202833 -0.01009144

layer1.0.bn2.running_mean f4 [16]
00000000: bd0d 16bf 8cd4 8a3d b240 4ebd ef78 343b
00000010: 4716 79bd c412 003e 5162 13be 72da bfbd
00000020: d978 233d fc85 55bd 591a 90bd c6f4 4c3e
00000030: dcc0 42be c8e0 a1be 4cec 703e afbb 02be
-0.5861471 0.06778821 -0.050354667 0.0027537902 -0.06081226 0.12507159 -0.14392973 -0.09367837
0.03991017 -0.05212973 -0.070362754 0.20015249 -0.19018883 -0.31616807 0.2352764 -0.12766908

layer1.0.bn2.running_var f4 [16]
00000000: 93dd 313e 95a4 a13d ea29 7f3e 80ad 0b3e
00000010: 2482 a23d 4b04 d23d 2853 aa3d 8b60 bf3d
00000020: e48a a23d 52ef 1a3e fc8b a43d 8cd8 233e
00000030: 46bf a23d bab9 cf3d aead 433d 8ecd 803d
0.1736968 0.0789272 0.24918333 0.13640404 0.079349786 0.10254725 0.08316642 0.09344586
0.079366475 0.15130356 0.080345124 0.16000575 0.07946639 0.101428464 0.047773056 0.062892064

layer1.0.shortcut.0.weight f4 [16, 5]
00000000: 3e30 adbe b8bb 49be 9327 8ebd 678a dabe
00000010: 12ab 9ebd e538 933e 0be3 d7bd 6303 23be
00000020: bed1 debe 7e19 313e 6fd9 be3e 6991 9c3e
00000030: 6982 8f3e 9d14 b0be 5a11 a9be 78be 3cbd
00000040: d85b 95be 21bb 893e 3d79 26be 848c b6bb
00000050: 6a45 c33e 9320 8cbc 8c87 22be 2fea b1bd
00000060: 1116 8a3e 7ac7 7abe c37e 533e 2444 a03e
00000070: 4257 67be 5188 dc3e 3fff d7bd 1375 bdbe
00000080: 32de 78be b770 1c3e cf0d c93d 26d5 523e
00000090: ae08 93bc 08b3 893e 6ff3 04bd 5cdc 8cbe
000000a0: 70a9 7f3e fead 45be 19c1 383e 273e dbbc
000000b0: c121 80be 640a 3bbe e360 d53e 82eb 093e
000000c0: 24d3 c43d 747b f0bb f61b 7b3e 1399 c43e
000000d0: bdf2 cfbd ecdd 3fbe 5ce7 58be e6bd ecbd
000000e0: f4b4 cb3e 741e 553e 9120 8abe 5737 a0be
000000f0: 58ca 78bc 0a21 babe c8ac 223e a900 c3be
00000100: 18d4 c7bd ef33 853e 79c7 773c 6e31 cf3d
00000110: c42f 3d3e 9bca d23d f671 cabe 8f5e 183e
00000120: 61cf b3be 370d a4be f7eb 8fbc d914 ae3e
00000130: 3a4a 873e 84db 103e 9679 9dbd faad 78bd
-0.33825868 -0.19700515 -0.06941142 -0.42683718 -0.07747473 0.28754345 -0.10541352 -0.1591926
-0.43519396 0.17294881 0.37275264 0.3057969 0.28029183 -0.34390727 -0.3302105 -0.046080083
-0.29171634 0.2690058 -0.16257186 -0.00557095 0.38138896 -0.017105376 -0.1587202 -0.08687245
0.2696996 -0.24490157 0.20653825 0.31301987 -0.2259188 0.4307275 -0.10546731 -0.37003383
-0.24303511 0.15277372 0.09817087 0.20589122 -0.017948475 0.26894403 -0.03245872 -0.2751187
0.24966979 -0.19304654 0.18042411 -0.026763035 -0.25025752 -0.18265682 0.4167548 0.13468745
0.096105844 -0.0073389355 0.24522385 0.38398036 -0.101537205 -0.18737 -0.21182007 -0.11559658
0.39786494 0.20812398 -0.2697797 -0.3129222 -0.015184961 -0.36353332 0.15886223 -0.3808644
-0.097572505 0.26016185 0.015123242 0.1011685 0.18475252 0.1029255 -0.3954007 0.14879821
-0.35119155 -0.32041332 -0.017568571 0.3400028 0.26423818 0.14146239 -0.07689206 -0.060712792

layer1.0.shortcut.0.bias f4 [16]
00000000: 0af2 08bc 61fb 81be 0dd3 15bb 1b5e 94be
00000010: 81e0 d3be a58b 913d 1b14 8abd e3ee 9c3e
00000020: 6ae3 373e 626b a53e 8c88 aa3e b3d1 18be
00000030: 9143 d0be 24c6 13be ebd9 b33e 7086 84bd
-0.008358488 -0.253871 -0.0022861392 -0.28978047 -0.4138222 0.07106713 -0.06742116 0.30651006
0.17957845 0.3230849 0.33307302 -0.14923744 -0.4067655 -0.14431053 0.35127196 -0.064709544

layer1.0.shortcut.1.weight f4 [16]
00000000: 93d5 803f ff97 7d3f 8772 7d3f 6b72 803f
00000010: 5035 803f 0a4c 813f f00f 7d3f f31b 813f
00000020: 357c 7f3f 940c 813f f16e 813f e572 803f
00000030: f251 7f3f b2ba 803f 4e08 803f 091f 7d3f
1.0065178 0.9906005 0.9900288 1.0034918 1.001627 1.010133 0.98852444 1.0086654
0.997989 1.0081964 1.0111982 1.0035063 0.99734414 1.0056975 1.0002534 0.9887548

layer1.0.shortcut.1.bias f4 [16]
00000000: ecb5 713c 083b 54bc 7039 a9bb 4e22 c6ba
00000010: 6bec 8f39 8af4 533c 6253 3ebc 6e95 6d3c
00000020: 8c60 dbb9 8e4d 983c 1cda c33a 7c86 513a
00000030: c7de c23a c2cd 743b 2d65 06bc 9156 25bc
0.014752846 -0.012953527 -0.005164318 -0.0015116425 0.0002745123 0.012936721 -0.01161656 0.014500959
-0.00041842868 0.018591668 0.0014942321 0.0007992757 0.0014867418 0.0037354087 -0.008202833 -0.01009144

layer1.0.shortcut.1.running_mean f4 [16]
00000000: 9e7d a6be c5e3 313d 2b13 bb3e 546f abbe
00000010: 7d96 f9bc bf4d 4bbe 6f51 27be 1690 023f
00000020: daa1 de3e 33be 033e ca5f 143f 4f35 87be
00000030: c338 d2be d561 d83d e2ae febc d08a 8a3e
-0.32517713 0.04343011 0.36538061 -0.33483374 -0.030467266 -0.19853877 -0.16339658 0.5100111
0.43482858 0.12865524 0.5795866 -0.2640786 -0.4105893 0.10565535 -0.03108925 0.2705903

layer1.0.shortcut.1.running_var f4 [16]
00000000: acf9 773e d228 823e ff53 c93e 0fb5 483e
00000010: ce5c d63d e25c bd3e 3e4e 6c3e 805a 153e
00000020: 5b83 0e3e e24b 593e be58 823e 94cc be3e
00000030: 3587 a93e f6c9 803d d759 823e 4e3a d63d
0.24216336 0.25421768 0.39321896 0.19600318 0.1046692 0.36984926 0.23076722 0.14585304
0.13917296 0.21220353 0.2545833 0.37265456 0.33110967 0.06288521 0.25459167 0.104603395

layer1.1.fc1.weight f4 [16, 16]
00000000: a5bd edbc 1445 d03d d1ba 27bc 96e7 2dbe
00000010: 1738 06be 6654 4dbe de18 65bb 221c 36be
00000020: b20a 45be a2e1 ff3d a583 2dbe dfa1 56be
00000030: a984 bc3d 8ca0 243b bfef 66be c61f ab3d
00000040: 4fe9 263e a1b3 61be 0986 583c 7c0e 45bd
00000050: fbd3 6fbe 3e1a f8bd 435e 85bd 54af d8bb
00000060: a9fb 02be 3f58 c5bc a9ca 453e 94fd f63c
00000070: 8f11 0b3e 0964 0cbe 4440 54be bc36 6c3e
00000080: 5e36 5dbe 280f 5e3e 16b2 c6bb 2d47 18bd
00000090: 50b6 0a3d 2a1f 53bd 4326 b83d 50d5 503e
000000a0: 4eb9 06be 0d80 373e d568 d7bd aee2 1dbe
000000b0: 99eb dabc 1609 4b3e a612 403e 1422 703e
000000c0: 287d 4e3e 0053 60be dfb9 e6bc 44b1 fa3d
000000d0: da13 df3d 56a0 aebd 8ae1 4d3e 7164 133e
000000e0: 00e4 ee3c 90af 493e 8a31 1d3d c879 023e
000000f0: 61c5 533e 49d3 613e 0668 37be 9b54 e7bd
00000100: bfd9 053e 9c57 6b3e dea8 bbbd dd68 4a3e
00000110: 6054 a73d 4342 3b3e adb9 97bd 0d69 4c3e
00000120: 5eb9 3cbe 3f27 853e bbea 103e ad25 0a3e
00000130: c419 e3bc 7486 6f3e 4982 fc3d cade 1cbe
00000140: 62a4 813d 3c75 823e 083b 393e d03b d5bc
00000150: bf7e 9abd c5d0 153e 6b42 47be e541 d53d
00000160: 5020 213e 8400 683e 0a14 6bbe ae31 bfbc
00000170: 9159 45be d950 c4bd f1cf 3dbe 6f08 223d
00000180: f765 2abe 2591 a7bd b3b9 433e ef30 fabc
00000190: 6761 71be 7b05 0b3e 0001 67be 3510 253e
000001a0: 1d64 64be 32fb 9e3d f10c 1c3e 2a8f 043e
000001b0: acd6 31be 0df8 29be c5a8 bf3d ecf0 f03d
000001c0: e61b 00be 5410 b8bc 49ba ce3a 9735 42be
000001d0: 3597 fbbd ae8b 75bb c9b4 babc 3dd2 463e
000001e0: 4418 26bc e300 05bd 352d 8e3d 4d0f 0cbe
000001f0: ae9e 04be 769b 0cbe a6a6 a6bd be6b 6a3b
00000200: 79a4 1cbe 17f6 14be 7e3a 2b3e 30a9 1d3e
00000210: 72ab 773e 2cf2 23bd c1f4 423e e95e 173e
00000220: e48c 413d 415d 433e be28 603c 6447 483e
00000230: 35d8 1d3e 44b4 98bd e288 753e 09ec ffbc
00000240: e702 5ebe 2bca 703e a146 7c3e 581a 8c3d
00000250: e5c3 ccb9 85ba 3a3d c74e 1b3e 8a17 533d
00000260: 7157 0c3e f053 663e b521 0e3e 2f72 7b3d
00000270: bb54 e03b a2ea 813d b2b0 ea3d 20f6 33be
00000280: 8bb2 453e bbad 32bd ec44 e03d f0f8 d03d
00000290: a387 703e 7fc0 0abd f1f9 09bc d6a9 873c
000002a0: 89d4 023e 4b11 2bbd 30fb 133e c606 96bd
000002b0: 2b90 6cbc 0e20 243e 3559 823d f1ea 0e3e
000002c0: 716f 63be 9320 eebd 6bec e63b e3c4 62bd
000002d0: 792b abbd a6b4 343e 3a78 7abe 85c5 77be
000002e0: 7fb2 243e 1505 52be 2cac 1abe 7239 733d
000002f0: bb01 6e3e a866 f8bd 0f1e 2dbd 1207 613e
00000300: 407b 503d 20e5 573c 691f 65be 6b5b 56be
00000310: 31cc 513e c6c3 213e bcfe 393e f4d6 afbd
00000320: f7af 02be 0940 783e dbc8 573e 8e79 883d
00000330: b994 793e e42f 8e3d 1808 17bd f17c 7f3e
00000340: dccc e93d 1fd7 d4bb 514a 413e 436e 0ab8
00000350: e406 20be 5f9e a63d 4776 6ebe 9263 e73d
00000360: 8da7 49be 3bfe 193d 7860 283e d898 3abe
00000370: b07f 27be b020 3dbc 1aea c53d b4ad 3ebe
00000380: 15b0 d33d 1a81 da3d fd5a 48be d81d 8d3d
00000390: 9ff8 5bbe 29ab 74bc 70ed 6d3e 1feb 493e
000003a0: 5ed7 d4bd a445 853d 97f8 593c 6927 f43d
000003b0: d095 103e a78d a53d 52d0 abbd df21 cdbb
000003c0: e429 7abe 4205 033e 8724 1bbe cd59 263c
000003d0: 33b2 25be 6f9e 0abe 7374 463e 8a89 793e
000003e0: 6fd2 7bbe e559 43be 904f 15be 94e5 70be
000003f0: aabb 21be 1a29 6f3e 73d4 58be e4e7 ca3c
-0.029021094 0.101694256 -0.010237412 -0.16982874 -0.13107334 -0.20051727 -0.003495745 -0.1778417
-0.19242361 0.12494208 -0.1694475 -0.20960186 0.092049904 0.0025120107 -0.22552393 0.0835567
0.16299938 -0.22041179 0.01321555 -0.048109517 -0.23420708 -0.1211438 -0.065121196 -0.0066126976
-0.12791313 -0.02408993 0.1931559 0.030150212 0.13580917 -0.13710035 -0.2072764 0.23067755
-0.2160277 0.21685469 -0.00606371 -0.037177254 0.033865273 -0.051543392 0.08991673 0.20393872
-0.13156626 0.17919941 -0.10518042 -0.15418503 -0.02672367 0.19827685 0.18757114 0.234505
0.20164931 -0.21906662 -0.028164802 0.12240842 0.10892458 -0.085266754 0.20105568 0.14393784
0.029161453 0.19695878 0.038377322 0.12741768 0.20680763 0.22053255 -0.17910776 -0.11295434
0.13071345 0.22982639 -0.09163068 0.19766565 0.0817039 0.18286996 -0.07408462 0.19961949
-0.18430087 0.26006505 0.14152043 0.13490935 -0.027722247 0.23391134 0.123295374 -0.15319362
0.06330182 0.25480068 0.18088925 -0.026029497 -0.07543706 0.1463042 -0.1945893 0.10412959
0.15734982 0.22656447 -0.22956863 -0.023339119 -0.19272448 -0.09585733 -0.18536355 0.039558824
-0.16640459 -0.08181981 0.19113807 -0.030540911 -0.23572312 0.1357631 -0.22558975 0.16119464
-0.22303815 0.077627555 0.15239312 0.12945238 -0.17367047 -0.1659853 0.09358362 0.11764702
-0.12510642 -0.022468723 0.001577207 -0.18965755 -0.122847 -0.0037467289 -0.022791283 0.19416137
-0.010137621 -0.03247155 0.06942216 -0.13677712 -0.12951156 -0.13731179 -0.081372544 0.0035769786
-0.15297116 -0.14547001 0.16721532 0.15396571 0.24186495 -0.040025875 0.19038679 0.14782299
0.047253504 0.19078542 0.013681589 0.19558483 0.15414508 -0.07456258 0.23977998 -0.03124048
-0.21680795 0.23514621 0.24636318 0.06840962 -0.00039055865 0.045588035 0.1516677 0.05153612
0.13705231 0.22492957 0.13880046 0.06138819 0.006846038 0.06343581 0.11459483 -0.17574358
0.1930639 -0.043622714 0.10950646 0.10203731 0.23489241 -0.033874985 -0.008421407 0.016560476
0.12776388 -0.04176454 0.14451289 -0.07325511 -0.014438669 0.16027853 0.06364671 0.1395681
-0.2221048 -0.11627307 0.007047226 -0.055363547 -0.08357901 0.17647037 -0.24459925 -0.24196441
0.16083716 -0.20509751 -0.15104741 0.059380956 0.23242848 -0.12128955 -0.042264994 0.21975353
0.05089879 0.013177186 -0.22375263 -0.2093331 0.20488049 0.15797338 0.1816358 -0.08585921
-0.12762438 0.24243177 0.21072714 0.0666381 0.2437314 0.06942728 -0.036872953 0.24950005
0.11416027 -0.006495371 0.18876006 -3.3004453e-05 -0.15627629 0.08135676 -0.23287307 0.112982884
-0.19692822 0.03759597 0.1644305 -0.18222368 -0.16357303 -0.011543438 0.09663792 -0.1862095
0.10336319 0.106691554 -0.1956596 0.06890458 -0.2148156 -0.014933386 0.23235106 0.19718598
-0.103926405 0.065074235 0.013303897 0.119215794 0.14119649 0.08083659 -0.08389343 -0.0062601413
-0.24430043 0.12794974 -0.15150653 0.010153246 -0.16181259 -0.13537 0.1938036 0.24368873
-0.24591993 -0.19077261 -0.14581132 -0.23525077 -0.15794244 0.23355523 -0.21174793 0.024768777

layer1.1.fc1.bias f4 [16]
00000000: 8150 81be 5506 5bbd 7ac6 8ebd 0d5d 373e
00000010: af48 61be 1968 55bd f925 b43d aba6 c6bd
00000020: 0838 613e 82b1 b23d ad26 0fbe 927b a43c
00000030: c92f 8d3d b399 9dbd 8453 86bd 2209 79bd
-0.25256732 -0.053472836 -0.0697145 0.1790659 -0.22000383 -0.05210123 0.08796305 -0.09699758
0.2199403 0.08725263 -0.13979597 0.020078454 0.0689388 -0.076953314 -0.06558898 -0.060799725

layer1.1.bn1.weight f4 [16]
00000000: 5481 803f f9d5 7e3f b110 803f f6f2 7f3f
00000010: 446d 803f 83da 803f 708f 7f3f 5776 813f
00000020: 0b26 813f 3612 7c3f d98a 7e3f ecf2 7c3f
00000030: 65c2 803f f4f8 7f3f 5a43 803f 6d04 803f
1.0039468 0.99545246 1.0005094 0.99980104 1.0033345 1.0066684 0.99828243 1.011424
1.0089735 0.9846529 0.99430615 0.9880817 1.0059325 0.9998925 1.0020554 1.0001351

layer1.1.bn1.bias f4 [16]
00000000: 6dcb 9c3b 49e0 27bb c2a7 b63b a237 813a
00000010: 8edb e2bb 00a0 bb3b ee7b 06bb f0f5 543b
00000020: b901 eeba 1cf5 0abc b56a db39 94ec 1cbc
00000030: b6ff ca3b 5db4 d4bb 02cb 2a3b f27e 9cbb
0.0047849924 -0.0025615862 0.0055741975 0.0009858499 -0.0069231456 0.0057258606 -0.0020520645 0.0032495223
-0.0018158472 -0.00848129 0.00041850438 -0.009577889 0.006195034 -0.0064912275 0.0026060943 -0.0047758752

layer1.1.bn1.running_mean f4 [16]
00000000: f91d 38bf 2b1b a6be 4f59 6b3e feb3 2f3f
00000010: 42fd 083f ade1 32bc da90 28be fa1c 01bf
00000020: 78ca 513f 5a96 2c3f bb43 ad3e 284a c6be
00000030: 5fda 213f 5b1e 61be cf13 963e 3b16 0abf
-0.71920735 -0.32442603 0.22983287 0.6863402 0.5351144 -0.010918063 -0.16461506 -0.5043484
0.8194957 0.6741692 0.33840737 -0.38728452 0.6322383 -0.21984236 0.29311988 -0.5394017

layer1.1.bn1.running_var f4 [16]
00000000: a742 423e e072 0d3e c4be 253e d945 5a3e
00000010: 8be1 cc3e 311b 103e 7089 163f 9f88 b93d
00000020: 09ac 0e3e a0e5 7b3e 6ca2 803d 69fa 343e
00000030: 4c60 5c3e 167e 903e 022a 083e 1f3f e63e
0.18970738 0.13813353 0.16186053 0.21315707 0.40015826 0.14072873 0.58803463 0.090592615
0.13932814 0.24599314 0.062809795 0.17673649 0.2152111 0.28221196 0.13297275 0.44970033

layer1.1.fc2.weight f4 [16, 16]
00000000: 0894 6bbc 3162 3e3e 4d54 09be 94db d9bc
00000010: 7b7e 0abe 9e44 1abe 90f9 5ebe ca30 7b3d
00000020: 1357 8f3d 276e 51be 044e 84bd e581 9d3c
00000030: 202e e83d 70d7 a9bd f888 713e 41fa 31be
00000040: ec28 fcbc 8670 efbd cae1 513c 1ff3 85bd
00000050: 536f 58bc 0ae8 173e 140e 28be fe5d e13d
00000060: e2e0 853e 6958 1fbe 0241 de3c d847 35bc
00000070: f480 623e f060 8abd 10e5 41be 7067 dabd
00000080: 19d0 803e 58d3 613e 6cf9 873d 3e8d 41be
00000090: a0d4 82bd 321f 17be 31f5 afbb 83fb 993c
000000a0: a56d 293e c2b8 58be f235 573e 059d 033e
000000b0: fa09 80be fc31 013c d946 883d f292 5f3e
000000c0: 5e21 61bd 8a8e 07be ab47 83bd aae0 a9bd
000000d0: ec60 20bd 1c55 513e ed73 a3bd 8f39 88bc
000000e0: 1a7b c3bd db87 bd3d 7f93 bb3d 3c74 c9ba
000000f0: 2a2c 203e 3cc0 d53d 385c 2b3d ff28 183e
00000100: 5749 3ebe 4885 66bd 2a0d 21be aec1 5bbe
00000110: 9582 c63d ae60 76bd 7b66 76be e1b0 1dbe
00000120: 70c4 113e f465 283e f067 573e f509 2b3e
00000130: e7b0 0bbe 1e41 1e3d b6a7 4c3d 49bd 5a3d
00000140: 177f 9ebd 9e38 7cbe 2fae 6a3d 41a3 813d
00000150: 0838 35be ddd4 033e 925f 0dbe e44a dc3c
00000160: df65 74bd fc7e 1b3e 89e0 393d f8ec 0abe
00000170: 560f 033e 52cd 593c e7bc 8fbd cd7f 143d
00000180: ec3a 33bd d7de 0a3e 9426 753e 85ab 57be
00000190: 20c2 3cbd cb01 6e3e 3bbc 2ebe 70a1 98bd
000001a0: 412d 3b3e 7a9c e8bd 92e9 353e ebbf 033e
000001b0: 3440 11be b63e 47be 7271 62be 93ff 713c
000001c0: 90df dfbd e202 a1bd 3eea ad3d 60e6 a8bc
000001d0: d189 5d3e fa77 7ebd 0da5 833d 0cfd 693e
000001e0: f390 d63d 333d 2e3e b88b 173e 4abb 373e
000001f0: 5312 46bb d85f 843e 30fc 073e 68d8 c8bc
00000200: afbe 203e 3039 dfbd beaf bebd 8805 543d
00000210: 1421 0dbe cbe5 02be dac9 e73c 379a b13d
00000220: efa0 1a3e 6e7a 063e 6e30 22be c020 233e
00000230: e436 82bd 2f03 83be 69ba 44be d468 00bd
00000240: 873d 01be 60be bf3d 8a88 43be 08f6 243e
00000250: 8ea1 76bd 2da8 6c3e 3415 653e 4d41 e83d
00000260: 601b 6e3e 4194 1d3e 9c8c cd3c d3e7 1c3e
00000270: a435 4a3e 7093 843d 0b94 ffbd 94a5 ab3d
00000280: 2ac4 41be 54d2 043e 5e91 163e a7e4 42be
00000290: b2ad 8dbc c416 c33d 8331 483e 867a 68be
000002a0: b31b 52be 7fd8 053e 736f 69be 77ce 693e
000002b0: 48ac 1ebe 30b2 af3d e065 76be e97d 3fbe
000002c0: 0d76 6b3d 12ff 2f3e 7a15 14be 3172 9bbc
000002d0: 10ba 3f3e e71c cabd be37 183e ba32 63be
000002e0: 0c3d 813c 646c 5dbe f41b e13c 9c44 44be
000002f0: 8226 013d 88d9 553c cedd 013e 43ea 36bd
00000300: 15c9 163e dee8 60be 6ae4 bd3d ad6e 093e
00000310: b30f e5bc f4e1 0bbe 49d0 69be 26ca dd3d
00000320: a6ae 86bd 7c2b 84bd d11f 0bbd 6290 07be
00000330: e5bb 65be c2f3 85bd e4e1 4c3e 8d5c 3abe
00000340: b69b 93bd 76fc 2dbe 9bde d6bc 181a aebd
00000350: f149 a2bd 1602 653e ac9f a23d ab3a 573e
00000360: 1a8a cbbd 22e4 393e a2c7 25bd 6d82 473e
00000370: 1947 213e eeee 8bbd 24d9 e3bd 6e77 6dbe
00000380: 0a4e 54be c24d 95bd f41b fb3d a1e7 80bd
00000390: 7ed6 5cbe 23ee ac3d 2a16 f3bd 8317 593e
000003a0: f327 e1bd 20a7 b0bc 5c97 273e 2653 0cbe
000003b0: a127 663e 4bdd 9bbd da04 4e3d 3ac8 823e
000003c0: cc39 773d 5791 873d ba30 403d a382 e5bd
000003d0: e8a7 7fbd 8723 cabd f53b 6abe ea5b 04be
000003e0: 82a3 4fbe db54 41be a67e 1d3d 9c7a a5bd
000003f0: 5054 ab3d 219b 503e 8ddf 48bd c39f 70be
-0.014378555 0.18592145 -0.13411064 -0.02659396 -0.13524811 -0.15065238 -0.21774888 0.061325826
0.0699903 -0.20452176 -0.06460193 0.019226978 0.11336923 -0.082930446 0.23587406 -0.1738062
-0.030781232 -0.11691384 0.01281018 -0.06540512 -0.0132101355 0.1483461 -0.1641162 0.11004256
0.26148134 -0.1556107 0.027130608 -0.011064492 0.22119504 -0.067567706 -0.18935037 -0.106642604
0.25158766 0.22053277 0.0663937 -0.18901536 -0.06388211 -0.14757994 -0.0053698053 0.018796688
0.16545732 -0.2116423 0.21016672 0.12852867 -0.25007612 0.007885452 0.06654138 0.21833399
-0.054963462 -0.13237968 -0.06410154 -0.082948044 -0.039154932 0.20442623 -0.079810955 -0.016629009
-0.09544964 0.09254428 0.09158992 -0.0015369724 0.15641847 0.104370564 0.041835994 0.14859389
-0.18582664 -0.05627945 -0.15727678 -0.21460602 0.09692875 -0.060150795 -0.2406253 -0.15399505
0.14235091 0.16445142 0.21035743 0.16703017 -0.13641702 0.03863632 0.04996463 0.053403173
-0.07739084 -0.24630973 0.05729502 0.06329966 -0.17697155 0.1287417 -0.13805988 0.02689118
-0.059667464 0.1518516 0.04538015 -0.13566959 0.12798819 0.013293581 -0.07018452 0.036254693
-0.043757364 0.13561569 0.23940498 -0.21061523 -0.04608357 0.23242871 -0.17063992 -0.07452667
0.18278982 -0.113579705 0.17764881 0.1286618 -0.14184648 -0.19457516 -0.22113588 0.014770406
-0.10931313 -0.07861878 0.08491944 -0.020617664 0.21634604 -0.062126137 0.06427965 0.22850436
0.104768656 0.17015533 0.14799392 0.17942539 -0.0030223324 0.25854373 0.13279796 -0.024517253
0.1569774 -0.108995795 -0.09310864 0.051763088 -0.1378215 -0.12782972 0.028294493 0.08671992
0.15100454 0.1313264 -0.15838787 0.15930462 -0.06358126 -0.25588366 -0.19211735 -0.031349972
-0.12621127 0.09362483 -0.19095054 0.16109478 -0.060212664 0.23111029 0.2237137 0.1134058
0.2325263 0.15388586 0.025091462 0.15322809 0.19747025 0.06473434 -0.12479409 0.08381191
-0.18922487 0.12970859 0.1470389 -0.19032536 -0.017294738 0.095258266 0.19550137 -0.22702989
-0.20518379 0.13070868 -0.22796421 0.22832666 -0.15495408 0.085789084 -0.240623 -0.18700375
0.05748563 0.17187145 -0.14461318 -0.01897535 0.18723321 -0.09868794 0.14865014 -0.2218732
0.01577618 -0.21623379 0.02747915 -0.19166797 0.031530865 0.013052352 0.12682268 -0.044657003
0.14725144 -0.21963832 0.09272082 0.13421126 -0.027961588 -0.13660413 -0.2283336 0.108295724
-0.0657628 -0.064536065 -0.03396589 -0.13238671 -0.22434957 -0.06540634 0.20008045 -0.18199368
-0.07207434 -0.16990837 -0.026229193 -0.08501071 -0.079242595 0.22364077 0.07940611 0.21018474
-0.0993845 0.18153432 -0.040473588 0.19483347 0.15749778 -0.068326816 -0.11125401 -0.2319009
-0.20732895 -0.07290222 0.12261191 -0.0629418 -0.21566197 0.084438585 -0.11869462 0.21200375
-0.10993948 -0.021564066 0.16366333 -0.13703594 0.22476055 -0.07610568 0.050297596 0.25543386
0.060357854 0.06619518 0.04692147 -0.112065576 -0.062415987 -0.098700576 -0.22874434 -0.12925687
-0.20277217 -0.18880026 0.03845086 -0.080800265 0.08365691 0.20371677 -0.04904132 -0.23498444

layer1.1.fc2.bias f4 [16]
00000000: 268e cbba df9e 6b3e adf4 803e 4741 46bd
00000010: 0998 f3bd 1df9 463d fb9e fabd ddad 65be
00000020: 3be3 80bd 82bc 05be e2c4 94bc 1273 a6bd
00000030: 65cc 703e e591 d83d f65b 41be 0fe2 a7bd
-0.0015530034 0.23009823 0.25186673 -0.048402097 -0.11894233 0.048577417 -0.12237354 -0.22429605
-0.06293341 -0.13060191 -0.018160287 -0.08127417 0.2351547 0.10574702 -0.18882737 -0.08197414

layer1.1.bn2.weight f4 [16]
00000000: 4710 7e3f 0a7d 803f 3c54 803f b4d5 7f3f
00000010: e66e 803f 66d7 813f 6087 813f 42f4 7f3f
00000020: 0312 813f 4aef 813f 2562 803f 409f 7d3f
00000030: 3d91 7f3f 3908 813f 508f 803f c200 7e3f
0.9924359 1.0038159 1.0025706 0.9993546 1.0033844 1.0143859 1.0119438 0.9998208
1.0083622 1.015115 1.0029951 0.9907112 0.9983099 1.0080634 1.0043736 0.99219906

layer1.1.bn2.bias f4 [16]
00000000: 99b2 d0ba d18b 89bc 3ebd ee3a 6168 5b3c
00000010: f9f2 9d3b 11f3 443c fb38 aabb 1ee1 063c
00000020: fe90 d43b eb4b ef3a 3b62 b439 ef0a f43b
00000030: 0fc1 b03a 865f 8abb 9c06 6dbb 80de 34ba
-0.0015922367 -0.016790302 0.0018214358 0.013391585 0.0048202244 0.012020842 -0.005194781 0.008232383
0.006487011 0.0018256878 0.00034405463 0.0074475924 0.001348527 -0.004222813 -0.003616727 -0.000689961

layer1.1.bn2.running_mean f4 [16]
00000000: 1947 53be 7b87 403e f33f dd3e 3b00 823d
00000010: 3219 70be ead4 28bd 9a07 1abe b995 8e3e
00000020: 8266 6ebe 02ce b23e 1232 82be 8400 12be
00000030: da1d 2ebd ee12 053e 1957 10be 72bc d7be
-0.2063259 0.18801682 0.43212852 0.063477 -0.23447111 -0.041218676 -0.15041962 0.27848604
-0.23281291 0.34922796 -0.25428826 -0.14258009 -0.042508937 0.12995502 -0.14095725 -0.4213596

layer1.1.bn2.running_var f4 [16]
00000000: b726 993e c102 433d 195a 303e b2ce 903d
00000010: 6fce 8e3d 9e57 783d 548d 0a3e a810 793e
00000020: 131a 263e d863 873e d77e a43e 2aca e03d
00000030: 02ff 303e 6f91 323e 71f2 0d3e 3031 0a3e
0.2991235 0.04761005 0.1722187 0.07070674 0.06972968 0.060630433 0.13530475 0.2432276
0.16220884 0.26443362 0.3212802 0.1097606 0.17284778 0.17438291 0.13862015 0.13495326

layer2.0.fc1.weight f4 [32, 16]
00000000: 14e6 1c3e e6f4 2e3e 216d 29be ac92 a83d
00000010: e726 29bd 6753 e3bd c494 2d3e 9bee ecbd
00000020: fd3f 103d 8058 2a3c 0d70 743e 1781 01be
00000030: fe40 033e 19e7 e5bd 50bf 253e 472b 3cbe
00000040: 09d7 4dbe ca04 20be 2626 8e3d 87dc a23d
00000050: 32a5 3f3e e10d 46be 680a e23d 60cc 51be
00000060: 467d 1ebe d242 afbd d5ab 21be 7513 ba3c
00000070: b17a 58bd d25d 2b3e 8e21 ac3d 67df 4d3e
00000080: 8066 76be 3223 963d d2f8 613e fcc0 093e
00000090: 0bf2 1bbd d7cf c33d f6fb e1bc de05 75be
000000a0: ae40 203e 15cd b43d 9434 ee3c f9f4 46be
000000b0: e987 c33d 5611 5dbe a75a 96bd 95e2 c93d
000000c0: 9ca3 0b3e a283 eebc 71b2 0a3e 6761 15bb
000000d0: 27e5 b63d 9a03 903b f781 bd3b 9a1e 783e
000000e0: 8584 72be 3453 603e f2a4 82bd f175 563d
000000f0: 550c 233e 2d2c ccbc 9bad 8a3d 20ff 24be
00000100: b4fa 033e 2fac b1bd a5fd 3cbe 40dc 353e
00000110: e3ce 623e a566 b93d 0272 3fbe b698 44be
00000120: 312a e73d 4a7d 363d 83ea 293e 888e 073e
00000130: dbd0 bdbd 987e b53c e11d 75bc b595 23be
00000140: 8576 643d 75e0 1b3e 65e8 773e 3bcd 9e3c
00000150: 75aa ab3d b952 363e b97f 02be 5f22 f3bd
00000160: 85aa 2abe 3c26 703d 2b35 303d 4efb a63d
00000170: 7642 593e 0ef1 c7bd 3937 d0bd 7d51 9abd
00000180: 3dd9 ec3c 1f9f c23b 51ef 51be 907d 443e
00000190: cf00 a53c f433 5ebd e058 4e3d 67b0 74be
000001a0: ef3d 25bd 4dce e3bb 29d8 6abe c5bf 5d3d
000001b0: 3ca8 933d 4282 aebd 9932 483c 4cea 2c3d
000001c0: 913f d63d 8708 49be c21c dd3d 0091 ec3d
000001d0: cbb2 10be 0140 63be 90a4 b6bd 2e44 c3bd
000001e0: 7a74 633e db42 78be a023 363e a10a 283d
000001f0: 8e1f cebd 3de6 81bd b6bd e33d 4818 63be
00000200: f3c3 61be 77ec a83d e792 70be bcca d43d
00000210: dccf a63c a3f6 903c bacb 23bd e7d6 583e
00000220: a422 63bc e8df 263e 774e 513e c0e1 1abe
00000230: 5268 113e 5302 10be d802 503e e2d0 463e
00000240: be82 33be 03b0 83be 29c9 28be 331a 37be
00000250: 0edd 6b3e 0fb2 373b 81cc 7d3d cb35 52be
00000260: 9cc5 60be 8cc3 14be ecc0 593d c027 32be
00000270: 2eba 6cbd 6610 6a3e 4838 ae3d fcd2 bfbc
00000280: c8d9 06be 41ba bb3d b6a3 2d3e 48cf 963d
00000290: fc47 22be 1fb6 2cbe 1ea1 5cbe 86db 5c3e
000002a0: 730d 303d cf3a 603e a73b b53d fcd5 733e
000002b0: 4a8b 3fbd d036 3f3d d3ba 233d b3cb fcbc
000002c0: 324b 1b3e 5383 183d 8ef3 1fbe bc7e 473e
000002d0: c741 603e 09c9 06be 2cfa c23d 9f19 41be
000002e0: 45bd 703e 943b 54bd 633f 6bbe 490a 39be
000002f0: f308 813d 88ac 143d f361 57be 600b fbbd
00000300: 8bb3 26be a306 4ebd 1b44 dbbd 0d8e 85bd
00000310: 1e59 2a3e f4cb 5bbd c4c0 90bd 5890 4c3e
00000320: 86e8 c23d abe0 313e f332 94bd 729b 733e
00000330: d3cc 0abe c670 463e db7a 2cbe 6541 383e
00000340: 66af 4abe 49c5 ecbd e77f efbb b07a 47be
00000350: 112b c93d 78b1 4cbe debb ab3d 4855 ac3d
00000360: 3050 30be e7a8 533e 521a 03be 5f45 6f3e
00000370: 6e9e ce3d aa9e c5bd d306 2fbe e69e 00be
00000380: 067c d8bc ff6a 7b3e 49c4 0ebe 90e7 903c
00000390: c5d6 4c3c 65f5 d53d dd3f 113e 6fd4 53be
000003a0: f71b 2fbe 18c6 463e 37f1 ab3c 0369 3d3e
000003b0: 00c4 053e 7f23 b9bd fd6e 68bc 2ebd 96bd
000003c0: ce29 abbd d3bc 6cbe 2025 d93a a180 a33c
000003d0: 2434 b33d 3e93 773e 3f5f 903d e9d2 473e
000003e0: 85b0 453e 42c6 9b3c e33d 433e 8602 593e
000003f0: 39fc 4a3d b259 1d3e ce95 94bd 7c48 2c3e
0.15322143 0.17085609 -0.16545536 0.082311004 -0.041296866 -0.11099892 0.16951281 -0.11568948
0.035217274 0.010397077 0.23870869 -0.126469 0.12817761 -0.11225719 0.16186261 -0.18375884
-0.2010156 -0.15626827 0.0694087 0.079522185 0.18715361 -0.19341232 0.11037141 -0.20488119
-0.15477476 -0.08557667 -0.15788205 0.022714356 -0.052851383 0.16735008 0.084048375 0.20104752
-0.24062538 0.07330932 0.22067574 0.13452524 -0.038072627 0.09561127 -0.027585965 -0.2392802
0.15649673 0.08828179 0.029077806 -0.19429387 0.09547407 -0.21588644 -0.07341509 0.0985767
0.13636631 -0.029115502 0.13544632 -0.0022793652 0.08930426 0.0043949606 0.0057833153 0.24230424
-0.23683365 0.2190674 -0.06379117 0.05235857 0.15922673 -0.024923408 0.06771394 -0.16112947
0.12888604 -0.086754195 -0.18456133 0.177598 0.22149234 0.09052781 -0.18695834 -0.1919888
0.11287344 0.04455308 0.16593365 0.13237965 -0.09268352 0.022155091 -0.014960737 -0.15975077
0.05577709 0.15222342 0.24209745 0.01938497 0.083821215 0.17804994 -0.12744035 -0.1187179
-0.1666661 0.058630213 0.043019455 0.08153401 0.21216759 -0.097627744 -0.10166783 -0.07535074
0.028912181 0.005939379 -0.20501448 0.19188523 0.020141987 -0.054248765 0.050377727 -0.23895417
-0.040342268 -0.006952083 -0.22934021 0.054137964 0.072098225 -0.085209385 0.012219095 0.04221563
0.10461343 -0.19632159 0.10796501 0.11551094 -0.14130704 -0.22192384 -0.089181066 -0.095344886
0.22212401 -0.24244253 0.17787027 0.04102576 -0.10064612 -0.063427426 0.11120169 -0.22177231
-0.22047405 0.08248227 -0.23493539 0.10390231 0.020362787 0.01769573 -0.03998921 0.21175729
-0.013863239 0.16296351 0.20440088 -0.1512518 0.14199951 -0.14063387 0.20313585 0.1941562
-0.17530343 -0.25720224 -0.16482987 -0.17881088 0.23033544 0.0028029715 0.06196261 -0.20528333
-0.21950382 -0.1452772 0.0531625 -0.17397976 -0.057794742 0.22857818 0.085068285 -0.023416035
-0.13169014 0.091663845 0.16956982 0.073637545 -0.15847772 -0.16866349 -0.21545836 0.21568117
0.042981576 0.21897434 0.088492684 0.23812097 -0.046763696 0.046683133 0.03997309 -0.03085885
0.15165403 0.037234616 -0.15620252 0.19481939 0.21900092 -0.13162626 0.09520373 -0.1885743
0.235097 -0.05181463 -0.22973399 -0.1807033 0.06300535 0.03629735 -0.21033458 -0.12258029
-0.16279428 -0.050299298 -0.107063495 -0.06521235 0.16635558 -0.0536613 -0.07068017 0.19976938
0.095170066 0.1737086 -0.0723628 0.23789766 -0.13554697 0.19378957 -0.1684374 0.17993696
-0.19793472 -0.11561067 -0.0073089483 -0.19480395 0.098226674 -0.19989574 0.08385442 0.084147036
-0.17218089 0.206699 -0.12803009 0.23366307 0.10088812 -0.096494034 -0.17092447 -0.12560615
-0.026426326 0.24552535 -0.13942064 0.017688543 0.012502377 0.10447196 0.14184518 -0.20686506
-0.17100511 0.19411504 0.020989044 0.1849709 0.1306305 -0.090399735 -0.014186618 -0.07360302
-0.08357583 -0.23118906 0.001656685 0.019958796 0.087501794 0.24177262 0.07049417 0.1951405
0.19305618 0.019015435 0.19066577 0.21192369 0.049556945 0.15366247 -0.072551355 0.16824526

layer2.0.fc1.bias f4 [32]
00000000: 2d58 a93d e7a0 42be fa77 c43d 8f25 0bbe
00000010: dc26 1d3e c21c 7b3e 67b7 22be cc8f 7c3e
00000020: 99b4 c7bd e1a7 eebb 463a 563b e34d 433e
00000030: bb9c e0bd ffea 41be f957 3b3e ad67 193e
00000040: 2f8d 453e 974c 21bd 6fc3 37be c5a4 3d3c
00000050: 1f61 d7bc 255b b03c 83e1 fb3d 77a8 88bc
00000060: bc3c 4d3e 45d8 8abd b764 75be 15c1 753e
00000070: 25f3 253e 1f0d 0f3e 9fe6 0abe fcba 6abe
0.08268771 -0.19006692 0.09593196 -0.13588546 0.15346855 0.24522689 -0.15890275 0.24664229
-0.09751243 -0.0072831963 0.0032688542 0.1907268 -0.10967394 -0.189373 0.18295278 0.14980955
0.19292139 -0.039379682 -0.17945646 0.011574929 -0.026291428 0.021527836 0.12298872 -0.016681893
0.200427 -0.067795314 -0.23964201 0.23999436 0.16206034 0.13969849 -0.13564537 -0.22922891

layer2.0.bn1.weight f4 [32]
00000000: f206 803f 0117 7e3f 9d9f 7c3f 3734 803f
00000010: eb8f 7e3f 182c 813f d9c7 7d3f f91e 7d3f
00000020: 8619 7d3f 1667 803f b2d6 7e3f 7f60 7f3f
00000030: 7c1e 813f 3e6b 7f3f a3be 803f 91ad 7b3f
00000040: a402 813f 44bd 813f d739 813f 4d05 7f3f
00000050: 8bf7 803f 75d2 803f 7ed6 7e3f d089 7e3f
00000060: b048 7e3f e84c 803f 5f24 803f 5215 803f
00000070: 6747 7e3f ec6f 813f c48d 803f 7bbc 7f3f
1.000212 0.9925385 0.9868105 1.0015935 0.9943835 1.0091581 0.9913307 0.98875386
0.9886707 1.0031459 0.9954635 0.99756616 1.0087428 0.99773014 1.0058178 0.98311716
1.0078931 1.0135884 1.0095776 0.99617463 1.0075544 1.0064226 0.9954604 0.99429035
0.9932966 1.002347 1.00111 1.0006506 0.993277 1.0112281 1.0043263 0.99896973

layer2.0.bn1.bias f4 [32]
00000000: 460c 87bb 23a2 44bc 5dcc 0abb 8ba0 c73b
00000010: 0dbd 0abc 756d fc3b 241e 02bc f970 dfbb
00000020: 8533 d4ba 40f1 163a 9b52 3fba 0a89 113c
00000030: e06d 373b 6965 bbba aae3 9fbb 0a0d 89bb
00000040: 1489 333c a977 783c 18ea 9d3b 7186 933b
00000050: 7518 183c 3acc 963b 1822 d1bb cc4f 2ebb
00000060: 6665 c13b 2e60 d83b 14d1 eebb d5b3 6c38
00000070: 8be8 a6ba 462f 8e3b 951f 5e3a 8877 033b
-0.004121336 -0.012001547 -0.002117894 0.0060921363 -0.008467925 0.007703478 -0.007941756 -0.0068188873
-0.001618967 0.0005757995 -0.0007298381 0.00888277 0.0027989075 -0.001429719 -0.0048794346 -0.0041824626
0.010957975 0.015165248 0.004819166 0.0045021106 0.009283175 0.0046019824 -0.006382238 -0.0026597856
0.00590198 0.0066032624 -0.0072881076 5.6434266e-05 -0.0012734098 0.0043391315 0.0008473334 0.002006026

layer2.0.bn1.running_mean f4 [32]
00000000: f872 e43e ed0c 11bf 999d 64bc 44df d03e
00000010: ff32 8b3e 17ca 2a3f 9b56 e8be 2f03 42be
00000020: 468c 773e 618c 39bf 159a 643e c1c5 a53d
00000030: 50c7 713c 7e66 29bf 53be 093f 9a11 7f3f
00000040: 90a0 a73e 5d25 d8be 5505 0d3f 1ec3 b3bc
00000050: 622b edbe 9c3b 05be 1885 69be b571 293f
00000060: 71c6 013f f233 90be f133 a0be d541 003e
00000070: 2cb4 b43e 1e5d e83d 1f89 983d e7eb 8dbe
0.44618964 -0.5666035 -0.01395359 0.40795338 0.27187344 0.66714615 -0.45378575 -0.18946527
0.24174604 -0.72479826 0.22324403 0.08094359 0.014756992 -0.66172016 0.53806037 0.9963623
0.32739687 -0.42216006 0.5508626 -0.021943625 -0.4632216 -0.1301102 -0.22804677 0.6618913
0.5069342 -0.2816463 -0.31289628 0.12525113 0.3529371 0.11345886 0.07448029 -0.27719042

layer2.0.bn1.running_var f4 [32]
00000000: e982 553e f86d 913e 7177 d73e 5a75 c93e
00000010: 906c a33e 188f 6f3e 8a1b e13e 64b5 db3e
00000020: 5a21 d33e 4673 ce3e f038 143f 909b 273f
00000030: 7527 a63e e254 843e 6d8e b93e 09ae 0e3f
00000040: f099 253e 2bd1 1e3f 5f7b 8d3e a0bd 1f3f
00000050: 026d 6b3e 3796 873f 0c63 4c3e 9adf f63e
00000060: b5c8 9e3e 81be 1c3e 841c 6d3e 1d6f 7d3f
00000070: e4cb 7b3e 58f1 023e a894 723e b8be 203e
0.2085072 0.28404212 0.42083314 0.39347345 0.31918764 0.2339443 0.43966323 0.42911828
0.41236383 0.40322322 0.5789938 0.65471745 0.32451978 0.2584601 0.36241475 0.55734307
0.16172004 0.62037915 0.27633187 0.6239872 0.22990802 1.0592717 0.19959658 0.4821747
0.31012502 0.15307046 0.23155409 0.9899767 0.24589497 0.12787378 0.2368952 0.15697753

layer2.0.fc2.weight f4 [32, 32]
00000000: 9fbc 0dbe 5571 c3bc 1293 8b3c 1add 0c3e
00000010: 2af8 c4bd dfc4 68bd 962d 24be 1e40 cbbd
00000020: e0b5 873d 9d51 c1bd dceb 3c3d 7b90 063d
00000030: 8141 fe3d 1452 e53d c0db 0ebc 6585 873d
00000040: d864 91bc 07d4 d83c 528a 083d 4840 f8bc
00000050: 04e2 e33c fb58 303e cbc4 d1bd 7508 36bd
00000060: e940 35bd 2a72 99bc 2a7c 46bd ea08 f8bb
00000070: cb33 0e3e 6e6e 703d efbc 133e f637 54bd
00000080: cd12 01be 50e0 203e ab87 c63d 1111 b83d
00000090: d694 0cbe d986 f53d 6d58 73bd 1b88 693a
000000a0: 0658 ef3c 1002 2dbe 6771 1bbd 7d17 1dbe
000000b0: b617 d33d 96be 993d a415 4cbd b400 b1bd
000000c0: 485c 8bbc 0271 e93d c366 113e b894 6dbd
000000d0: c4fc 22be c2c7 fd3b d517 d33d 17b1 1ebc
000000e0: 6644 153e 2227 82bb e937 08bd cd58 0f3e
000000f0: 598d e3bd 422d 08be b832 8f3d 8545 383c
00000100: ac00 ac3d 55a9 07be 814b 97bd 9092 c5bd
00000110: 4ef8 a33c 5b38 21bd a98f e4bc 91f6 14be
00000120: 397a c53d a0b6 023e e551 113e ea10 a93d
00000130: 2e7f e03d 008b d63d a911 ac3d 0aaa bebd
00000140: bd65 d23d a5ab 1fbe 520c 38bc 13f7 ca3d
00000150: 3889 08be dc10 10be 9a90 fdbc 1fe9 79bd
00000160: c2fe d0bd eaf7 94bd 981c 28bd d4f0 043e
00000170: 29d3 1c3e 24e4 443e 914a dd3d 38e8 f5bd
00000180: 84a3 913d 635f e2bb aa92 ea3c f91c 5abd
00000190: 3aec ebbd 3ef4 983d ec05 26be 908f 813d
000001a0: 25fb 50bd 3996 9bbd e74a 673d b088 dcbd
000001b0: 90ed 2cbc 0067 303d 43de 8f3d 2891 1abd
000001c0: e187 05bc 76cd 17be af7f 1cbe d8d7 553d
000001d0: 0f45 1c3e 2eda ad3d e5d3 b9ba f23d db3d
000001e0: 5c48 2fbe 1082 52bd cac1 953d 9fc1 763d
000001f0: 3daf e1bd 5cf4 663d fd75 4dbd 3e2f 60bd
00000200: e13b abbd 17d0 ab3d 8eb7 c43c 433c 4a3d
00000210: 6cf4 2d3d 925c 1ebe d1b6 8fbc 007b 56bd
00000220: c3b9 00be 90a0 1a3e 1bf1 09bd 8b16 cfbc
00000230: b0e8 653d 5f8b 46bd edfa 253e 6ebe 9a3c
00000240: 4376 433d bb6d a8bb f5d5 e6bd 31f9 813d
00000250: fe3b b9bb 63d5 993d e89a 18bd cf40 1ebe
00000260: 6ad4 69bd a830 383d a4e6 913d 61a8 cd3d
00000270: 8d37 b63d 08b9 2a3e f67b 97bc dfe4 8fbd
00000280: 22c2 18be 3aa1 993d 6a9f d53d c5f6 273e
00000290: e0b4 27be 137a d3bd 2917 de3d 2c38 d63d
000002a0: 4e89 133e ffea 123e 0b2e 0f3e d1c0 0e3d
000002b0: f5c2 3b3e 48ea cbbd 9fc1 56bb f11e eb3d
000002c0: ee2b b43d e9c2 09bd 5b79 ce3c c65c dfbd
000002d0: 1c47 33bc 4f84 8b3b aa22 fd3d b84d 013e
000002e0: 9a60 17bd 9521 053c d72a b23d ffcf bcbd
000002f0: 72d0 37be 0843 ca3d a32d 013d c543 7f3d
00000300: 5407 d7bd ee34 37be cfcc 1bbe 86c8 83bc
00000310: 8c2b 2bbd 067d 94bd 8df3 163e 9175 1c3e
00000320: 11b3 2d3e fcb0 68bd 5f6a f9bd b832 e4bb
00000330: 3a79 9dbd e741 a83d 7884 edbd bf09 223d
00000340: 42b9 ddbc 96cc 183b f270 023e 685a b73d
00000350: a8ff 373e f2e5 a9bd 9882 0bbe 6a71 15be
00000360: c16b 1bbe 14ae 05be acc9 303c 075c 1fbe
00000370: 0784 2abe 3715 aebd b27d dbbd aa57 0dbe
00000380: a963 2dbe 96e9 9b3d 6e01 233e 7da7 263e
00000390: 0316 7d3d 3331 373b 00bc c53d e2a2 80bd
000003a0: d8b7 46bd 17a1 31be 7bc0 c03d 275d b9bd
000003b0: fae2 a8bd 9f45 743c ec54 6dbd f7d1 b5bd
000003c0: 030e 50bd 6634 923d 10e0 da3c 9034 993d
000003d0: 0a6d 213e 0c16 333e df9a 2c3e feed f5bd
000003e0: 6a4d 8cbd 2270 adbd 488a a53c e78f 323e
000003f0: 2395 243e d934 0a3e e320 22be 8ffd d2bc
-0.13841484 -0.023857752 0.017037902 0.13756219 -0.09617646 -0.056828376 -0.16033015 -0.09924339
0.06626487 -0.094393946 0.04612337 0.03285263 0.12414838 0.11197296 -0.008719385 0.0661724
-0.017748281 0.02646829 0.033335038 -0.03030409 0.027817734 0.17221443 -0.102426134 -0.04444166
-0.044251356 -0.018731195 -0.048458256 -0.007569422 0.13886945 0.058699064 0.14427541 -0.05181118
-0.12604828 0.15710568 0.09693845 0.0898763 -0.13728651 0.11988611 -0.0594105 0.0008908526
0.029216778 -0.16895318 -0.037949946 -0.15340991 0.10307257 0.075070545 -0.049825326 -0.08642712
-0.017011777 0.11398508 0.14199357 -0.058003157 -0.15916735 0.0077447603 0.1030728 -0.009685776
0.14576873 -0.00397195 -0.033256445 0.13998719 -0.11110944 -0.13298514 0.06992096 0.0112470435
0.08398566 -0.13248189 -0.07387448 -0.09647095 0.020015862 -0.039360385 -0.027900534 -0.14547183
0.09642453 0.12764978 0.14191397 0.08255179 0.109617576 0.10475731 0.08401806 -0.09309776
0.10273311 -0.15592821 -0.011233406 0.09910407 -0.13333595 -0.14068931 -0.03095274 -0.061013337
-0.10204841 -0.07273848 -0.041042894 0.12982494 0.15314926 0.19227654 0.10805238 -0.12007183
0.07111266 -0.0069083436 0.028634388 -0.053250287 -0.11519666 0.074684605 -0.16213197 0.063262105
-0.05102076 -0.07597012 0.056467917 -0.107682586 -0.010554686 0.04306698 0.07024815 -0.037736088
-0.008150072 -0.14824471 -0.15283082 0.052207798 0.15260719 0.0848888 -0.0014177529 0.107051745
-0.17117447 -0.05139357 0.07312353 0.060243245 -0.11019752 0.056385383 -0.05016135 -0.054732554
-0.0836103 0.08389299 0.024013307 0.049373876 0.042469427 -0.15465 -0.017543228 -0.052363396
-0.12570862 0.15100312 -0.0336772 -0.025279304 0.05613011 -0.04847276 0.16209002 0.018889632
0.047720205 -0.005140034 -0.11271278 0.063463576 -0.0056529036 0.075114034 -0.037257105 -0.1545441
-0.05708734 0.044968277 0.07124069 0.10041881 0.08897314 0.16672146 -0.018491726 -0.070260756
-0.14917806 0.07501455 0.104307964 0.16402729 -0.16377592 -0.10326018 0.10844261 0.10459933
0.14407846 0.14347456 0.13982408 0.034851853 0.18336089 -0.09956795 -0.0032769216 0.11480511
0.087974414 -0.033633146 0.025204351 -0.10906367 -0.010942247 0.004257716 0.12360127 0.12627304
-0.03695736 0.008125682 0.08699577 -0.092193596 -0.1795061 0.098760664 0.031537663 0.06232049
-0.104994446 -0.17891285 -0.15214847 -0.016086828 -0.041789576 -0.07250409 0.14741345 0.15279223
0.1696284 -0.05680941 -0.12178492 -0.006964054 -0.07689138 0.08215695 -0.11597532 0.039560076
-0.027065877 0.0023315302 0.12738398 0.089527905 0.17968619 -0.08295812 -0.13624036 -0.14594045
-0.15177824 -0.13054687 0.01079027 -0.1556245 -0.16651927 -0.0850014 -0.10717334 -0.13802972
-0.16932549 0.07612912 0.15918514 0.16274829 0.06178857 0.002795291 0.09654999 -0.062810674
-0.04851517 -0.17346607 0.09411713 -0.090509705 -0.08246417 0.014909177 -0.057942316 -0.08877938
-0.050794613 0.071389005 0.02671817 0.074807286 0.15764251 0.17488879 0.16855954 -0.12008284
-0.06850703 -0.08468653 0.02020754 0.17437707 0.16072516 0.13496722 -0.15832858 -0.025755672

layer2.0.fc2.bias f4 [32]
00000000: afcd 68bd 01e0 da3d e0d7 12bc d7c4 2dbe
00000010: 1619 e63c f09d 87bd 8c82 ec3d deec cf3d
00000020: b2fe 053e 293b 0ebd c6f7 213c ed6c 68bd
00000030: e2a5 0fbe c88c 343d db7c a23d 1419 593d
00000040: b487 0dbd 5008 9a3d 1c7e 283e f1a2 e7bd
00000050: a97f 14be 2834 183e c622 18be bb37 fdbd
00000060: 17a1 26be 59f6 80bb 16a8 e83d 8034 dcbd
00000070: 3b1f afbd bb7c 193e 2bd9 993d c280 263e
-0.05683678 0.106872566 -0.008962601 -0.1696962 0.028088134 -0.06621921 0.11548337 0.10152601
0.1308544 -0.03472439 0.009885734 -0.056744505 -0.14028123 0.044079572 0.079339705 0.053002432
-0.034553245 0.07521117 0.16454357 -0.113103755 -0.14501823 0.14863646 -0.14857015 -0.12364145
-0.16272388 -0.003935617 0.11360185 -0.10752201 -0.085508786 0.14988987 0.07512125 0.16260055

layer2.0.bn2.weight f4 [32]
00000000: 0eaf 7f3f f427 813f c6b0 803f 862a 803f
00000010: a498 7d3f cef4 803f 432c 803f 4feb 7f3f
00000020: 2c9f 803f 8e1c 7e3f f570 813f a8d8 7e3f
00000030: ac65 7e3f 914c 803f 0ebb 7e3f 7f75 7d3f
00000040: 8e16 7c3f f89e 803f 9558 803f feae 7f3f
00000050: a398 803f 4429 7e3f 8e3c 7e3f 6767 803f
00000060: 5f05 803f 0df3 803f 8bdd 7d3f b771 7f3f
00000070: 7e56 7f3f dac2 803f 2101 7e3f 75a2 803f
0.9987649 1.0090318 1.0053947 1.0012977 0.99061036 1.0074708 1.0013508 0.9996843
1.0048575 0.9926232 1.0112597 0.9954934 0.9937389 1.0023366 0.9950417 0.9900741
0.98471916 1.0048513 1.0027033 0.9987639 1.0046581 0.99281716 0.9931115 1.0031556
1.0001639 1.0074173 0.9916617 0.9978289 0.9974135 1.0059464 0.9922047 1.0049578
