textbooks/toy-model2/outputs/experiment1/model.pth (torch, 3027 bytes, 4 tensors)

NN.hidden.weight f4 [32, 1]
00000000: 79e7 183f a69f 213f 1634 babc 5c03 203f
00000010: 7644 79bf b788 1f3e 3647 a3bf 70dd 8dbe
00000020: d674 0ebf b44f 863f 8a2c abbf 2c5e 93bf
00000030: 21a3 a43e 11ee ed3c a0d3 0abe f714 9dbf
00000040: 601a 5fbf 067b 953d 59f5 973e 8356 523f
00000050: 3923 24bf b956 d33e 996e 83be ca5b a0bf
00000060: 205f 793e c8c7 d2bc 69a8 f73d 7e3d 4ebf
00000070: 1f3b 373e 9e07 e8be 3837 a4bf 7c56 0bbf
0.597282 0.6313423 -0.022729915 0.62505126 -0.9737009 0.15579496 -1.2756107 -0.27708006
-0.5564703 1.0493073 -1.3372967 -1.1513114 0.32155707 0.029044183 -0.13557291 -1.2272023
-0.8714962 0.072988555 0.29679373 0.82163256 -0.64116246 0.41277102 -0.25670317 -1.2528012
0.24352694 -0.025730029 0.120926686 -0.8056258 0.17893647 -0.4531831 -1.2829351 -0.5442884

NN.hidden.bias f4 [32]
00000000: efd1 553c de8f 913e d841 973d 2b46 843f
00000010: 528e 5abf 43cd 5d3f 97b7 443c 1c4f 6dbf
00000020: 8066 50bf 09f2 95bb de1f bc3c 1684 dcba
00000030: 4367 adbe 8766 313e 1bf9 f7bd 12b1 563b
00000040: 1c89 57bf 17fb cb3e 1c0f 98be deb0 55bf
00000050: 1a5b 8b3c d904 afbb 7075 6abe 9a32 f13b
00000060: 3a2a 7bbf 1796 4c3f 4e47 033f d2ae 73bf
00000070: 3ac0 be3e f919 103f 705d 3a3d 0ffd 1a3f
0.01305054 0.28430074 0.073856056 1.0333914 -0.85373414 0.8664133 0.012006662 -0.92698836
-0.814064 -0.004575972 0.022964414 -0.0016824033 -0.33867845 0.17324267 -0.1210806 0.003275935
-0.8419359 0.39840004 -0.29699028 -0.83473 0.017011214 -0.005341154 -0.22896361 0.0073607685
-0.9811131 0.7991652 0.5128068 -0.9518863 0.37256032 0.5628963 0.045499265 0.60542387

NN.output.weight f4 [10, 32]
00000000: a10a 44be d639 0dbe 90cf 663d e39b 1fbd
00000010: 915b 2e3e a66e 69bd 009b 173f 591c 043e
00000020: caf2 9abd b8a1 263e 13de 853e a9b6 87bf
00000030: 1e55 073d 70ee de3c 6083 d83d 693f d63e
00000040: caa7 38bd e440 57bd 4410 83bd d33b 9c3c
00000050: d92d 5a3e ac47 9f3e 9083 c03d b115 c5be
00000060: 4bf3 9dbd 3d50 d73d 4a2b 18be c04f 28bd
00000070: 24a0 843d f4bc dd3d 849d 06bd 3cb2 d63c
00000080: cb1d 3d3e cfd9 943d 609d 033e 224a a63d
00000090: 51c7 35bd c390 f63d 96cd 35bf 2ab0 323e
000000a0: e427 1bbe eb2e 61be 3550 553f a3b5 4e3e
000000b0: 5119 dcbb 32b5 f63c 1c8b 0c3e 1ca7 c3be
000000c0: 51f4 613d d31f 143e d58d 653c fa8d 743d
000000d0: e8d8 53be dcd6 263e 5bb6 20bd 54c2 d9bd
000000e0: 7bab 1abe 6206 0cbd 8795 093c 1b39 c03d
000000f0: 16f5 613e 02c8 8a3d 8120 2d3e f777 70bc
00000100: 0215 683d a756 263d 9299 adbd 9091 6ebd
00000110: d82d 303e c52f 8abe 5c1d 9c3c 9f6e 13bc
00000120: 0a77 a4bd a047 8dbe a7e9 b23d d245 2b3e
00000130: 67bc 3f3d 53f1 7c3c de90 bf3d adca 44bf
00000140: 4124 d63d da95 93be 3762 58be 907e 70bd
00000150: dc69 ba3e 7f13 11bd 4927 033e b9dd ba3e
00000160: 9f69 bc3d dd15 6fbe 34d9 cebd 1408 ae3d
00000170: 9e81 c63d 5e82 adbd 230e b73e 9938 32be
00000180: 23cc a5bd 1b75 053e 5414 ccbc 1b1e 3b3e
00000190: 3218 1abe f3ad 383e 1d01 723f beba 13be
000001a0: 1f72 e5bd 2355 47bd 81ec 2fbf 01d8 e9bd
000001b0: 6a12 a73d 625b 453d 93bf 19bb bb6b 1cbf
000001c0: 462f 123b c0fd 2e3e ee47 273d e213 323d
000001d0: e1ec 23be 5b9b d6ba 4170 a53d d607 c93d
000001e0: 78d8 0e3d df16 f53d 3059 ecbc d1c5 063e
000001f0: 2b2b ef39 9817 93bd bbab fb3e 236c 193e
00000200: a3ad b4bd 4247 883d 18c9 e3bd 9091 39bd
00000210: e2b9 15be d826 043d f61a 37bf 00c0 b1bc
00000220: 54c2 f53d e32a ba3d dd68 21bf 4756 a23e
00000230: 46a4 c23c 33c4 313c d2a9 183e 978a 373f
00000240: 3630 f13c 0eb7 583c 745d b3bc 6112 4cbc
00000250: 4bd5 17be cea7 37be 0bcb ebbd 75bf 823d
00000260: 45fe 46bd 5306 c6bd 1162 893d d043 113e
00000270: edfb 4fb9 f47f 343d 2e44 f33e 91f3 abbb
00000280: 61cd 1cbe 98f1 2dbe 419d a93d ec6b 303d
00000290: 30bb 3d3d f2fa 02be d176 883e 2b1f 913c
000002a0: b129 64bd cd73 0cbd 11dc 51bd c976 903e
000002b0: 9696 073e 716e 45bc cf9d 02bd 72c9 b43e
000002c0: ebb2 003e 4c03 f9bd 1e2b 793d ac09 1bbe
000002d0: 6098 bdbe 2888 953e ce5a 4fbd 772c 2bbf
000002e0: 3231 e83d 52e5 64bc ec5b 2b3c e4e1 9fbd
000002f0: d4a9 03bd 5bbc 3e3d 833d fa3d 2719 0fbe
00000300: cc84 ee3b b426 0cbe 992e ce3c 4f20 183d
00000310: f78d 8f3d 4f9b 33be fada 3a3e 1c3c 30bd
00000320: 67b4 2dbe f4c6 053e 9436 653e 8b24 473d
00000330: f963 ddbd c6b7 edbd d63f 46be ef5c 28be
00000340: 0973 ff3d 5c29 ec3c 97cf ed3d 6f14 0c3d
00000350: 9720 29be 5a5a eebd bc8f 843d 9a19 24be
00000360: 495b 31be 09a9 dbbd c253 35be ad99 033e
00000370: 50f1 033d 2d50 33be d535 153e 0902 7cbe
00000380: 102b 8ebe 7632 513c e291 9b3c c640 f7bd
00000390: 487b a8bd f13c aebd 43fa 0b3e 4a8a c73d
000003a0: 3574 8d3d 8eec 86bc f5c8 1dbd d80c babd
000003b0: 3701 0abe 6e19 5b3d 713c 383e 387f f73d
000003c0: 22c5 d6bd ffa2 a2bd c694 ab3d 2817 02b9
000003d0: 4f07 0abf ad13 3e3d 417d 4bbe 2dc6 613e
000003e0: 0234 00bc 39ad 30be 1fa0 003d 55d4 a03d
000003f0: ebac e9bd 3cc3 2cbd 95b1 6a3c 329a 5d3d
-0.1914468 -0.13791594 0.05635029 -0.038967025 0.17027117 -0.05699029 0.59220886 0.12901439
-0.075658396 0.16272628 0.26145992 -1.0602618 0.03304016 0.027213305 0.10571933 0.41845253
-0.04508189 -0.05255212 -0.06399587 0.019071495 0.21306552 0.3110937 0.094000936 -0.38493112
-0.0771242 0.10513351 -0.14860263 -0.04109168 0.06475857 0.108270556 -0.032865062 0.026208036
0.18468396 0.07268106 0.12853003 0.081196085 -0.044379536 0.1203933 -0.71016824 0.17450014
-0.15151936 -0.21990554 0.8332551 0.20186476 -0.006716885 0.030115698 0.13724941 -0.38213432
0.05516464 0.14465265 0.014010866 0.059705712 -0.20688212 0.162929 -0.039236408 -0.10632768
-0.15104477 -0.034185775 0.0083974665 0.09385892 0.22066149 0.0677643 0.1690693 -0.014677039
0.05666066 0.040609982 -0.08476557 -0.058244288 0.17204988 -0.2698957 0.019056968 -0.008998542
-0.080305174 -0.27593708 0.08735972 0.16725853 0.046810534 0.015438396 0.09353803 -0.7687176
0.10456134 -0.28825265 -0.21131216 -0.05871445 0.3640889 -0.035418984 0.12807955 0.36497286
0.09199833 -0.23348184 -0.10100022 0.084976345 0.09692691 -0.08472131 0.35752973 -0.17404403
-0.080955766 0.13032953 -0.024912037 0.18273203 -0.15048292 0.18035106 0.9453295 -0.14426705
-0.112034075 -0.048665177 -0.6872025 -0.114181526 0.08157809 0.048182853 -0.0023460134 -0.61101884
0.002230601 0.17088985 0.040840082 0.043475993 -0.16008331 -0.0016373204 0.08078051 0.09815948
0.03487441 0.11967253 -0.028851122 0.13161398 0.00045617795 -0.071822345 0.49154457 0.14982657
-0.08822181 0.06654216 -0.1112234 -0.045304835 -0.1462169 0.032263607 -0.71525514 -0.021697998
0.11999956 0.09090211 -0.63050634 0.3170645 0.023759972 0.01085 0.14908531 0.71695846
0.029441934 0.013227237 -0.021895148 -0.012455554 -0.14827459 -0.17935106 -0.11513337 0.06384174
-0.048582334 -0.09669175 0.06708158 0.14186025 -0.00019834908 0.044067338 0.47512954 -0.0052475412
-0.15312721 -0.16986692 0.08281947 0.043071672 0.046321094 -0.1279104 0.2665315 0.017715057
-0.055703823 -0.034290124 -0.051235262 0.28215626 0.13241038 -0.012050257 -0.03188878 0.3530994
0.12568252 -0.12158832 0.060832135 -0.15140408 -0.37030315 0.2920544 -0.050623707 -0.6686472
0.11337508 -0.01397069 0.010458928 -0.07806757 -0.032144383 0.04656635 0.12218764 -0.13974439
0.007279014 -0.13686639 0.025168704 0.037140187 0.070094995 -0.17539714 0.18247595 -0.043026075
-0.1696335 0.13064176 0.22384101 0.048618834 -0.10810084 -0.116073176 -0.19360289 -0.16441701
0.12473113 0.028828315 0.1161186 0.034199174 -0.16516338 -0.11638327 0.06472728 -0.16025391
-0.17319979 -0.107256 -0.17707732 0.12851591 0.032212555 -0.17511053 0.14571317 -0.24610151
-0.2776723 0.0127683785 0.01899046 -0.120729014 -0.08226639 -0.085077174 0.13669686 0.097431734
0.0690693 -0.01647022 -0.038521726 -0.09084481 -0.13477026 0.05349105 0.17991807 0.12084812
-0.10486819 -0.07941245 0.08377986 -0.00012406392 -0.539174 0.046405483 -0.19872 0.22048254
-0.0078249 -0.17253579 0.031402703 0.07852999 -0.114099346 -0.042178378 0.014324565 0.05410213

NN.output.bias f4 [10]
00000000: de73 66bc 9d5d 313e 33dd 45be b616 3b3d
00000010: ec6c a4bd 00a0 36be b786 6ebe c2b7 e2bd
00000020: d45f 35be c9b3 e03d
-0.014065711 0.17320867 -0.19322662 0.045675956 -0.08028588 -0.17834473 -0.23293577 -0.11070205
-0.17712337 0.10971791
