sensor_case/outputs/experiment3/resnet_model.pth (torch, 148679 bytes, 92 tensors)

layer1.0.fc1.weight f4 [16, 5]
00000000: ff2e 2b3e e758 56be f28d 3a3d 9f87 2c3d
00000010: 01e7 9bbe 6299 0cbe cdeb 953e 7392 d53e
00000020: f63b 00bf 3bf9 543e b557 b7bd 0c82 b6be
00000030: 9de8 47be 9410 84be 8516 b5bd 31df 81be
00000040: f6fd 0bbf 9324 3a3c 7354 0b3c 67dd e4bd
00000050: 5811 5c3e a9f0 8c3d 9798 b53e 3a52 c1be
00000060: a862 af3d c9a8 52be 208d a33e 2da2 1e3e
00000070: 7513 b43e bbef f8bd e5fe 523e e299 9abe
00000080: 64c5 48bc 8ae5 883e 99b9 a1be ebc6 a73e
00000090: 8a56 46be 7b63 0abf dc30 813e 3f3b 1ebe
000000a0: 3a0f cd3e 007f e73c 8297 a23e c7b3 aebe
000000b0: 366e 9c3d c56c 8ebe 96af 7b3e a83a 2a3e
000000c0: 0a09 803e 1264 fabd 6cf3 f33d 673e 6e3d
000000d0: 2a4b c73e f5a9 9fbe 4c16 293e d60d ff3d
000000e0: f9c3 de3e 34c5 bebe a11b c4bd c824 cbbe
000000f0: 1ccd b23d 4766 6dbe 6e61 35be 5f35 ab3d
00000100: 4e47 f43e a1cb f43e 5b08 903c ab72 febe
00000110: 9f83 d03e a3e0 02bd ffdf 3bbe 05e1 24be
00000120: f07d 41be b403 aa3d 7b90 e73e c9b1 8bbe
00000130: 1261 e33e ea87 3b3d 618e c73e d20e 1abd
0.16717146 -0.20932351 0.045545526 0.042121526 -0.3044968 -0.13730386 0.29281464 0.41713294
-0.50091493 0.20798199 -0.08952276 -0.35646093 -0.19522329 -0.25793898 -0.08842186 -0.25365594
-0.5468439 0.011361259 0.008504021 -0.11175042 0.21490991 0.0688184 0.3546798 -0.37758046
0.08563739 -0.20572199 0.31943607 0.15491553 0.35171095 -0.121551 0.20605047 -0.30195528
-0.012254093 0.26737624 -0.31586912 0.3276895 -0.1936895 -0.54058045 0.2523259 -0.15452288
0.4005068 0.0282588 0.31756216 -0.34121534 0.076382086 -0.2781736 0.245787 0.16623938
0.25006896 -0.12226118 0.119116634 0.05816498 0.38924533 -0.31184354 0.16512412 0.12453811
0.4350889 -0.3725983 -0.09575582 -0.396765 0.08730528 -0.23183547 -0.17712948 0.08359789
0.4771065 0.47811607 0.01758211 -0.4969686 0.4072542 -0.03195251 -0.18347166 -0.16101463
-0.18895698 0.083014876 0.45227417 -0.27284077 0.44409996 0.045783915 0.38975814 -0.03761179

layer1.0.fc1.bias f4 [16]
00000000: 461c 9abe 91c1 72be d354 ce3e 00e7 9d3e
00000010: 009c f9be 23dd cfbe 514f f3be 2158 223e
00000020: 4946 66be de23 dbbd 12b8 6abe 26c9 94be
00000030: 63cc 7abe 1b5e 72be c499 a1bc 1057 7bbe
-0.30099696 -0.23706652 0.4029909 0.30840302 -0.4875183 -0.405984 -0.4752145 0.15853931
-0.22487749 -0.107002005 -0.2292178 -0.29059714 -0.2449203 -0.23668711 -0.019726641 -0.2454493

layer1.0.bn1.weight f4 [16]
00000000: 42ae 703f 3482 833f ba33 803f 3505 5a3f
00000010: 8da6 463f fcb6 843f 6b7d 873f 9479 993f
00000020: 8536 8d3f 0a65 4e3f 2b74 763f 412e 903f
00000030: 6b3e 883f 4fd2 9e3f d18f 903f 7db3 8e3f
0.94015896 1.027411 1.0015786 0.85164195 0.77597886 1.0368342 1.058515 1.1990228
1.1032263 0.80622923 0.9627101 1.1264116 1.0644048 1.2407931 1.1293889 1.1148525

layer1.0.bn1.bias f4 [16]
00000000: 2c4f b33e 4ce5 96bd ce97 08be 352b 15ba
00000010: cba2 c9bd af41 42be b51b e63e 0306 333e
00000020: 5194 64be 2651 9bbe 9681 0cbe fdba 2d3e
00000030: 9f36 33bd b0be 3cbd 50bb 78be 9455 16bd
0.3502134 -0.07367954 -0.13339159 -0.0005690337 -0.098455034 -0.18970369 0.44943014 0.17482762
-0.22322203 -0.3033535 -0.13721308 0.16965862 -0.043753263 -0.04608029 -0.24290204 -0.036702707

layer1.0.bn1.running_mean f4 [16]
00000000: 7996 17be 0338 c4be b9f8 a23e c9db 3b3d
00000010: 58dd 91be 8549 1fbf 0bc1 90be c53f 013f
00000020: 884d 283e c7f7 cabe 4c8c f9bd d97e 20be
00000030: 0fce 0abe 1eaf 863e f51b 39be 0f12 05bf
-0.14803495 -0.38323984 0.31830385 0.0458639 -0.28489184 -0.62221557 -0.2827228 0.5048793
0.16435826 -0.39642164 -0.12184963 -0.15673389 -0.13555168 0.2630548 -0.18077071 -0.5198068

layer1.0.bn1.running_var f4 [16]
00000000: 4ba4 0b3e ebdc 043f 4168 773e e5b9 9f3e
00000010: d500 883e e765 883e b9ce 803e d0b3 c53e
00000020: c120 5a3e a9ec 283e 89bf 853e 7b4b fb3e
00000030: b0e3 9d3e 6f72 ca3e 40bd 863e 3588 b83e
0.13636892 0.51899594 0.24160863 0.31196514 0.26563135 0.26640245 0.25157717 0.3861375
0.21301557 0.16496529 0.26122692 0.49081025 0.30837774 0.3954043 0.2631626 0.36041418

layer1.0.fc2.weight f4 [16, 16]
00000000: 5f75 30bc e812 e23d 4234 c6bd 9278 56be
00000010: 72e7 11bd 1bda 523d 025e 3dbd 9961 953e
00000020: 7595 39be 5bfe ae3d 210c d2bb ecb1 bebe
00000030: 4970 1b3e b13f bd3e 4b12 0b3f f2dd a8bd
00000040: 18b7 ecbd 576b a2be 996c aa3d 99e0 1abd
00000050: e254 24be 85d9 933d 6e4b d7be 4372 92be
00000060: 9d0f 19bf d375 de3d b48e 04be fced f8bb
00000070: 4a45 303e e7fd 8bbe e7c2 1e3e 8d59 063c
00000080: 0f35 86be cd70 3fbe 3df1 da3b c596 443e
00000090: 3e1e 59be 8e6f a43c e3f0 d8be a9af ffbd
000000a0: 8cef f4be 9f0b 113e 7ed5 77be da83 a2be
000000b0: 2320 943e 7ac6 53be e437 e33d c995 acbc
000000c0: 9cc2 2b3d 0c14 9abd f205 6f3c e333 dbbd
000000d0: 87cb 2ebe b2cc e43b 9718 8f3e 5d43 e3be
000000e0: f3dd cfbd 7c28 093e aa89 c7be 4961 8a3e
000000f0: 75b9 913d a65f a9be 46e2 253e d0cc a73e
00000100: 27aa 7dbd 95aa 8dbe 8513 e4bc e295 b53d
00000110: 2ed2 633e 5ae1 9ebd 182d d3bb a7b7 44be
00000120: a2c9 1cbe c249 c73b 56bc 0bbe 28be 9fbe
00000130: d75b 0ebe 4b77 10bf 6288 d1bd 29dc edbd
00000140: b3d2 fe3d 0a4b f4bc c66c d7bd 757a 6abe
00000150: 50be d9bd 6387 4ebe ac05 bfbd 8d26 db3d
00000160: 8160 80be b905 f3bd c943 d6be 6f61 93be
00000170: fcc3 b8be aaca aa3d 8c87 55be 99d9 cabe
00000180: 10a4 61be 2aeb 68be c223 bbbc 9ee4 31bd
00000190: 25f2 d7bd 7fc9 d53d a787 f2be 230c 3bbe
000001a0: 20a3 08be bb11 0bbd bbb3 4dbd 49af b9be
000001b0: 17af 1d3e 10c5 9bbe 840d 1f3e 42db 033e
000001c0: 081a 603e 3d63 263e 44e9 71bd 8711 85be
000001d0: 5355 48be a8a0 c33e b255 c9ba 047b e0be
000001e0: ed6d d5bd 69c6 773e b6f8 91be 359d ab3e
000001f0: ecc7 3a3e 6c7b 83be ec02 6c3e d05e 783d
00000200: b9b1 87be 873d ecbd e86f 59be 7753 7bbe
00000210: 0f37 b0bd 094d f4bb 1f06 bdbe 7dd8 98bd
00000220: f6e2 8ebe ee78 1bbe 35b3 bebd 8aef 66be
00000230: f43c 3a3d 6c3f 8bbe 32bb 043e ad6b a53d
00000240: f8bd 23be 64e0 c4be 23f4 8b3d 9ebe 883e
00000250: 0648 833d 5bc8 5dbe efa0 bcbe f4ee 02bd
00000260: eeb5 37be da4e d9bd 35e0 4ebe f6c7 acbd
00000270: cccc 903e 255a 2d3e 51ad 033d d41f 82be
00000280: 1fc3 8b3e 4743 383e d939 bc3e 0756 e63e
00000290: ace0 013e c8ea 35bd 81dd 8e3e 2609 b23b
000002a0: 5e27 e6bc 021e 80bd 8a82 d5bd c07e bfbd
000002b0: c4d5 293e a155 a43d 4100 cf3e fac4 3ebe
000002c0: 48e6 5b3e c9ff 7c3e 76fc 8a3e a1b8 9b3c
000002d0: a377 673e 27b4 5dbd 0163 d13d f890 d53e
000002e0: fcfb c53c b623 d3bd 0153 70bd 58be 2bbe
000002f0: 49fd b73e b620 013b f1f8 ad3e 1803 b7be
00000300: 30b5 a8be f375 6cbe 5dd1 4d3d ce60 f13d
00000310: 58d6 643d a28d 41bd 6f58 56be 51e0 c8be
00000320: a591 23be f6d0 44be 8e95 b53d 98ae 2dbe
00000330: 5fa3 413e f75e 32be 1566 883e a2ba 013d
00000340: c115 5f3e b7d6 c83e 5692 813e 61fa 353d
00000350: 5e5b 1e3e 0289 eabd a8df 2cbe ca91 11bc
00000360: 4fa7 b53e 6151 0b3e 4eac b23e 14b5 6fbe
00000370: 9e74 10be 6907 0c3e 317f 42bd b7a9 90be
00000380: 3fd9 e1bd 1f3c 20be 0f53 6c3e 582e 113d
00000390: 2b79 74be eab8 02bf 53ac 803e 3b23 df39
000003a0: de9c 293b fc97 f2be 0dbe 263d 600f 2e3e
000003b0: dc1d 363d 2d00 7bbe 34f0 12bd a03b 02bf
000003c0: 6cb3 38be 3eee 413e a434 a73e 798c 5cbd
000003d0: d914 f7bd 9791 a5bd 3436 e0bd 890f 333e
000003e0: bd23 683d 909b df3d e268 263e c226 3abe
000003f0: c408 e83e 228d 83bd 9d13 f93e 4bae 233e
-0.010770171 0.11038762 -0.09677936 -0.20944431 -0.035621114 0.051477533 -0.04623223 0.29176024
-0.1812342 0.08544608 -0.0064101373 -0.3724512 0.15179552 0.36962655 0.5432479 -0.08245458
-0.1155836 -0.3172252 0.083214946 -0.03781185 -0.16048005 0.07219223 -0.42049736 -0.286028
-0.5978945 0.10862317 -0.12945062 -0.0075967293 0.17213932 -0.2734215 0.15504037 0.0082000615
-0.26212355 -0.18695374 0.00668159 0.19198139 -0.21202943 0.020072725 -0.42371282 -0.124846764
-0.4783901 0.1416459 -0.24202535 -0.3174122 0.28930768 -0.20681182 0.11094645 -0.021067517
0.04193364 -0.07523355 0.01458882 -0.10703256 -0.17069827 0.0069824094 0.27948448 -0.44387332
-0.10149755 0.1339435 -0.38972217 0.27027348 0.07115451 -0.33080786 0.16199598 0.32773447
-0.061929848 -0.27669206 -0.027841339 0.088664785 0.22248146 -0.07757826 -0.0064445846 -0.19210683
-0.15311292 0.0060817907 -0.13646063 -0.31199765 -0.13902222 -0.56432027 -0.10231091 -0.11614258
0.124425314 -0.029820938 -0.10518794 -0.22898276 -0.10632002 -0.20168833 -0.09327254 0.10700712
-0.25073627 -0.11866326 -0.4184859 -0.28785273 -0.36087024 0.08339436 -0.20852488 -0.3961914
-0.22035241 -0.22745958 -0.0228442 -0.043430917 -0.10544232 0.10438823 -0.4736912 -0.18266349
-0.13343477 -0.033952456 -0.050220232 -0.36266544 0.15398823 -0.30423784 0.155325 0.12876609
0.2188493 0.16248794 -0.05906035 -0.25989935 -0.19563799 0.38208508 -0.0015360622 -0.43843853
-0.10421357 0.24196781 -0.28510064 0.33518377 0.18240327 -0.256801 0.2304799 0.060637295
-0.2650278 -0.11535173 -0.21234095 -0.24543558 -0.086042516 -0.0074554724 -0.36918733 -0.07463167
-0.27907532 -0.1518285 -0.09311525 -0.22552314 0.045468286 -0.27196825 0.12962034 0.08077178
-0.15990436 -0.38452446 0.06833675 0.2670793 0.06410222 -0.21658461 -0.36841533 -0.031966165
-0.17940494 -0.10610743 -0.20202716 -0.08436577 0.28281248 0.16928919 0.03214771 -0.25414908
0.27297303 0.17994414 0.36762884 0.4498751 0.12683362 -0.044413358 0.2790337 0.0054332195
-0.028094944 -0.062557235 -0.10425289 -0.093503475 0.16585451 0.08024145 0.4042988 -0.18629828
0.21474564 0.2470695 0.27145737 0.019008936 0.22604232 -0.054126885 0.102239616 0.41712165
0.024168007 -0.10309546 -0.05867291 -0.16771829 0.3593543 0.0019703335 0.3397899 -0.35744548
-0.32950735 -0.23091869 0.050248493 0.11786042 0.055868477 -0.047254212 -0.20932172 -0.3923364
-0.15973528 -0.19220337 0.08866416 -0.16961133 0.18909977 -0.17419039 0.26640382 0.031672128
0.21785642 0.39226314 0.25306958 0.044428233 0.15464541 -0.114519134 -0.16882193 -0.0088848565
0.3547921 0.13605262 0.34897083 -0.2340892 -0.14106986 0.13674702 -0.04748458 -0.28254482
-0.110277645 -0.15647934 0.2307856 0.035444587 -0.23874347 -0.51063406 0.25131473 0.00042560123
0.0025880854 -0.4738158 0.04070859 0.16998053 0.04446207 -0.24511786 -0.035873607 -0.5087223
-0.18037194 0.18938538 0.3265735 -0.053844903 -0.12064523 -0.0808441 -0.109478384 0.17486395
0.056674708 0.10918343 0.16250947 -0.18178847 0.45319188 -0.06423403 0.48647776 0.15984456

layer1.0.fc2.bias f4 [16]
00000000: 6c7c 64be c097 d43e 9e51 8abd 5f97 0bbf
00000010: b5a4 943e 901e c43c c5c0 53bd 79d4 f3be
00000020: 571d 583e b484 433e 2d54 c63d b26c 8dbd
00000030: 5d20 933d 0c5a 50be dc3f 063e 5de2 bbbe
-0.22313088 0.41522026 -0.067538485 -0.5452785 0.29031911 0.023940355 -0.05169751 -0.4762304
0.21104942 0.19093591 0.09684024 -0.069054976 0.07183907 -0.2034685 0.13110298 -0.3669614

layer1.0.bn2.weight f4 [16]
00000000: 5a90 903f c2b5 833f 49fc 8a3f 0538 8d3f
00000010: 06e4 813f 8c26 a13f 649f 923f 10ff 843f
00000020: 8699 a13f 52d3 773f 4e89 8b3f 94f0 373f
00000030: 31dc 913f d47d ac3f 1d75 5d3f b9d7 883f
1.1294053 1.0289843 1.0858241 1.1032721 1.0147712 1.2589889 1.1454892 1.0390339
1.2624977 0.96806824 1.0901277 0.7185147 1.1395322 1.34759 0.86506826 1.0690833

layer1.0.bn2.bias f4 [16]
00000000: c606 17be 9215 cbbe eefc 77be 4a3f fbbd
00000010: 9221 823d 593b f43b 7e09 1bbd a746 303d
00000020: 0171 99bb 0f71 aebe 2ebc 2f3d dbb2 12be
00000030: d338 d73c 251d de3b 8b89 89bd 673a f0bc
-0.14748678 -0.39664894 -0.24217579 -0.12267931 0.06354059 0.007453364 -0.03785085 0.04303613
-0.0046826606 -0.34070632 0.04290407 -0.1432604 0.026272213 0.0067783766 -0.06715687 -0.029324723

layer1.0.bn2.running_mean f4 [16]
00000000: 2f4b b2bb 7329 eabe 09d1 77bf 94fe 1bbf
00000010: f750 15bf 72ef 5ebf 068b 72bf b82b d6be
00000020: 90c8 44bf fa38 b2be 9256 5f3f f401 173f
00000030: 405b 12bf bca9 6a3d e9e6 8abe 3a95 323d
-0.0054410915 -0.45734748 -0.9680334 -0.6093533 -0.5832667 -0.87084115 -0.9474338 -0.4183023
-0.76868534 -0.34809095 0.8724147 0.58987355 -0.57170486 0.057290778 -0.27129295 0.043599345

layer1.0.bn2.running_var f4 [16]
00000000: 360c 073f 2789 f43e eb5d 073f cf0c 9b3e
00000010: c1a7 cd3e 7748 943e b07e 073f a4ea b03e
00000020: 2789 e53e a21f ca3e aa97 233f e10c 203f
00000030: 42c1 ec3e bb2d 1e3f 285d 363f d9af 003f
0.5275301 0.4776089 0.5287768 0.3028321 0.4016705 0.28961536 0.52927685 0.34554017
0.448312 0.3947726 0.63903296 0.6251965 0.46241194 0.6178853 0.71235895 0.5026832

layer1.0.shortcut.0.weight f4 [16, 5]
00000000: 97b1 c4be ced4 b1be 14a0 86be 312e bfbd
00000010: 47c7 803e d929 283f d689 6bbe a9ae ebbd
00000020: e1a6 d5be 4096 933e b644 b43e f87a 223e
00000030: 688d 8e3d 4195 1fbf 0cd5 c2be 2f11 1fbd
00000040: b7b1 71be e59f b93e b486 cbbd 8f2a 8ebe
00000050: d9ef 813e 2d96 0bbe f406 cb3b aaa7 83be
00000060: 4f0a 893e a2dc 91be 710a e13e ce9d b03e
00000070: 5dc4 71be ed15 883e 8f1e bfbb 5cc5 4dbe
00000080: aa95 15be fdcf 493d 8a4d 263f a8c5 093e
00000090: 2e34 da3d 9516 993e c446 e13c f491 d0be
000000a0: 1900 fb3e d7a6 e9be ac5a d53d 4f0d 4bbe
000000b0: fc38 033c 200d 82bd 95a9 293f 3e26 403d
000000c0: 7c5e af3d 6c1c 503c 2591 093f af72 d83d
000000d0: 8cd7 fc3c cf5e 7cbe 0230 18bf ca9d e13d
000000e0: 4762 d33e 8078 fb3d 748c 8dbe 9896 d8be
000000f0: 8da9 c3bd b807 e4be 18fd f83d 88bb babe
00000100: a358 403e 5aec 003e 69d1 35bd ec7d a93e
00000110: e7e2 4bbe cc2d f23d ffa3 0cbf a7b5 673d
00000120: 1d71 81be 601b 04bf f15a f6bd e72b 493e
00000130: 5ce5 cf3e 86e9 d33d 9e9b 4a3d eb97 393e
-0.3841674 -0.3473267 -0.26294005 -0.09334982 0.25152037 0.65688854 -0.23001799 -0.11507923
-0.4172888 0.2882557 0.35208672 0.15867221 0.06960565 -0.6233712 -0.38053167 -0.038834747
-0.23602949 0.36254802 -0.09937802 -0.27766845 0.25378302 -0.13631506 0.0061958972 -0.25713855
0.26765677 -0.28488642 0.4395328 0.34495395 -0.23610063 0.26579228 -0.0058325003 -0.20094818
-0.14607874 0.04927062 0.64962065 0.13454306 0.10654484 0.2990004 0.027499564 -0.40736353
0.49023512 -0.456351 0.10417685 -0.19829296 0.008009192 -0.0635016 0.66274387 0.04691147
0.08562943 0.012702089 0.537371 0.10568749 0.0308645 -0.24645542 -0.59448254 0.11016424
0.41285917 0.12278843 -0.2764622 -0.42302394 -0.095538236 -0.4453714 0.12157649 -0.364712
0.18783812 0.12590161 -0.044389162 0.33103883 -0.19910775 0.11825141 -0.5493774 0.05656972
-0.2528161 -0.5160427 -0.120290644 0.19645654 0.40604675 0.103472754 0.049464814 0.18124358

layer1.0.shortcut.0.bias f4 [16]
00000000: bede 7abc 8fe2 223c 9cad 893d 12f8 2bbe
00000010: a466 1dbf 8d2c fb3d aa0a 213e a223 d13e
00000020: 68d6 013e 0d50 b63e f525 fb3e a27c 26bd
00000030: fc3b 9fbe 6d55 27be 5380 e63e 9b6f 65be
-0.015311895 0.009941711 0.067225665 -0.1679385 -0.6148474 0.12264357 0.15726724 0.40847498
0.12679446 0.3560795 0.49052396 -0.040646203 -0.31100452 -0.16341181 0.4501978 -0.22405855

layer1.0.shortcut.1.weight f4 [16]
00000000: bed7 693f 6816 5e3f 06ae 743f 8ec3 5b3f
00000010: 547b 543f 6c1c 3e3f 4b94 923f 1ee9 9b3f
00000020: bb9c 6b3f 2b0c 633f 5a97 8c3f ec1d a23f
00000030: f4fe 8a3f 6550 753f 12f0 963f f3a5 6f3f
0.9134482 0.8675294 0.9557804 0.8584527 0.83000684 0.7426212 1.1451505 1.2180517
0.92036027 0.8869044 1.0983689 1.2665381 1.0859056 0.958258 1.1792014 0.93612593

layer1.0.shortcut.1.bias f4 [16]
00000000: c606 17be 9215 cbbe eefc 77be 4a3f fbbd
00000010: 9221 823d 593b f43b 7e09 1bbd a746 303d
00000020: 0171 99bb 0f71 aebe 2ebc 2f3d dbb2 12be
00000030: d338 d73c 251d de3b 8b89 89bd 673a f0bc
-0.14748678 -0.39664894 -0.24217579 -0.12267931 0.06354059 0.007453364 -0.03785085 0.04303613
-0.0046826606 -0.34070632 0.04290407 -0.1432604 0.026272213 0.0067783766 -0.06715687 -0.029324723

layer1.0.shortcut.1.running_mean f4 [16]
00000000: caf8 c2be 4f92 2e3f 5fa9 d03e 89e1 70be
00000010: ab7f b4be 2d9d 29be ac57 363e c505 043f
00000020: 10f7 1b3f b97e 973e dc20 813f 486e 5e3d
00000030: 601c d1be 0809 4abd a10c b4bd 1ea1 c0bc
-0.38080436 0.68192 0.4075422 -0.23523535 -0.35253653 -0.16563864 0.17806882 0.51571304
0.6092386 0.2958887 1.0088153 0.05430439 -0.4084196 -0.04932502 -0.08791471 -0.023514327

layer1.0.shortcut.1.running_var f4 [16]
00000000: df5a 813e 9ba5 a33e b828 123f a333 8b3e
00000010: 1e3f 1b3e 412d d23e cd9e ef3e 2df6 823e
00000020: fc19 873e 108a e63e 2dc5 d63e 2c80 dd3e
00000030: 89b4 c43e 84f1 1f3e ffdf b63e a160 553e
0.25264642 0.31962284 0.5709338 0.27187833 0.15160796 0.4105015 0.46800843 0.25578442
0.26387012 0.45027208 0.41947308 0.4326185 0.38418987 0.15619475 0.3571777 0.20837642

layer1.1.fc1.weight f4 [16, 16]
00000000: 3ece 233b ccbe a53e f5d0 4e3e 0a16 6bbe
00000010: 454a 23be 4af9 adba 2cac a53e 6cb0 66be
00000020: 646e 68bc 61da 743e e3b8 3d3e e0df f13c
00000030: 9a9e ce3d 4fc0 953e 790d adbe cc39 8d3e
00000040: 6f64 863e a9b1 c53d 0f78 583e 539a 52bd
00000050: ef6c 203d ce26 e5bd 0d4f f83d 134c 19bd
00000060: 5d0b a33c b109 8e3e b3aa bb3e 411c 003c
00000070: 1835 9d3e c616 14bd 69ed ddbd ea24 163f
00000080: 7da1 a3be 6930 913e 5ae2 313e 1223 7ebd
00000090: e58c e73d 5ada 593e 7b42 a53d d0c4 253e
000000a0: c030 d8bc 3c91 ff3d 4c9b 8a3d 1c4f ec3d
000000b0: 1564 873d e726 dc3e 158a 873e e6a3 6b3e
000000c0: 57a1 653d a596 a9bd c781 2cbe 0415 9b3d
000000d0: 5f6d 5e3d 84ab a9bd 390e 903e 9c39 533d
000000e0: 0e95 1b3e 1b6d 133e 7182 023e 931a ab3d
000000f0: 02bd df3e 96c1 ef3e dd37 0bbe 6d5a 8c3d
00000100: 87ba 9cbd 360d 8f3e 00e2 3a3d 9a27 b93d
00000110: ca13 c8bd 023f 823e 151b 29bc 427b 393e
00000120: d777 a2be 246e 6e3e 08f4 c73e f31e d33e
00000130: e4ae 06be 76eb 9c3d e78e 5c3e 6d4a 60be
00000140: f4fa 2e3e d56f 973e c32d 243e 61bb 3d3e
00000150: eb05 443d fb8a 293e eda4 51bd 4118 913e
00000160: da7a 9c3e 69bf 0d3e 2d65 d1be 2d40 e8bd
00000170: db15 6ebd c2d5 dbbe e9b5 89be 064a 9cbd
00000180: fdca 473d f3de a53d a3b6 083e c1f1 963d
00000190: 10e2 b33d 62c2 c6bd 879f 88be 9a5a 763e
000001a0: f69c 01be 8742 f6bd 4c6f 923e 3bc7 833e
000001b0: 2166 26be b196 72be 6969 a33e d13e 983d
000001c0: be3a 43bd e7b2 573e 34fa b039 0a9d ab3c
000001d0: 9fe5 d5bc 1fc4 37bd e3e2 213e a1b4 ce3e
000001e0: 44bb 903e c465 f4bc 9d13 c8bd ee13 f0bd
000001f0: 8292 193e 0222 d3be f8a7 58bd 5f2c 6d3c
00000200: 6694 44be 43f2 3e3e feee c53e fbdc 9ebd
00000210: f1f4 c73e be5b 9b3c 1358 853e 9b66 0a3d
00000220: c4dc 923e 9012 053e 329f eebc aa9c f03d
00000230: f007 953e e897 cbbe b9ec 5b3e 3c3f 54bd
00000240: a723 9fbe c8d4 743e 6b4d d73e 5b02 2b3e
00000250: 3f62 063d cb2f 103d 31bb a73d 7d8f 433e
00000260: 6f56 343e d31d 7ebc b7d1 a63e ef32 773e
00000270: 0433 2a3d 3649 92be cc24 0d3e 8d7d 9dbe
00000280: adc8 133e 8d64 a93e df9b e03e d874 b7ba
00000290: 460e ac3e ab92 7c3d b878 413e cbc0 a93d
000002a0: 73d5 183f 4a25 1a3d 2172 57bc 7aba 183c
000002b0: 2a58 333e fd16 60be 8c2e 02bd e991 a8bd
000002c0: 7244 00bf cd12 36be 95b2 b8bd a7ba 483c
000002d0: 95ea 55be eaa0 9d3e 2540 1ebe fc61 65bd
000002e0: eb04 0b3e c938 bebe 67be 72be b636 0dbe
000002f0: 18fb 673e f988 afbe 9455 8bbd 88c0 ecbd
00000300: 1619 973e 22a0 9d3d 249d f0bc c43b 7fbe
00000310: 7252 b63e c6af 45be e688 783e e959 64be
00000320: 4672 e83d 10dc 863e a142 a13e 41ce 4c3e
00000330: 6b49 b13e 5f2a 77bd 9b66 bb3d 0daa 853d
00000340: 4906 e7bd 017d 353d da28 b3bc b1a9 c53d
00000350: 2de0 adbe b4ed b1bc 4e5b a6be e837 213e
00000360: 07bb 82be a342 823e 1271 39be c82f e5be
00000370: 34db 17be c2d2 2dbe 014e 313c af6d 99be
00000380: 79d4 303e 0b31 1c3e d1f7 9dbd 61e3 813d
00000390: 1fb7 7abd 85f3 b3bc 9d42 d43e f190 4c3e
000003a0: a371 463d 0b3c a83d 1727 b73d be8d f7bc
000003b0: 5105 823e 4f6a 733e ca05 ed3d 7d04 893e
000003c0: 8bd2 9abe 2f67 2a3e ffdf 4f3c a37e 6e3e
000003d0: 5360 73be a0cc 86bd 972c 183e 4abf 393f
000003e0: b20a 50be a255 acbe a5c9 ac3d fefe 1d3d
000003f0: e382 b4bd 6876 573e 6ff8 77bd 4eb0 dd3d
0.0024994756 0.3237213 0.20196898 -0.22957626 -0.159463 -0.0013273146 0.3235792 -0.22528237
-0.014186475 0.2391143 0.1852756 0.029525697 0.100888446 0.29248282 -0.3379934 0.27583158
0.262485 0.096530266 0.21139549 -0.051416706 0.039166387 -0.11189042 0.12124453 -0.037426066
0.01990288 0.2774177 0.3665367 0.007819236 0.3070457 -0.03615453 -0.10836298 0.58650076
-0.31959143 0.28357247 0.17371503 -0.062045164 0.113061704 0.21274701 0.08069321 0.1618836
-0.026390433 0.12478873 0.06767902 0.115385264 0.06610886 0.4299843 0.26472536 0.23011741
0.05606207 -0.08280686 -0.16846381 0.07572368 0.054303523 -0.08284667 0.2813585 0.051568612
0.15193579 0.14397089 0.12745072 0.08354678 0.4369889 0.46827382 -0.13595529 0.06853185
-0.07652765 0.27939767 0.045625687 0.090407565 -0.097693995 0.25438696 -0.010321398 0.18113425
-0.31732056 0.23284203 0.3905337 0.4123455 -0.13152653 0.07662098 0.21538888 -0.21903391
0.17087919 0.2957751 0.16033082 0.1852851 0.047857206 0.16556923 -0.051182676 0.28338817
0.30562478 0.13842548 -0.40897503 -0.113403656 -0.05812631 -0.42936522 -0.268966 -0.07631306
0.04877757 0.08099165 0.1335092 0.0737033 0.087833524 -0.09705044 -0.2668421 0.24057999
-0.12657532 -0.12024408 0.28600538 0.25737938 -0.16249897 -0.23690297 0.3191636 0.07433856
-0.047663443 0.2106434 0.00033755752 0.020948905 -0.026110468 -0.04486477 0.15809207 0.40372184
0.28267872 -0.029833682 -0.09769366 -0.11722551 0.14997295 -0.41236883 -0.052894562 0.014475911
-0.19197235 0.18647103 0.386589 -0.077569924 0.39054063 0.018964645 0.26043758 0.03378926
0.28684056 0.12995362 -0.029128645 0.11748631 0.29107618 -0.39764333 0.21477021 -0.051818117
-0.31081888 0.23909295 0.42051253 0.16700117 0.03280854 0.03520183 0.08190001 0.19097705
0.17611097 -0.01551004 0.32581875 0.24140523 0.04155256 -0.2857148 0.13783568 -0.3075985
0.1443202 0.33084527 0.4386892 -0.0013996614 0.3360464 0.06166331 0.18893707 0.082887255
0.597007 0.037633218 -0.013149769 0.009321803 0.175141 -0.2188377 -0.03178267 -0.08230955
-0.5010444 -0.1778061 -0.09018437 0.012251533 -0.20890267 0.3078683 -0.15454157 -0.05600165
0.13576095 -0.371527 -0.23705445 -0.13790402 0.22654378 -0.3428419 -0.06803432 -0.1156016
0.29511327 0.076965585 -0.029371805 -0.24925143 0.35609776 -0.19305333 0.24270973 -0.22299923
0.11349921 0.2633977 0.31496146 0.20000555 0.34626326 -0.060343143 0.0915043 0.06526575
-0.11280496 0.044308666 -0.021870065 0.09651507 -0.33960095 -0.021719791 -0.32491535 0.15743983
-0.25533316 0.25441465 -0.18109539 -0.44763017 -0.14829713 -0.16974929 0.01082182 -0.29966494
0.17268552 0.15253083 -0.07713283 0.06342197 -0.061209794 -0.021966705 0.41457072 0.19977166
0.048448216 0.08214577 0.08943003 -0.030218955 0.2539468 0.23771022 0.1157337 0.26761237
-0.30238757 0.16640924 0.012687682 0.23290496 -0.23767214 -0.06581998 0.1486076 0.7255751
-0.2031658 -0.33659083 0.08436898 0.038573258 -0.08814027 0.21041262 -0.06053966 0.10824643

layer1.1.fc1.bias f4 [16]
00000000: 4e94 74be 923f 89be d16f 2cbe 6f4a 403e
00000010: c895 533e e5a8 9cbd 0ae4 9d3d 75c1 8cbe
00000020: 50f5 133e 4093 633e f67c 2bbe 8377 d83c
00000030: 685e 013e 2a92 64be 915a 1f3d b1e5 a13c
-0.23884699 -0.26806313 -0.1683953 0.18778394 0.20662606 -0.076494016 0.077095106 -0.27491346
0.14449048 0.2222414 -0.16746888 0.026424175 0.1263367 -0.22321382 0.03890473 0.019762846

layer1.1.bn1.weight f4 [16]
00000000: 55a8 913f f33c 8d3f ace7 5c3f 7c57 8c3f
00000010: 1032 943f 10d2 8a3f f3e9 4c3f ba58 a03f
00000020: c1ac 8e3f f579 843f 66d2 543f 61c5 803f
00000030: 03ff 563f 3b81 8d3f 914e 8d3f 6560 913f
1.1379496 1.1034225 0.86291003 1.0964198 1.1577778 1.0845356 0.8004448 1.2527077
1.114647 1.0349718 0.8313354 1.0060235 0.83982867 1.1055063 1.1039602 1.1357542

layer1.1.bn1.bias f4 [16]
00000000: b150 01be c002 1d3d edbe 13be 782c 89bd
00000010: 0027 043d 21e1 843d 4ef1 aabe 8f33 c3bd
00000020: 33ec 9fbe ed04 4cbe 54b3 e3be f556 48be
00000030: c451 68be a92a 1a3e 83c2 76bc 4614 253e
-0.12628438 0.0383327 -0.14428301 -0.06697935 0.032263756 0.064882524 -0.33387226 -0.095313184
-0.31234893 -0.19923754 -0.44472754 -0.19564421 -0.22687441 0.15055336 -0.015061024 0.16121015

layer1.1.bn1.running_mean f4 [16]
00000000: a3f2 2f3e d339 383f 62d6 5b3f 61a8 ae3f
00000010: 866a 273f 7704 84be 0184 833e 436d 8fbd
00000020: 96e1 443f a2cf 0a3f aa2e 373f 40c7 65bf
00000030: 9c1a 853f 8fae afbf fcb5 a93f d015 053f
0.17182402 0.7196323 0.85874 1.3645135 0.65396917 -0.25784656 0.25686648 -0.07003262
0.76906717 0.5422307 0.7155558 -0.89757156 1.0398746 -1.3725146 1.3258662 0.5198641

layer1.1.bn1.running_var f4 [16]
00000000: a283 913f 297d a93f e1fe 5e3f 5cd7 b83f
00000010: 6aab 873f 7a84 a53f b9ff 7d3f 2d4b 513f
00000020: cfd9 933f 059b 633f 5f15 b13f 3235 4f3f
00000030: d712 e23f 23c1 aa3f 819c 8c3f c341 da3f
1.1368296 1.3241321 0.87107664 1.4440722 1.0599186 1.2931054 0.99218327 0.81755334
1.1550845 0.88908416 1.3834647 0.80940545 1.7662 1.3340191 1.0985261 1.7051319

layer1.1.fc2.weight f4 [16, 16]
00000000: 4344 403e b73d bd3e 9247 6d3d cce9 b53d
00000010: 4055 87bb 072e 093e 8ab5 0ebe cfdb 7c3e
00000020: 4d61 803e 600c 2ebe f185 853d ab33 5f3e
00000030: 52fa c23e a81d 19bd 6fa0 bb3e 38a0 103b
00000040: 31a5 11be 84d3 b4bd 9424 71be 8973 3dbe
00000050: 1517 52be e63a 943e 20dd 51be 0fbb a63e
00000060: 8411 af3e f3e9 0abe fc16 223e 2ac8 b8bc
00000070: 1d18 053e 9fb9 4dbd f760 16be 6ce8 00ba
00000080: f275 093f cae2 833e 481c a53c 228f e73d
00000090: 9ed0 b4bd c9f5 9fbd ccad 53bd 2005 2e3e
000000a0: 1a70 8e3e cb67 b3be 7953 3a3e 5d5d 4d3e
000000b0: c864 8bbd 3559 06be a14b 243e a135 cc3e
000000c0: 5fea beba ae29 1fbd fa44 b9bc db4f 8abd
000000d0: 5030 423d 0948 dd3e de98 f63c 5077 d23e
000000e0: 79ac c53c bef1 013e 6c58 c53d 5aaa 743e
000000f0: 8efe ce3d 9967 613e b65a f33d 8083 c83e
00000100: d43d 99be 272a 98bd 9df3 54be 1a53 45be
00000110: 9fba 073e 66c1 173e 7cb2 56be 1a3e d53d
00000120: aaca b93e 0193 b43e e8f0 a23e 6b3e 923e
00000130: 2a1d f9bd befb 4c3e 0736 843d ec59 693e
00000140: 0ddd febd 142c 8ebe 993b 6dbe 8e14 3f3c
00000150: c201 fbbe 6482 9abd 79ee de3c 3064 353d
00000160: 055b cbbc a966 443e fc24 e23d 7ddd b93e
00000170: 0345 863e 99e8 763d 3d9e bcbd 9855 2cbe
00000180: 71bc 29be 27f0 97bd ea5c c23d c2d4 00bf
00000190: 4068 583e ef7d ae3e d703 90bd 3321 bbbd
000001a0: a14b 423e 3933 1d3e 3731 683e c68d d93b
000001b0: 16c2 22be 1b11 013d b92b dcbe e9fc 38bc
000001c0: 56e5 51be 909a 7a3c e070 1b3e 0190 9fbd
000001d0: 7668 823e 6b29 c83d 5598 973e 5840 bd3e
000001e0: fb2f aebd 7a3c 363e 7a85 153d 5f85 25bd
000001f0: 84fa f0bd 2c1e 093f de9c 3c3e 8db0 883e
00000200: 508a 44bd 8626 87be 5561 c3bd 65a8 6fbe
00000210: 3d52 85bd cbff 893d 27e1 1c3e 6f4c 533e
00000220: 6ebe 963e 633d 923e 915f b73d 2932 503e
00000230: d276 2f3b d212 33be 85e5 97be 517d 133e
00000240: e619 fe3b d0b0 5c3b 1d20 1abe f4d8 e63d
00000250: 0689 5abe 8771 da3e 001c 2b3e 5294 1b3f
00000260: 0f1b 8a3e de1f ba3d bfa1 c43d 19e6 a53e
00000270: 456a e13d d6fc fc3d c6bd 8cbd 1b86 2c3e
00000280: 458b dabe e64b 61be 3489 273d 5c7f bdbe
00000290: bba8 dbbc 4a9e ea3d 30f3 5e3e 10b5 3ebe
000002a0: 9850 8ebe d98f 213e 669b 64be 81f0 ab3e
000002b0: 1823 50be b83a 973e 6ef5 d8be 43ef 81be
000002c0: d56e 803e 6a34 403e adf6 debc 5589 363e
000002d0: a690 be3e d6f5 12bc 520b ea3d 3828 4ebe
000002e0: e5b5 a03e f572 47bd b48a a03e e7fd 18be
000002f0: c5ca a73e 6716 59be 6142 513e 53c0 77bd
00000300: 87c2 b13e 4204 b4be 2b54 183e 5ffc 233e
00000310: 31c4 ef3d feae 69be 8f6e 1dbe 183f 7c3e
00000320: cda3 353e 774b 323e f93a 403e 244c 2ebe
00000330: 832a 4bbd c1f6 5ebd 4a20 773e f0c7 e3bd
00000340: ac6d b0be 04ca 79be 1c33 a0bd 31d4 44be
00000350: 43b1 98be 026b 823e 44e6 a83d e77d 703e
00000360: dde2 c6bd 633b 063e ec95 4dbd 8f9e c83e
00000370: 7a44 4b3e c7c4 96bd 6cf4 823d 4e05 81be
00000380: a1c9 86bd 7746 8d3e a9b1 8b3d 2ab2 453e
00000390: 922d f93b eb02 173e f687 933d fec8 8f3e
000003a0: ecfe 17be bbc3 d7bd 1732 603e a9b7 55be
000003b0: 46d9 963e 989a fabb 6105 853e ea47 043f
000003c0: 7afe 83bd 03e1 803d 2975 81bd ec01 debd
000003d0: 48cc 12bf 18ec 553d f1ec edbe 433c 29bd
000003e0: 8919 12be f9f7 81be d206 923d 88ed 3fbc
000003f0: 8c2e ec3d 5a75 cc3e 47d0 a93d 3766 b9be
0.1877604 0.36961147 0.057929583 0.08882484 -0.0041300356 0.13396464 -0.13936439 0.24693225
0.25074235 -0.16996908 0.06519688 0.21797054 0.38081604 -0.037381798 0.3664584 0.0022068154
-0.14223172 -0.08829406 -0.2354911 -0.18501104 -0.20516618 0.28951186 -0.20494509 0.3256459
0.3419305 -0.13565807 0.1582908 -0.022556383 0.1299748 -0.05022585 -0.14685427 -0.0004917446
0.53695595 0.25758964 0.020155087 0.11306597 -0.08828853 -0.07810552 -0.051679417 0.16994143
0.27819902 -0.35040125 0.18195905 0.20055147 -0.06806332 -0.13119967 0.16044475 0.39884666
-0.0014565698 -0.03885811 -0.022615898 -0.067535125 0.047409356 0.4321902 0.03010219 0.41106653
0.024130093 0.12689874 0.09636006 0.23893109 0.10107146 0.22012176 0.11882536 0.39162827
-0.29929984 -0.07429915 -0.20796056 -0.19269982 0.13254784 0.1481987 -0.20966524 0.104122356
0.36287433 0.35268405 0.31824422 0.28563246 -0.12163766 0.20017907 0.064556174 0.22788209
-0.12444506 -0.27768004 -0.23167266 0.011662615 -0.4902478 -0.07544401 0.027213322 0.044285
-0.024823675 0.19179787 0.110422105 0.36301795 0.26224527 0.060280416 -0.09209869 -0.16829526
-0.16575791 -0.07418852 0.09490378 -0.5032464 0.21133518 0.34080455 -0.070319824 -0.091371916
0.18974163 0.15351571 0.22675024 0.006639215 -0.1589435 0.031510454 -0.43002108 -0.011290767
-0.20497641 0.01529564 0.15179777 -0.077911384 0.25470322 0.09773525 0.29608408 0.36963153
-0.08505245 0.17796507 0.036504246 -0.040410396 -0.11766532 0.53561664 0.18419215 0.26697198
-0.047983468 -0.2639658 -0.09540049 -0.23404081 -0.06509826 0.06738242 0.15320264 0.20634626
0.2944216 0.2856246 0.08953775 0.20331635 0.0026773703 -0.17487648 -0.29667297 0.14403273
0.007754552 0.0033674724 -0.15051313 0.11271849 -0.21341333 0.4266474 0.167099 0.60773194
0.2697377 0.090881094 0.09601163 0.32402113 0.110065974 0.12352912 -0.06872134 0.16848032
-0.4268438 -0.22001609 0.04090233 -0.3701123 -0.026813855 0.114559725 0.21772456 -0.18623757
-0.27795863 0.1577753 -0.22324905 0.33581927 -0.20325887 0.29536986 -0.42374748 -0.25377855
0.25084558 0.18769994 -0.027217234 0.17825826 0.37219733 -0.008969745 0.114279404 -0.2013253
0.31388775 -0.048693616 0.31355822 -0.14940606 0.32771888 -0.21199952 0.20435478 -0.06048615
0.34718725 -0.35159498 0.14875858 0.1601424 0.117073424 -0.2282066 -0.15374206 0.24633443
0.17738266 0.174116 0.18772496 -0.17021233 -0.04960109 -0.05443454 0.24133411 -0.111221194
-0.34458673 -0.24393469 -0.07822248 -0.1922157 -0.2982274 0.25472265 0.08247045 0.23485528
-0.097112395 0.13108592 -0.050191805 0.3918347 0.1985034 -0.07361751 0.06394276 -0.2519936
-0.065814264 0.27592823 0.06820995 0.19306245 0.0076043094 0.14747207 0.07203667 0.28083032
-0.14843339 -0.105353795 0.21894108 -0.20870842 0.2946264 -0.0076478235 0.25980666 0.5167223
-0.06445022 0.062929176 -0.06321175 -0.1084021 -0.5734296 0.05222711 -0.46469834 -0.041317236
-0.14267553 -0.253845 0.07130207 -0.011714347 0.115323156 0.39933282 0.08291679 -0.36210796

layer1.1.fc2.bias f4 [16]
00000000: 6ba1 febd 7af4 8f3e fe5f a33e 87cc 1dbd
00000010: 6ab7 0cbe e4a4 9dbc 61b7 63be 618d 12be
00000020: 347a 603e aa8c 90be f793 643c ba1a 063d
00000030: c0f9 453e 17f3 343e 0500 8cbe 4435 1bbe
-0.12433132 0.28116208 0.31909174 -0.03852513 -0.13741842 -0.019243665 -0.22237922 -0.14311744
0.21921617 -0.28232318 0.013951293 0.032740332 0.19333553 0.17670856 -0.27343765 -0.15157038

layer1.1.bn2.weight f4 [16]
00000000: 8dcb 9a3f 5256 783f fa32 5a3f c1e3 833f
00000010: 4f4d 9f3f 44ac 903f 0289 893f ca6e 223f
00000020: 5eca ab3f efd7 893f 9379 4a3f 0335 813f
00000030: 303f 483f aafe 963f ce20 833f 0386 653f
1.2093369 0.97006714 0.85234034 1.030388 1.2445468 1.1302571 1.0744936 0.634503
1.3421133 1.0769023 0.7909176 1.0094303 0.78221416 1.1796467 1.0244386 0.8965761

layer1.1.bn2.bias f4 [16]
00000000: 9b95 a2bd b1a7 a2be a435 8cbe e419 80be
00000010: 779f e3be 0b7d 843d 51ed ad3e c21c 11be
00000020: db23 b4bd f302 55be 8ef9 99bc fe15 0b3d
00000030: 7082 fa3c e7db 8f3e 16eb bb3d ac98 6f3e
-0.07938691 -0.31768563 -0.27384675 -0.25019753 -0.444576 0.064691626 0.3397012 -0.14171126
-0.087959014 -0.20801906 -0.018795755 0.03395652 0.030579776 0.2809746 0.091756985 0.23398083

layer1.1.bn2.running_mean f4 [16]
00000000: f2dc 203f d7df 653e cb88 713f a9d2 563f
00000010: 2950 993e e2d1 a9be 3245 b4be 1935 283f
00000020: e715 4e3e 8e39 fe3e eaa0 12bf d80f 003f
00000030: ac44 d33e 9f01 48bd 0b89 ec3e 7c78 14bf
0.62837136 0.2244867 0.94349355 0.8391519 0.2994397 -0.3316794 -0.35209042 0.6570602
0.20125543 0.49653286 -0.57276785 0.50024176 0.4126333 -0.04882967 0.46198305 -0.57996345

layer1.1.bn2.running_var f4 [16]
00000000: 186b c53f 419a e23e 6066 8a3f d1fe 293f
00000010: 3df1 023f f513 9d3e 8901 403f 5a90 363f
00000020: 3638 d93e a8ac 403f 9eb4 1440 0c94 8e3f
00000030: e933 ae3e c555 b23e 2b61 5a3f 544d 623f
1.5423307 0.4425831 1.0812492 0.66404444 0.5114935 0.30679289 0.7500234 0.71314013
0.42425698 0.7526345 2.323524 1.113893 0.3402398 0.34831062 0.85304517 0.88399243

layer2.0.fc1.weight f4 [32, 16]
00000000: 04d3 cbbc 42dd 003f 5da5 92bd d35f e83c
00000010: 193d d73d 1912 773e c4bc 123f e119 21be
00000020: e4eb 1e3e c7ff c53d 31ac cc3c 348a 92be
00000030: 4def 493e 6fd5 8c3d 3e62 b03d 3a78 67bd
00000040: 4fa3 1dba f18e 8b3e 1c14 2c3e 82a9 7c3e
00000050: 5074 c73e 2d22 78be 8e59 5a3e 0300 03be
00000060: 4b30 a6bb 7e60 c43d 362a 81be d87e b83d
00000070: e5a1 7f3e d190 78be b689 56bd 40e2 bc3d
00000080: b893 ebbe eeaf 653e 5198 443e fdea 923e
00000090: 649b 5c3a 9989 fe3d 5cb6 363e eeff 19bd
000000a0: bdff 6f3e cf11 753e 43c1 aa3d b965 a8be
000000b0: 6d4b e23c a49c 0bbe bd38 cabb 8ccc 323c
000000c0: 705c d53e 4cb9 cdbc 73d6 963e 846c 483e
000000d0: fdda 9e3d c190 2b3e 163f ce3d fef2 9e3e
000000e0: 826e 20be e3e3 b73e 8119 0abe 673b 0f3e
000000f0: 906b 973e bf90 d8bd ac68 263d 79de a0be
00000100: e01a c7bb c9a5 3e3e 0d72 03be 91a2 be3e
00000110: 1ec9 873e 9cf7 1c3d 9d6e a8bb 78b7 3d3d
00000120: 9e62 b93e cf5e ad3e b766 aa3d f61e d43b
00000130: 3f23 1d3e 0559 24be f985 afbc 29f8 afbe
00000140: fe90 6b3d 8446 d23e 5e33 6b3e 026d 783d
00000150: 1a39 413e 1d8d 893e f615 0dbc 05a0 d7bd
00000160: 340f 133e 5c20 7a3e 6506 e1bd c25b 93bd
00000170: 59e3 ea3e da2a fdbd 3b7f 76be 003d 80be
00000180: f78d 2e3e bea6 8c3e f241 50be 26b6 153e
00000190: 1935 263e c65c 94bd 936b 9f3e 4171 91be
000001a0: 1018 3bbd d8db 453d e73c 27be b681 0c3e
000001b0: 09fe 563e 2451 96be e9c9 193e fbd6 3cbe
000001c0: 4a76 623e bcbd 9abd 5717 773c b8e0 573e
000001d0: 1c2b 983d 4785 72be b959 1e3e a5a1 823d
000001e0: 072c e23e 3856 8abe ab23 943e 67db 673e
000001f0: 4c48 20be 3f8f e9be 5463 1f3e 46c8 e6be
00000200: c731 8cbe 95b4 d4bd 7bda 44be 8d49 543e
00000210: 65b9 ce3d d63f 33bd e2b6 c5bc ac71 c73e
00000220: 0fda 133e 0fc3 ba3d 3494 b33e 05e1 7e3d
00000230: fc86 063e b2e4 24be 73a1 993e b76d 3b3d
00000240: e06a 1abe b006 8cbe 01e9 31be 6d2a 25bd
00000250: 57d7 8f3d e161 423e b482 89be f04e 95be
00000260: f07e f0be 20f0 1cbd 725b e13c 87d7 62be
00000270: b108 82be 9365 c33e d6c9 3e3d 728f 5dbd
00000280: c6b1 24be 07c9 eebd 828b 0c3e c778 2b3e
00000290: 9b38 ddbd 01d3 fcbc 7781 63be b14c a63e
000002a0: 3eff fc3d 5943 183e 7d42 ab3e 316d d23e
000002b0: 3f52 e3bd be43 72bd 3e6e c43d 07e3 8ebe
000002c0: 22ab ef3d 275e bb3e e872 f13c 7348 4e3e
000002d0: 64c4 913e 9c44 d43c b826 a33e 8a33 2ebe
000002e0: a280 853e d296 bd3d efd5 c1be 124f 99be
000002f0: c9d3 273d b0fe 9b3d 45c2 2cbe 3198 e8bd
00000300: da6a 89bd e07d 31be cdf9 4ebc cfe3 453e
00000310: c958 763d f334 7ebe 0ba0 e4bc f7f9 be3e
00000320: fe92 a93e 39f4 113f 3199 e73c 36ef d53d
00000330: 2ca2 46bd 4e4a 333c 3dd8 fbbd ad71 75bd
00000340: 25a5 fdbe 9b7d 563a 73d3 a2bd 7b2a 52be
00000350: bb77 bc3d 3ed3 35be 1d4a 503e fcc8 a13d
00000360: 20a5 713c 7daf 8b3e b53a 09be 1608 12be
00000370: b240 323d bc0b b4bd c7f0 9ebe 255e 80be
00000380: 67f5 85bd 47b6 f43e 1d39 93be 0b4b 323d
00000390: 077e 4b3e a36a 613e 5e71 2e3e 83dd 52be
000003a0: 1876 c4bd cd8c ec3e c5a2 a0bc 9d9d 843e
000003b0: fb81 653e 9805 35be b14c 1cbe 4203 8ebd
000003c0: 6a3c cebd 5bd6 013e b740 01bd 0174 353e
000003d0: 8197 c33e 109d b23e ffa3 8d3e c80b 333e
000003e0: f6ec 013f 5c37 543e 453e 1b3d d018 e3bd
000003f0: 28b6 413e e514 a03b fd27 2cbd 8c8f 59be
-0.024880894 0.5033761 -0.07160447 0.028366005 0.105097 0.24127997 0.57319283 -0.15732528
0.15519673 0.09667926 0.024984451 -0.28621066 0.19720192 0.06876647 0.08612488 -0.05651114
-0.00060134096 0.27257493 0.16804546 0.24674037 0.38955927 -0.24231787 0.21323225 -0.12792973
-0.005071675 0.09588717 -0.25227517 0.090085685 0.24964102 -0.24273993 -0.052377425 0.09222841
-0.46011138 0.22430393 0.19198729 0.28694907 0.0008415489 0.124285884 0.17843002 -0.03759759
0.234374 0.23932575 0.08337643 -0.32890108 0.027623856 -0.13633972 -0.0061713145 0.010913026
0.41672087 -0.02511277 0.29460487 0.19572645 0.077566124 0.16754438 0.100706264 0.31044763
-0.15667155 0.3591605 -0.13486291 0.13987504 0.2957425 -0.10574483 0.040627167 -0.31419733
-0.006076202 0.1861793 -0.12836476 0.37233403 0.26520628 0.038322076 -0.0051401393 0.046317548
0.3620805 0.33861396 0.083203726 0.0064734174 0.15345477 -0.16049583 -0.021426188 -0.3436902
0.057511322 0.41069424 0.22968814 0.060650833 0.18869439 0.26865473 -0.008611193 -0.10528568
0.14361268 0.24426407 -0.10987548 -0.07195236 0.45876577 -0.12361689 -0.24071972 -0.2504654
0.17046343 0.27470964 -0.20337656 0.14620265 0.16231193 -0.07244258 0.3113676 -0.28406718
-0.045677245 0.048305362 -0.16331826 0.13721356 0.20995344 -0.2935878 0.15018429 -0.18441384
0.22115436 -0.0755572 0.015081248 0.21081817 0.074300975 -0.23683654 0.15463914 0.063784875
0.44174215 -0.27018905 0.28933463 0.22642289 -0.15652579 -0.456171 0.15565234 -0.45074672
-0.27381727 -0.10386006 -0.19223969 0.20731182 0.10093955 -0.04376205 -0.024135057 0.38953912
0.14438652 0.09119236 0.35074008 0.062226314 0.1313743 -0.16102865 0.30005988 0.04575893
-0.15079832 -0.27348852 -0.1737404 -0.040323664 0.07023495 0.1898265 -0.2685753 -0.29161787
-0.46971846 -0.03831494 0.027509425 -0.2215253 -0.25397256 0.38163432 0.046579204 -0.05409188
-0.1608344 -0.11659437 0.13725093 0.16745292 -0.10801812 -0.030862333 -0.22217356 0.32480386
0.12353371 0.14869441 0.33449164 0.4109893 -0.110996716 -0.059146635 0.095913395 -0.27907583
0.11702563 0.3659527 0.029473737 0.20144825 0.28470147 0.025911622 0.31865478 -0.17011848
0.26074702 0.09257282 -0.3785853 -0.29943138 0.04097346 0.07616937 -0.16870983 -0.11357153
-0.067098334 -0.17333174 -0.012632799 0.19325183 0.060143266 -0.24824886 -0.027908346 0.37300083
0.3311996 0.5701328 0.02827129 0.104460165 -0.048494503 0.010943009 -0.122971036 -0.059922863
-0.49540058 0.0008182169 -0.07950487 -0.20524018 0.09202524 -0.17756364 0.20340772 0.07899663
0.0147488415 0.27282324 -0.13401301 -0.14260897 0.04351873 -0.08791301 -0.31043074 -0.25071827
-0.065409474 0.47795317 -0.2875451 0.043528598 0.19872294 0.22013335 0.17035434 -0.20592313
-0.09592837 0.46201172 -0.019608865 0.259015 0.22412865 -0.17677915 -0.1526363 -0.06934215
-0.10070117 0.12679426 -0.031555858 0.17720033 0.38201526 0.34885454 0.27664182 0.17484963
0.507522 0.20724243 0.03790118 -0.11088717 0.18917143 0.0048853033 -0.042030323 -0.21246165

layer2.0.fc1.bias f4 [32]
00000000: fb88 fcbd 607f 6fbe 36fc 08be 4982 c7be
00000010: f15f 353e bdad 853e ca03 a1be 5689 6e3e
00000020: 413a 6f3d e672 a4bc c61f 3e3e d8e2 6f3e
00000030: 02a7 d8bd 7bb4 68be d19d 083d ea8d fd3d
00000040: ac91 993d 8139 b3bd 2279 25be 296f 5c3e
00000050: bac6 053e 0248 843e 5382 43be 29e7 81bd
00000060: 32e7 ac3e 57b8 cabd af8f b9be 9254 773e
00000070: 7bd7 9c3d 681b 783e 3444 6bbd 8c5a a9be
-0.123308145 -0.23388433 -0.13377461 -0.38966587 0.1771238 0.26109114 -0.31448203 0.23294577
0.058405165 -0.02007432 0.18566808 0.23426378 -0.10578729 -0.22725098 0.03335363 0.123805836
0.07498488 -0.087512024 -0.1615949 0.21526779 0.1306409 0.25836188 -0.19092683 -0.063429184
0.33770138 -0.09898441 -0.36242434 0.24153355 0.07658287 0.24229205 -0.05743809 -0.33076894

layer2.0.bn1.weight f4 [32]
00000000: 1a9a 723f 404c 613f f1a4 8d3f b0da 7a3f
00000010: ea08 633f 68c0 513f 08e7 793f de13 993f
00000020: b003 803f 91c5 953f 5a08 5c3f 7e68 3e3f
00000030: 1cf1 403f 8149 653f 6704 6e3f cbfa 843f
00000040: cecc 8e3f 4530 7e3f 6bc0 5f3f fbc1 893f
00000050: dd45 823f f9ff 923f 5091 973f e80a 4c3f
00000060: 83ab 783f b9dc 893f 91ee 603f eb02 963f
00000070: ff86 893f 4f36 813f 1511 8e3f 618e 9b3f
0.9476639 0.88006973 1.1065961 0.9798994 0.88685477 0.81934214 0.9761815 1.1959188
1.0001125 1.1700917 0.85950243 0.7437819 0.75367904 0.89565283 0.9297547 1.0389036
1.1156251 0.99292403 0.8740298 1.0762323 1.017757 1.1484367 1.1841221 0.7970414
0.97136706 1.0770484 0.87864023 1.171964 1.0744323 1.0094699 1.1098963 1.2152826

layer2.0.bn1.bias f4 [32]
00000000: 13f8 afbe 134a 60bb 2edf 96be d2bf 9d3d
00000010: 5c9e 8cbe 753c d3be 79fb 9cbe 8e69 c83d
00000020: b0b6 06be 6f50 033e 3ae4 8ebe 3f14 d5be
00000030: f568 a1be b776 0cbf e46e 55be 9edc b7be
00000040: c9b8 13bd 0b7a 49be 6fbf 7fbe 5ddf b1be
00000050: 9bf6 333c 1475 c5be 29a9 5ebe afe4 9bbc
00000060: b425 c6bd f194 d8bd f0a3 ffbd 52de 1b3e
00000070: 1db8 14be 284e a6bb 0ca5 93be d4ba 91be
-0.34368953 -0.003422384 -0.29467148 0.077026024 -0.2746457 -0.41257063 -0.30660608 0.09785758
-0.13155627 0.12823652 -0.27908498 -0.4161701 -0.31525388 -0.54868644 -0.20843083 -0.35910505
-0.036064897 -0.19675462 -0.2497537 -0.34740725 0.010984088 -0.38565886 -0.21744217 -0.019029943
-0.0967516 -0.10575283 -0.124824405 0.15221527 -0.14523359 -0.005075235 -0.28836858 -0.2846285

layer2.0.bn1.running_mean f4 [32]
00000000: 8b0a 963f ea85 1c3e 0a91 c23d f351 303f
00000010: 3c89 433f c117 433f a5cc 07be 8418 2b3e
00000020: 7f2d 6d3f 89d8 80bf 8588 c63e 1037 263f
00000030: 9628 c73e d819 a4bf 9e86 053f 440c ca3f
00000040: f557 093d 4e47 bcbe d0ab 903f 0c06 403f
00000050: fd3f 31bf 12de b3be 43d8 ba3e dc65 1c3f
00000060: 011c c23f 8157 483f e1b9 b5bf 1089 a1be
00000070: 680a 483f 6df2 29bf ece5 8c3e bb09 23be
1.1721967 0.15285459 0.0950032 0.68875045 0.7638128 0.7620812 -0.1326166 0.1670857
0.92647547 -1.0066081 0.3877603 0.6492777 0.38898152 -1.2820387 0.52158535 1.5784993
0.033531148 -0.3677315 1.1302433 0.75009227 -0.69238263 -0.35130364 0.3649312 0.61092925
1.5164796 0.7825852 -1.4197351 -0.31549883 0.7814088 -0.6638554 0.27519166 -0.1592168

layer2.0.bn1.running_var f4 [32]
00000000: 2ee1 a03f c9bb e43f 379c 9a3f 46d2 2b40
00000010: d46e e33f 8c59 d93f 88db b23f 9850 ec3f
00000020: 0df1 ff3f b9f7 2140 0e26 e63f d177 bb3f
00000030: 7bcd df3f 93ec b93f 9d9b 663f 2e89 0e40
00000040: 6101 0a40 8677 3e3f b3c4 d03f c3c8 903f
00000050: e321 1c3f a3e3 9d3f a4af ee3f ffd2 8d3f
00000060: 31d3 da3f 8f46 c23f 34b8 803f a8ed ac3f
00000070: acff 7a3f 55f9 bf3f 6225 aa3f 9809 da3f
1.2568719 1.7869807 1.2078923 2.684709 1.7768197 1.6980453 1.3973246 1.8462095
1.9995438 2.5307448 1.7980363 1.464594 1.7484583 1.4525322 0.900812 2.2271228
2.1563342 0.7440113 1.6310028 1.1311268 0.6098921 1.2335094 1.8647351 1.1080016
1.70957 1.5177783 1.0056214 1.3510027 0.98046374 1.4997965 1.3292658 1.7034178

layer2.0.fc2.weight f4 [32, 32]
00000000: 83b2 86be ea06 a5be caca bd3d 5e5c 31be
00000010: d200 19be 1974 26be 6f94 02bf 67a7 253d
00000020: cec7 893d b1a9 813c fd75 55bd 664f 33bd
00000030: bdf8 94bd 3c23 d93d 44a0 14be 8f8f 243d
00000040: fe24 13be 4621 e3bd c563 913d 85e8 b23d
00000050: c2f7 2a3e 6605 603e 88aa d7be 1779 353c
00000060: 4c40 4cbe a6a7 9b3b 3012 54bc 479f 333e
00000070: 0352 6b3d f1e6 9d3e 293d 2d3e 0c69 f3bc
00000080: 7b55 7c3c 705a 223e c483 833d d598 3c3e
00000090: 1998 44bd 2160 403e 5167 cc3c 8bf9 ab3e
000000a0: 8857 f13d b44d 05be 7a3f 803d f6fa 99bd
000000b0: 5bb2 633e d45c a2bd a938 603d e1a9 85bd
000000c0: 534d 023e ae3f f23e 42d3 c03e 175b e8bd
000000d0: 0dd8 c4bd a64e f9bd 17c9 cc3e 54dc e83d
000000e0: 04e1 d93d 3036 9d3b 1b9f 05be 94ad c43d
000000f0: 5526 63be bb6a 1bbe 8dab 033e ed02 adbd
00000100: 938e cc3d f287 09be f2b1 823d ac6f 15be
00000110: 0ecd 823c 6201 c9bd 3eb8 bbbd 5d7b 5fbd
00000120: 64a7 103e b971 6e3e 6055 893e 8b8b 063e
00000130: 4ee2 2c3e b375 073f 37b8 ffbb 48f2 a23c
00000140: a042 1d3e 9a25 3cbe 6aff 39be 1a60 933e
00000150: fc48 5a3d 29d2 183e c413 45be e0ab 39be
00000160: ac70 06be 0a3b 153d bb30 b93c 4ce1 4f3e
00000170: 5511 5d3e 0fb7 8b3e 0575 263e e2f9 cf3d
00000180: 6cc2 a53e a2ad 4e3e 0513 653e 3a91 83bd
00000190: bedc 583d 444f c73e e48c 833d c65b 413d
000001a0: 5175 53bd d50a 42be 6603 cd3d ff82 6e3e
000001b0: 71f9 023e 2ba0 2c3e 4b77 883e 8d7d 2f3e
000001c0: 6161 c23d 3aa6 04bb 053b e43d ee17 c73e
000001d0: 516f 323e 8e31 d73e d71b 403e b66f 383e
000001e0: a5d6 80bd dcde 2a3e 3299 9fbd 80ca 273d
000001f0: 81ac 74bc d040 02bd 3f64 2e3e f450 5d3e
00000200: 7d54 14be 031c 29bd 94d8 5ebe 3dca 3d3c
00000210: 8164 763d 27f5 81be 2221 4dbd a3c4 94bd
00000220: 67eb 79be 7d85 fe3e 8d10 20bd 9adc dfbd
00000230: 318b 50bd f5b4 25be 62e7 b03d 7891 f1bc
00000240: 3675 643d 2ce5 d53d bb95 5bbd 9592 d83a
00000250: 9ffe 5d3e 7499 73bd b4fa 19be 1a4c b2bd
00000260: 7a48 a4bd a39f 5abd 2bca ae3e 4a0e c93e
00000270: c5e8 e13c 7b1f da3e dd46 93bd fe41 50bd
00000280: 59e0 fdbd 7cd2 853d a10f 563e a3f4 953e
00000290: d548 8d3c f7ee af3b 0948 3d3d 4201 d83e
000002a0: 40c8 5d3e 1143 1e3d 05a3 963e 2423 973c
000002b0: af82 143e e3e6 7dbd de2f 853d d9d6 6f3e
000002c0: 65b1 cd3e 1dd7 393e 00bd 013d 5867 b5bb
000002d0: 3454 ffbd 8a23 053d 0edc 653e 08d7 253e
000002e0: 0124 38bd ecc8 863e e58f 4dbe 1f3b 4dbe
000002f0: 8a7e 47be 5ee0 7abb ee2f 333e bb49 eabb
00000300: 4aa0 53bd db83 22be 483a a1bd 89f3 273e
00000310: 6916 f63d a2c3 663d d905 3e3d ee3f 0f3f
00000320: c9d9 e13e 66b2 eabd e7f5 363e 4000 663d
00000330: 6180 7d3d d9de 9fbc d4d2 2ebd bd79 a13e
00000340: 02d4 a13e c7f8 9b3d 00a3 443e 3cb4 983d
00000350: 48d2 8a3e cc05 a7bd 395b d1bd b48d 26be
00000360: 7541 a2bd 5b05 fd3d e073 bfbd e4fe debd
00000370: e381 22be f2bd 8fbd 5eaf 6b3c 9924 1dbe
00000380: 6fca 1d3d 5021 353e 69a3 763e 603e ad3e
00000390: bc27 833e 63fa 3a3e 6857 483e d8a9 643e
000003a0: ad66 803d 719c 3ebe 5177 233e 4b3e a6bc
000003b0: 4096 f33d 8238 6dbd 38f9 213e dc9b 8d3d
000003c0: 9a57 f43d 3461 363e 6346 803e 5cc9 133d
000003d0: 0b9d c33d 930f 203e 5744 fb3e 751d fd3c
000003e0: 83ab 993d 7c97 f63d 40fd c8bc 520d dd3d
000003f0: 1b54 713e 89ab fc3d 57ff 9cbb 905c 183d
-0.2630807 -0.32231838 0.092671946 -0.17320392 -0.14941719 -0.16255225 -0.5100774 0.04044285
0.06727563 0.015827985 -0.052114476 -0.043776892 -0.072740056 0.106024235 -0.14514261 0.04017597
-0.1436958 -0.11090331 0.07099108 0.08735756 0.16696075 0.2187706 -0.42122293 0.011076233
-0.19946402 0.00475021 -0.012943789 0.17541228 0.05745126 0.30840257 0.16917862 -0.029713176
0.0154012395 0.15854812 0.06421617 0.18417676 -0.047996614 0.1878667 0.024951609 0.33588824
0.117842734 -0.13017923 0.06262107 -0.0751857 0.22236006 -0.07927862 0.054741535 -0.065265425
0.1272481 0.4731421 0.37661177 -0.11345499 -0.09611521 -0.12173204 0.3999717 0.11370149
0.106386214 0.0047977194 -0.13048975 0.0960342 -0.22182591 -0.15177433 0.1285841 -0.08447824
0.099881314 -0.13430765 0.063815966 -0.1459338 0.015966918 -0.09814717 -0.09166001 -0.054561008
0.14126354 0.23285569 0.26822948 0.13139169 0.16883203 0.5291397 -0.0078039425 0.01989092
0.15357447 -0.18373719 -0.18163839 0.28784257 0.05329226 0.1492392 -0.19245821 -0.18131971
-0.13128918 0.036433257 0.022606244 0.20300788 0.21588643 0.272881 0.16255577 0.10155083
0.32374895 0.20183423 0.22370537 -0.06424184 0.05294489 0.38927662 0.06423357 0.047206663
-0.051625554 -0.18949445 0.10010414 0.23292159 0.12790467 0.16857974 0.26653513 0.17137738
0.0949123 -0.002024068 0.111440696 0.38885444 0.17425276 0.42029995 0.1876062 0.18011364
-0.0629094 0.16686577 -0.077928916 0.040964603 -0.014933706 -0.03180009 0.17030428 0.21612912
-0.14485355 -0.04128648 -0.21762305 0.011583862 0.06015444 -0.2538235 -0.050080426 -0.07264068
-0.24406205 0.49711218 -0.039078284 -0.10930748 -0.050913993 -0.16182311 0.08637883 -0.02948831
0.055775844 0.10444102 -0.05360959 0.0016523177 0.21679161 -0.059472516 -0.15037042 -0.087059215
-0.08021636 -0.053374898 0.34138617 0.39268714 0.027576813 0.42602143 -0.071912505 -0.050844185
-0.123963065 0.06534287 0.209044 0.29288206 0.017246643 0.005369063 0.046211276 0.4218846
0.2165842 0.03863818 0.2942125 0.018449374 0.14502977 -0.06198777 0.065032706 0.23421802
0.40174404 0.18148465 0.031674385 -0.005536001 -0.12467232 0.032504596 0.22447225 0.16195309
-0.04495621 0.26325166 -0.20074423 -0.20042084 -0.19481865 -0.0038280706 0.17498752 -0.0071499026
-0.051666535 -0.15870611 -0.078724444 0.16401495 0.12015993 0.056338914 0.046392296 0.55956924
0.4411147 -0.11459808 0.17867242 0.056152582 0.06189001 -0.019515442 -0.04268153 0.3153819
0.31607062 0.0761581 0.19202805 0.07456252 0.27113557 -0.081554025 -0.102224775 -0.16264993
-0.07922641 0.12354537 -0.09348273 -0.1088846 -0.1586986 -0.07018651 0.0143850725 -0.15345992
0.038523134 0.17688489 0.24085774 0.3383665 0.25616252 0.18259577 0.19564593 0.22330415
0.06269584 -0.18614365 0.15963484 -0.020293375 0.11893892 -0.05791522 0.15817726 0.069144934
0.11930771 0.17810518 0.250537 0.036080703 0.09551438 0.15630941 0.49075577 0.030897835
0.075034164 0.12040612 -0.024534822 0.10793556 0.2356724 0.12337405 -0.004791181 0.03719765

layer2.0.fc2.bias f4 [32]
00000000: 7d51 b9bd 6eca efbc f3cd 61bd d142 8dbd
00000010: bb03 923d c54a 8a3d 9209 8c3e 67e0 bb3d
00000020: 9c51 8c3c 72bf b6bc fb04 44bd f494 a33d
00000030: d735 1ebe 4a49 ac3d be16 103e 52c2 243e
00000040: 9119 a1bd 7ba1 aa3d a399 8e3e 4587 9cbe
00000050: dc2e 1dbe d57e 063e 89a1 19bd 5b75 41bd
00000060: 5752 4cbe 6327 66be 803a b03d 2591 3abe
00000070: d41d 20be cd3a 823e f036 5d3d 4a16 bb3d
-0.09048746 -0.02927133 -0.05512805 -0.0689751 0.07129618 0.067525424 0.27351052 0.09173661
0.017128758 -0.022308085 -0.047856312 0.07987395 -0.15450226 0.08412416 0.14071175 0.16089752
-0.078662045 0.08331581 0.2785159 -0.30571952 -0.15349907 0.1313432 -0.037507568 -0.04723106
-0.19953285 -0.22475962 0.08604908 -0.1821943 -0.15636379 0.25435486 0.05400747 0.09135111

layer2.0.bn2.weight f4 [32]
00000000: 1878 423f 39a7 923f eb44 8b3f f582 a03f
00000010: 2ec0 9a3f ad63 8e3f 99c6 793f f2f9 963f
00000020: 7b85 753f 42a8 703f 0719 8a3f 049d 823f
00000030: 5b91 3b3f 7945 613f a579 7d3f b301 a23f
00000040: bb63 3c3f 19d5 a83f c547 8b3f 6205 793f
00000050: 491d 973f a887 a03f 36d7 4f3f e948 8d3f
00000060: 256e 9d3f bb85 763f 0773 833f 8285 633f
00000070: 8008 383f 2ba7 9e3f dfec 773f 3fc1 583f
0.759645 1.1457282 1.0880407 1.2539965 1.2089899 1.1124169 0.9756866 1.1795027
0.959068 0.9400674 1.0788888 1.0204167 0.7326867 0.8799663 0.9901374 1.2656769
0.73589677 1.3190032 1.0881277 0.9727384 1.1805812 1.2541399 0.8118776 1.1037875
1.2299238 0.96297807 1.0269479 0.8887559 0.7188797 1.2394766 0.9684581 0.8466987

layer2.0.bn2.bias f4 [32]
00000000: fcaf a1be b9de 60bd f2e0 06be ab83 443e
00000010: 1498 d73d a8a7 043e 922d 01be 085d 733d
00000020: 7884 92be 27ac 53be bc9c 953d 4c61 b4bd
00000030: d66b 28bd 2084 93bd af50 20be a9e3 4bbc
00000040: 8c7f 68be 9d12 a73d c20e 3f3e 752c 403e
00000050: 0df6 023e eee7 1abe c2c2 89bc 21fb 9abe
00000060: 81e1 b3bc 2f33 debd 56c9 9ebc b41f afbe
00000070: de6b 34be c4b0 05bd ed17 d7bc 73b6 c2be
-0.31579578 -0.054899905 -0.13171747 0.19190852 0.105270535 0.12954581 -0.1261504 0.059414893
-0.2861669 -0.2067114 0.07305285 -0.088076204 -0.041118465 -0.07202935 -0.15655778 -0.012444415
-0.22704905 0.08157847 0.18657973 0.18766959 0.12789173 -0.15127537 -0.0168165 -0.3026972
-0.021958115 -0.10849606 -0.019383114 -0.34203875 -0.17619273 -0.03263928 -0.026256526 -0.38029823
